final_rbm.pth (torch, 11988 bytes, 10 tensors)

v_bias f4 [4]
0.0 0.0 0.0 0.0
00000000: 0000 0000 0000 0000 0000 0000 0000 0000

h_bias f4 [10]
0.0 0.0 0.0 0.0 0.0 0.0 0.0 0.0
0.0 0.0
00000000: 0000 0000 0000 0000 0000 0000 0000 0000
00000010: 0000 0000 0000 0000 0000 0000 0000 0000
00000020: 0000 0000 0000 0000

layer1.weight f4 [50, 4]
-0.264283 -0.20316689 0.31802568 -0.106004946 -0.19847506 0.0021689634 -0.30179113 -0.02680034
0.25054505 0.05120195 0.050644875 0.26846758 -0.35584515 -0.029132152 0.19936597 -0.17934039
-0.19412659 0.093045115 0.27880874 -0.17497033 0.0017333223 -0.35575166 -8.448325e-05 0.042764578
0.14126612 -0.18216649 -0.37543514 -0.02360324 -1.7422022e-05 0.14019424 -0.35363543 -0.32738194
-0.0004630112 -0.16113897 -0.32051802 2.2451648e-06 0.08035928 0.045816448 0.029800098 0.014384063
-0.19514105 -0.0008276648 0.326876 0.13629718 0.3391442 0.35576057 0.000100918376 0.26045233
0.02654302 -2.713907e-05 -0.001862063 -0.2547408 0.008019141 -8.584248e-05 2.1095928e-05 0.024214704
0.231155 -0.010754478 0.15080635 -0.0025115823 0.18921915 -1.4924996e-05 0.20085481 -0.222595
-0.0045376876 -0.021870486 0.10759211 0.00072967366 0.015994929 -0.23998466 -0.34383178 0.057010293
-0.018449906 -0.0024427723 0.09633478 -0.19500907 -0.060653243 -0.33227873 -0.00047704688 0.2105299
0.00027816097 -0.018990507 0.16628039 0.04429116 0.20540343 -0.061600164 0.31402412 -0.0022717759
0.30516404 -0.0025706606 0.0024709955 -0.00046248242 0.27029157 -0.1187651 0.033144314 -0.045365196
-0.14156461 0.19344823 0.2957543 0.34338805 -0.3021979 0.32535812 0.24367069 -0.14855203
0.35270646 -0.046628647 0.0021736561 -0.017382288 0.120274685 -0.13346039 -0.06759548 0.0006795594
-0.3495449 0.3586628 0.18004693 -0.00074954756 -0.13854179 -0.00053029467 8.008636e-05 -0.051871095
0.22342123 0.12936181 -0.00011915684 -0.0020162573 -0.09843334 -0.08191815 9.829948e-05 0.37667122
-0.3747336 -0.11573042 -0.0004150053 -0.29413676 -0.28808436 -0.34034258 -0.06708058 0.3344142
-0.020060876 0.009499824 -0.33054295 -0.16808768 0.0017020268 -0.21857226 -0.002080342 0.033953067
-0.009347548 0.3079463 0.36832947 -0.30346173 -6.151287e-05 0.2995092 -0.08002907 0.036603674
0.09546485 -0.041614234 -0.0016426148 -0.011234417 0.06427824 -0.3237814 -0.28288382 0.03093269
0.08563214 0.00016837727 0.0013551121 0.000794574 -0.3217505 0.098633155 0.26046303 -0.0024550527
0.0017681211 0.063633844 0.09300022 0.06716976 9.1619644e-05 0.0018099347 0.19238932 -0.09321642
0.001127489 0.12938933 -0.19187522 -0.2110519 -0.23206374 -0.25131264 -0.03929754 -0.0022941486
0.044532456 -0.00081699056 -0.034874074 -0.1592025 -0.36730507 -0.2261545 -0.003197757 -0.23994046
-0.0217408 -1.2111976e-05 -0.26100773 0.02285897 -0.30389893 -0.14005598 0.30836642 -0.053202704
00000000: 1a50 87be fb0a 50be 43d4 a23e 1f19 d9bd
00000010: 0c3d 4bbe 2b25 0e3b 5e84 9abe 638c dbbc
00000020: 7147 803e 23b9 513d 0071 4f3d 9574 893e
00000030: 5631 b6be 8da6 eebc 9826 4c3e 02a5 37be
00000040: 1fc9 46be 708e be3d 05c0 8e3e 6c2b 33be
00000050: a530 e33a 1525 b6be 992c b1b8 e929 2f3d
00000060: 11a8 103e da89 3abe 0939 c0be 955b c1bc
00000070: 8225 92b7 148f 0f3e b40f b5be 9b9e a7be
00000080: 50c0 f2b9 9d01 25be f01a a4be a3ab 1636
00000090: 6893 a43d 07aa 3b3d 561f f43c 22ab 6b3c
000000a0: 0ed3 47be a5f7 58ba 4b5c a73e 7d91 0b3e
000000b0: 4fa4 ad3e 4026 b63e 24a4 d338 025a 853e
000000c0: bf70 d93c b6a8 e3b7 7710 f4ba 636d 82be
000000d0: b762 033c 5506 b4b8 29f7 b037 ea5d c63c
000000e0: e5b3 6c3e 8d33 30bc fb6c 1a3e 5c99 24bb
000000f0: aac2 413e 5f66 7ab7 e2ac 4d3e f2ef 63be
00000100: e2b0 94bb bc29 b3bc 4159 dc3d 9247 3f3a
00000110: cc07 833c 8abe 75be b80a b0be a083 693d
00000120: 4224 97bc eb16 20bb 2b4b c53d 75b0 47be
00000130: 896f 78bd 7020 aabe 261c fab9 2695 573e
00000140: 22d6 9139 fb91 9bbc 6845 2a3e a66a 353d
00000150: 4755 523e 7450 7cbd c5c7 a03e 13e2 14bb
00000160: 763e 9c3e 8778 28bb 6df0 213b 5779 f2b9
00000170: a863 8a3e 1e3b f3bd 55c2 073d dbd0 39bd
00000180: 50f6 10be 4b17 463e 1c6d 973e 8fd0 af3e
00000190: afb9 9abe 5795 a63e cf84 793e 061e 18be
000001a0: f195 b43e aefd 3ebd e673 0e3b 4d65 8ebc
000001b0: 9352 f63d d7a9 08be 806f 8abd 7624 323a
000001c0: 8df7 b2be a7a2 b73e 395e 383e 497d 44ba
000001d0: e6dd 0dbe 7903 0bba 0af4 a738 c976 54bd
000001e0: 89c8 643e 6c77 043e d7e3 f9b8 2f23 04bb
000001f0: 6b97 c9bd b4c4 a7bd 2226 ce38 0ddb c03e
00000200: 15dd bfbe 1204 edbd 1295 d9b9 1899 96be
00000210: cb7f 93be 6241 aebe 8b61 89bd 5738 ab3e
00000220: b556 a4bc 26a5 1b3c ed3c a9be 2d1f 2cbe
00000230: 8b16 df3a 68d1 5fbe 5956 08bb 5f12 0b3d
00000240: 7526 19bc 23ab 9d3e ae95 bc3e 565f 9bbe
00000250: 7800 81b8 4559 993e 48e6 a3bd bced 153d
00000260: 1383 c33d b073 2abd 024d d7ba 8f10 38bc
00000270: 4fa4 833d adc6 a5be 26d6 90be 8d66 fd3c
00000280: e75f af3d 6e8e 3039 049e b13a f54a 503a
00000290: 7bbc a4be 2e00 ca3d 695b 853e f3e4 20bb
000002a0: 4dc0 e73a 7652 823d e676 be3d 4d90 893d
000002b0: ec23 c038 553b ed3a b501 453e 40e8 bebd
000002c0: 41c8 933a a37e 043e f07a 44be fd1d 58be
000002d0: 1ea2 6dbe 0dac 80be 75f6 20bd 6d59 16bb
000002e0: aa67 363d 4f2b 56ba 1ed8 0ebd fb05 23be
000002f0: 690f bcbe 0c95 67be 7691 51bb f4b2 75be
00000300: c319 b2bc 8a34 4bb7 cea2 85be bc42 bb3c
00000310: a498 9bbe d66a 0fbe 34e2 9d3e 14eb 59bd

layer1.bias f4 [50]
0.0005866332 -0.20271668 -0.36482963 -0.121695034 -0.35076556 -6.1931074e-05 -0.0037791543 -0.009937542
-0.007116714 -0.0005479352 -0.1284823 3.8151524e-05 0.19530392 -0.0005808057 0.06178509 0.16422619
-0.07269571 0.32161823 0.109451756 -0.082884334 -0.0065166145 0.0006874507 0.35050872 0.177582
-0.2829803 0.21514185 0.1299751 0.2208792 0.24397647 0.0009353143 -0.06672381 -0.28410748
-0.21873382 -0.25933304 0.08169091 0.17701297 -0.32692564 0.23086861 -0.00079160556 0.12698026
-0.1709003 0.3311556 -0.10177019 0.042332068 -0.198174 0.06820176 0.2216731 -0.0010047416
0.0025860462 -0.19361883
00000000: 4ac8 193a f694 4fbe f3ca babe 3f3b f9bd
00000010: 8b97 b3be fee0 81b8 b0ab 77bb 12d1 22bc
00000020: 5333 e9bb 4fa3 0fba dd90 03be e304 2038
00000030: c0fd 473e 3641 18ba 5d12 7d3d e92a 283e
00000040: 7de1 94bd 25ab a43e 3e28 e03d 43bf a9bd
00000050: 5389 d5bb 0936 343a e175 b33e 0ed8 353e
00000060: cbe2 90be 254e 5c3e 3118 053e 282e 623e
00000070: f8d4 793e e12f 753a 7ea6 88bd 8976 91be
00000080: c2fb 5fbe 4dc7 84be 904d a73d e342 353e
00000090: cc62 a7be d268 6c3e c083 4fba 1d07 023e
000000a0: 7d00 2fbe 3a8d a93e e46c d0bd 6464 2d3d
000000b0: 20ee 4abe 5dad 8b3d 46fe 623e 89b1 83ba
000000c0: a87a 293b 0444 46be

layer2.weight f4 [30, 50]
-1.3043186e-05 -0.0025859044 -0.023793295 -0.0047347667 1.8811917e-05 -0.0007551817 0.029820917 -8.37998e-05
0.0022304761 -0.0007414233 0.00015507967 7.7339515e-05 0.0006115765 0.019731868 -1.6249063e-05 0.0042021764
0.007584255 -0.00076613965 -0.0025148245 8.24454e-06 -0.00079060154 -3.2107848e-05 -0.021138381 0.0005644536
0.003962828 7.719127e-05 -0.0018583054 -0.00029045716 0.03144415 -0.01622941 -0.030894041 -7.429243e-05
0.0022888514 0.006198521 0.0011169126 -0.0025337816 -0.007855293 -5.5956883e-05 -0.0007768449 -0.0007781634
0.0008324739 -0.0192404 -0.0008592357 0.00013229359 -0.00023586852 0.02231722 -8.560712e-05 -0.032464467
0.00069438835 -0.0064131552 0.00028448243 -0.00016054793 0.017867563 -0.032403648 0.005003507 0.0030136744
-0.00027533458 9.911571e-06 3.1755712e-07 -0.0004104091 -0.0023417773 -0.014762045 -0.00067930727 -0.00079761905
0.013972046 0.001240661 0.030474631 -0.033181537 -0.0006352058 0.00019503088 0.00019564838 0.009977103
0.0020152268 4.416247e-06 0.0009135067 0.0005974933 0.0025745747 -0.00075193634 0.010146533 0.0108951675
-0.0011322541 -0.00014150876 -0.008656391 -0.024109636 0.0050012283 -0.00022051476 0.0025027832 0.018593345
1.0925376e-05 0.01197422 -0.029808193 -0.0007809159 0.00756254 -0.015984265 7.679998e-05 0.013073328
-0.025647122 -0.022526054 -0.00018122979 -0.015329385 -0.002570071 0.00072498363 0.009015959 2.9149161e-05
0.00077836664 0.02591578 -0.0075804098 -0.0018526284 0.0008168745 0.0025672442 -0.00081660494 0.03205065
2.9305582e-05 0.0050325515 0.0007324956 -2.3437702e-05 4.9052618e-05 0.03366289 3.4701854e-05 9.50026e-05
6.5459913e-06 -0.0001313263 -0.011628374 0.00057110627 -0.026888136 -0.0072255908 -0.0025410233 0.0003847956
0.015102547 -0.00019946287 -0.00073730794 -0.0131975785 -0.029809244 0.00081367226 -0.0012064549 0.0012352661
0.00079123996 -0.0019439546 0.0065641175 -0.019493874 -3.302739e-05 -0.002584979 -0.00011304857 0.000672495
-3.407639e-05 0.006471497 -0.002547948 -0.0024429678 4.624245e-05 0.0005342218 -0.0007701821 8.448678e-05
0.00075823226 0.0011481908 0.0008086845 0.00035425555 3.9716756e-06 0.025070537 -0.0014992208 -0.011802335
-0.000255282 0.0007232111 0.0025802513 -0.025662497 -0.018034786 -0.0007985868 -0.002568452 -0.0003166511
0.0018257039 -0.00012900376 0.00024899252 -0.00026429037 -0.00021556571 0.02951474 0.002505 0.00022023139
0.00027153862 2.508089e-05 -0.001476012 -0.0010194237 -0.028980382 0.0062419446 0.00058770814 -0.011922196
-0.00043287163 -0.0025592048 -0.00080184365 0.00080953765 2.6961565e-05 -3.9910294e-05 -0.007833926 -0.0007944856
-0.00019897008 0.009155678 -0.016425883 -7.1701065e-06 0.032226898 0.014447217 -3.248399e-05 0.0022387628
8.0589685e-05 0.0014664466 8.19135e-05 0.0017768003 0.012707752 0.00021515474 -0.00077118754 -0.0086803315
-0.0018421878 -0.0005648619 -0.013875552 0.000103150516 -3.300114e-05 -6.980258e-05 0.023149084 0.00081544573
0.023057176 0.00045155178 -0.0015851879 0.01022779 -0.00023367465 -0.0011449048 -1.3313e-06 5.4536962e-05
-0.0024292693 -0.002577103 0.01000422 -1.6302189e-05 -0.0009790201 0.00017537898 0.0024012488 -0.035624057
0.00051364355 -0.00078764034 -0.0015300014 -0.0025860092 -1.597937e-05 -0.0004945055 -8.609145e-05 -0.029166708
0.0014495925 -0.00091325754 -0.000418762 -0.014851281 0.0004177304 0.0034238666 -0.0007765399 0.016937388
-0.00013332638 -0.02862321 -0.030002806 -0.006993907 -0.0080657285 -0.0007561705 -0.0005297276 -0.000103452825
00000000: 0fd4 5ab7 4778 29bb 28ea c2bc 1a26 9bbb
00000010: 49ce 9d37 63f7 45ba ff4a f43c adbd afb8
00000020: 2e2d 123b 135c 42ba e29c 2239 5631 a238
00000030: 3452 203a baa4 a13c 994e 88b7 69b2 893b
00000040: 5885 f83b c3d6 48ba c1cf 24bb 0852 0a37
00000050: 5f40 4fba 8aab 06b8 662a adbc d7f7 133a
00000060: 9cda 813b bfe1 a138 6292 f3ba 8048 98b9
00000070: 95cb 003d 8af3 84bc 8015 fdbc 72cd 9bb8
00000080: 8e00 163b f61c cb3b 5e65 923a cd0d 26bb
00000090: 7db3 00bc 3fb3 6ab8 2ea5 4bba a9fd 4bba
000000a0: 613a 5a3a 0b9e 9dbc 553e 61ba 4ab8 0a39
000000b0: 7953 77b9 9ad2 b63c f987 b3b8 76f9 04bd
000000c0: 9d07 363a 7225 d2bb 9626 9539 c258 28b9
000000d0: ff5e 923c b0b9 04bd 75f4 a33b 1181 453b
000000e0: c85a 90b9 e049 2637 b87c aa34 2d2c d7b9
000000f0: 8178 19bb 81dc 71bc 8a13 32ba 4f17 51ba
00000100: 02eb 643c ad9d a23a efa5 f93c 5de9 07bd
00000110: f183 26ba 3481 4c39 f626 4d39 0177 233c
00000120: e511 043b 462f 9436 6678 6f3a 19a1 1c3a
00000130: 32ba 283b 981d 45ba a53d 263c a581 323c
00000140: 2568 94ba f861 14b9 89d3 0dbc 9281 c5bc
00000150: 58e1 a33b fb39 67b9 bc05 243b 1251 983c
00000160: 224c 3737 852f 443c 5030 f4bc 61b6 4cba
00000170: 2fcf f73b 6ff1 82bc ad0f a138 8331 563c
00000180: ea19 d2bc 8f88 b8bc 8008 3eb9 1a28 7bbc
00000190: a36e 28bb d40c 3e3a acb7 133c 5985 f437
000001a0: 4d0b 4c3a 544d d43c 1665 f8bb e5d3 f2ba
000001b0: 8523 563a 363f 283b 6e11 56ba 8b47 033d
000001c0: 42d5 f537 1ae8 a43b f304 403a 159c c4b7
000001d0: d9bd 4d38 19e2 093d d58c 1138 223c c738
000001e0: a3a5 db36 a3b4 09b9 f084 3ebc 4bb6 153a
000001f0: 8244 dcbc a6c4 ecbb 4c87 26bb 64be c939
00000200: ac70 773c e826 51b9 e647 41ba a83a 58bc
00000210: 8432 f4bc 9f4c 553a e921 9eba a7e8 a13a
00000220: 376b 4f3a 4bcc feba cf17 d73b 9eb1 9fbc
00000230: e486 0ab8 c068 29bb 7d14 edb8 604a 303a
00000240: 3fed 0eb8 da0e d43b 79fb 26bb 331a 20bb
00000250: 74f4 4138 050b 0c3a 0ce6 49ba 7f2e b138
00000260: 1bc4 463a e47e 963a e6fd 533a 60bb b939
00000270: 6f44 8536 ba60 cd3c 8181 c4ba 955e 41bc
00000280: 5fd7 85b9 e095 3d3a 6f19 293b 283a d2bc
00000290: b0bd 93bc 4158 51ba 7953 28bb 3104 a6b9
000002a0: 754c ef3a 2f45 07b9 368b 8239 7490 8ab9
000002b0: 7b09 62b9 e5c8 f13c ed2a 243b eaed 6639
000002c0: 4c5d 8e39 cd64 d237 bf76 c1ba 2f9e 85ba
000002d0: 4468 edbc 3a89 cc3b 6d10 1a3a 5055 43bc
000002e0: 0cf3 e2b9 55b8 27bb d132 52ba 2737 543a
000002f0: 852b e237 5a65 27b8 de59 00bc 0745 50ba
00000300: a0a2 50b9 b201 163c 938f 86bc bf96 f0b6
00000310: 5a00 043d 05b4 6c3c 6b3f 08b8 35b8 123b
00000320: 4202 a938 c835 c03a fac8 ab38 86e3 e83a
00000330: 2d34 503c 299b 6139 8529 4aba f337 0ebc
00000340: 9175 f1ba 3e13 14ba 4956 63bc 8352 d838
00000350: b46a 0ab8 fa62 92b8 26a3 bd3c a3c3 553a
00000360: 67e2 bc3c 41be ec39 14c6 cfba 7692 273c
00000370: 9006 75b9 a110 96ba 1faf b2b5 9ebe 6438
00000380: 6034 1fbb 9de4 28bb bde8 233c afc0 88b7
00000390: 7752 80ba f0e5 3739 455e 1d3b 88ea 11bd
000003a0: 09a6 063a a679 4eba 548a c8ba 097a 29bb
000003b0: 700b 86b7 b4a1 01ba ff8b b4b8 05ef eebc
000003c0: 4100 be3a ad67 6fba 498d dbb9 ca52 73bc
000003d0: d302 db39 f362 603b b690 4bba 47c0 8a3c
000003e0: 87cd 0bb9 397b eabc 72c8 f5bc 252d e5bb
000003f0: 1e26 04bc be39 46ba 6bdd 0aba d0f4 d8b8

layer2.bias f4 [30]
-0.0077251415 0.0014433997 0.002230188 0.007839041 -0.0063978415 -0.01110808 -7.444175e-05 0.013961995
0.0006143134 -2.7061913e-05 0.00051259616 -0.0017859126 0.00027525058 -0.017251851 -8.574082e-05 -0.00024122931
-0.0010357928 -0.00918822 0.0002663125 -0.0067438455 0.0010993223 -0.0007471949 -0.00080561824 -0.0006754079
-0.0025856316 0.0023872356 3.212137e-06 -0.0015704172 0.020226331 0.014090987
00000000: 2f23 fdbb 7530 bd3a 5928 123b 526f 003c
00000010: fca4 d1bb aafe 35bc 9c1d 9cb8 dac0 643c
00000020: e009 213a 0403 e3b7 bf5f 063a 4815 eaba
00000030: 824f 9039 c153 8dbc c1cf b3b8 80f2 7cb9
00000040: 70c3 87ba 308a 16bc dc9f 8b39 7afb dcbb
00000050: 2317 903a 67df 43ba 2030 53ba db0d 31ba
00000060: b373 29bb 2b73 1c3b 1890 5736 75d6 cdba
00000070: b1b1 a53c e2dd 663c

latent_layer.weight f4 [10, 30]
-8.501279e-05 0.04654933 -0.00026268564 0.00033839146 -0.028141763 0.05523656 -0.0003750718 0.00033076477
-0.06429529 -5.4735545e-05 -0.06953546 0.0014880911 -0.013831614 -0.06729224 0.039410103 0.044522103
0.01345186 -0.0004049675 -0.030656712 0.00010444269 -0.011719924 -0.0069809197 0.04583596 0.00072360004
0.001749537 -0.0021071194 -0.028900146 -0.04581786 -0.0008153079 0.0006781469 0.07102356 0.05095995
-0.00020568742 0.0006253412 -0.028852744 0.00026896628 3.961631e-05 0.03919175 -0.0025648808 -6.0037455e-05
0.00959 0.022804698 0.056516245 0.0005324477 -0.0020370362 -0.009494433 0.00095782656 0.03814557
0.00017831943 0.0007549953 0.04445935 0.0011670348 -0.029787818 -0.0017426446 -0.06957297 0.00019420008
-0.0326015 3.0199828e-07 -0.06307676 -0.00034051554 0.0006061592 0.0020254904 0.04638308 -0.026071347
0.01634537 0.0006752838 0.053513303 0.054632235 -0.0025016204 0.00074673904 -0.0009685993 0.0017881138
0.00027420907 0.0025627068 0.0062183063 -0.00087004347 0.0025073206 0.015114128 -0.0058744904 -0.025868101
-0.0023362522 0.0005386572 -0.030679598 -0.021297213 -0.03061566 0.01519322 -0.030246856 -7.36756e-05
0.02981474 0.0011563639 -0.048378892 -0.0019433781 0.002206 -0.0023455028 0.0004802334 0.023844115
0.0007261195 0.0025194306 0.0023123554 -1.35361315e-05 0.038047105 0.00057749444 -0.0010035819 -0.065300554
0.00067682436 0.06802121 5.023564e-06 -0.0043643806 -0.028567236 -0.05022518 0.04760149 0.00042787785
0.047962867 -0.017018473 -8.98555e-05 0.038860966 -0.036683228 -0.043673895 -0.0349746 -0.00041420767
0.06548046 0.026951522 -0.045051888 -0.0017701936 3.491942e-05 -0.017113931 -5.818431e-07 5.3349877e-06
-0.032844026 -0.0025826597 -0.0025371793 5.710771e-06 0.0037447 -0.0022660454 -0.06634736 -0.07110922
0.0024482724 -0.0024838974 0.0005146233 -0.035257865 -2.577971e-05 0.055118144 -0.059125427 -0.0002616762
-0.0124830855 0.03351432 0.0012003084 0.06938782 -0.020817766 0.0006785803 0.0005771406 -0.005897464
-0.010597946 -0.0141249625 -0.045179613 -0.00014449895 0.038113017 -0.06927581 -0.013835013 0.0071953866
-0.06029232 -4.5253137e-06 -0.00025921635 0.0025846264 0.062493525 -0.04038194 -0.06700144 -0.00361806
0.07164611 -0.01619194 0.00011515454 -0.00027926223 -0.0032319613 -0.0018546552 0.024145894 0.0018862183
0.016299423 0.0025565454 0.04429446 -0.0017524604 -0.065319724 0.038225353 1.9672543e-05 -2.8619312e-05
-0.0003368401 0.0693793 -0.0016669838 -0.00079194806 -0.059626874 0.064027295 -0.025300529 -0.04385775
-0.069237515 0.054960534 0.06652588 -0.0007809377 0.032581024 -0.00024941418 0.00077701476 -0.00075977197
-0.0013183482 0.019846404 0.011756221 0.002106847 -0.039451428 -0.0010411893 0.0006730341 0.012083541
-0.05866965 0.00027877302 -0.029038971 0.040652197 0.0024638332 0.019801375 -0.011724521 -0.051633406
0.06523937 -0.038117375 0.036364343 0.03580766 0.031450383 -0.032994382 0.06981011 0.061683338
-0.06488179 0.00078281655 0.0018356402 -0.00039575686 0.0002468101 0.067267306 -0.012205164 -9.6958465e-05
-0.063831344 0.001221926 -0.00021341119 -0.04405396 0.003441488 -0.0009502981 -0.021019274 -0.0038508638
-0.00019707452 0.00027817953 -0.0016139819 0.000108026354 9.109754e-06 -0.016555963 -0.03962198 -0.039928947
-2.4356197e-05 6.1405617e-06 -7.4355887e-07 5.6606314e-05 -0.018988825 0.053717416 -5.8641026e-06 -0.0021869505
00000000: e548 b2b8 83aa 3e3d 12b9 89b9 226a b139
00000010: 8e89 e6bc bb3f 623d 49a5 c4b9 7f6a ad39
00000020: 40ad 83bd d893 65b8 9b68 8ebd 0d0c c33a
00000030: fe9d 62bc 84d0 89bd 7d6c 213d cf5c 363d
00000040: 3165 5c3c d151 d4b9 c923 fbbc 3e08 db38
00000050: ed04 40bc 33c0 e4bb 7dbe 3b3d faaf 3d3a
00000060: b850 e53a 9917 0abb 00c0 ecbc 82ab 3bbd
00000070: 63ba 55ba abc5 313a cd74 913d 61bb 503d
00000080: ccad 57b9 f0ed 233a 975c ecbc 0b04 8d39
00000090: b029 2638 8787 203d 8f17 28bb bad0 7bb8
000000a0: 601f 1d3c ebd0 ba3c 947d 673d f693 0b3a
000000b0: cc7f 05bb 8a8e 1bbc a716 7b3a 873e 1c3d
000000c0: 42fb 3a39 e0ea 453a 021b 363d 31f7 983a
000000d0: 9505 f4bc 7369 e4ba 467c 8ebd 30a2 4b39
000000e0: 2789 05bd 5422 a234 632e 81bd 3987 b2b9
000000f0: a8e6 1e3a 17be 043b 2ffc 3d3d 9493 d5bc
00000100: bae6 853c 8705 313a c430 5b3d 0dc6 5f3d
00000110: 3af2 23bb cfc0 433a 99e9 7dba 255f ea3a
00000120: b8c3 8f39 16f3 273b efc2 cb3b a113 64ba
00000130: dc51 243b 3fa1 773c cc7e c0bb 57e9 d3bc
00000140: cf1b 19bb ac34 0d3a c853 fbbc 7e77 aebc
00000150: b1cd fabc fcec 783c 41c8 f7bc 4982 9ab8
00000160: 0b3e f43c 2291 973a f228 46bd f3b8 feba
00000170: 8a92 103b 02b7 19bb d6c7 fb39 bc54 c33c
00000180: 0e59 3e3a 081d 253b e38a 173b 3e19 63b7
00000190: 48d7 1b3d ff62 173a 9f8a 83ba 4cbc 85bd
000001a0: ea6c 313a b44e 8b3d 1690 a836 1403 8fbb
000001b0: d605 eabc ebb8 4dbd c8f9 423d cb54 e039
000001c0: b674 443d 536a 8bbc ce70 bcb8 ad2c 1f3d
000001d0: 2741 16bd 66e3 32bd 8741 0fbd 032a d9b9
000001e0: 9f1a 863d 70c9 dc3c 5488 38bd d705 e8ba
000001f0: 7176 1238 8432 8cbc f42f 1cb5 3203 b336
00000200: 7587 06bd d741 29bb ce46 26bb 269f bf36
00000210: a469 753b ef81 14bb 20e1 87bd b6a1 91bd
00000220: 3273 203b e2c8 22bb c9e7 063a 8d6a 10bd
00000230: 8141 d8b7 90c3 613d 812d 72bd 9631 89b9
00000240: db85 4cbc 5046 093d ab53 9d3a 341b 8e3d
00000250: 058a aabc c1e2 313a 404b 173a 843f c1bb
00000260: 02a3 2dbc 636c 67bc 420e 39bd a484 17b9
00000270: 651c 1c3d 7ae0 8dbd 40ac 62bc 47c7 eb3b
00000280: 14f5 76bd 26d8 97b6 6ee7 87b9 d662 293b
00000290: 36f9 7f3d 8867 25bd 0d38 89bd f91c 6dbb
000002a0: 32bb 923d f6a4 84bc 1f7f f138 f169 92b9
000002b0: 50cf 53bb e717 f3ba 9ccd c53c fc3a f73a
000002c0: 5e86 853c b78b 273b 1c6e 353d d0b2 e5ba
000002d0: 59c6 85bd 3092 1c3d 7706 a537 8113 f0b7
000002e0: ea99 b0b9 bc16 8e3d b27e daba bc9a 4fba
000002f0: 4f3b 74bd be20 833d 0e43 cfbc 2fa4 33bd
00000300: 66cc 8dbd 4c1e 613d b83e 883d d8b7 4cba
00000310: ae73 053d cec3 82b9 94b0 4b3a 6f2b 47ba
00000320: 6dcc acba ed94 a23c 2a9d 403c 0713 0a3b
00000330: d297 21bd 8478 88ba 8e6e 303a 0bfa 453c
00000340: 964f 70bd 4828 9239 23e3 edbc eb82 263d
00000350: 4378 213b 7e36 a23c 3518 40bc 8d7d 53bd
00000360: 389c 853d f720 1cbd c7f2 143d 0eab 123d
00000370: 1ed2 003d 1e25 07bd 9af8 8e3d aba7 7c3d
00000380: bee0 84bd ee35 4d3a dd99 f03a 967d cfb9
00000390: 4a66 8139 71c3 893d 2bf8 47bc 2e56 cbb8
000003a0: 02ba 82bd 0829 a03a 21c7 5fb9 ed71 34bd
000003b0: 968a 613b 6d1d 79ba 9d30 acbc c65e 7cbb
000003c0: caa5 4eb9 a0d8 9139 3f8c d3ba 358c e238
000003d0: 18d6 1837 5fa0 87bc a84a 22bd 898c 23bd
000003e0: 8950 ccb7 060b ce36 fa98 47b5 916c 6d38
000003f0: 748e 9bbc cb06 5c3d 42c4 c4b6 f152 0fbb

latent_layer.bias f4 [10]
0.0008169061 0.0007672574 0.052174725 0.0025081898 -0.012541402 -2.614288e-05 0.0005949117 -0.03503279
-1.7719673e-05 -0.0007563177
00000000: a425 563a c621 493a 2ab5 553d 7160 243b
00000010: 747a 4dbc 684d dbb7 d9f3 1b3a 8b7e 0fbd
00000020: b5a4 94b7 9f43 46ba

output_layer.weight f4 [4, 10]
-0.06801242 -0.1767851 0.061700426 -0.014673316 -0.04888168 -0.051365014 0.16855618 0.10827892
-0.017605303 0.10583916 -0.06968578 0.05313314 -0.18674095 0.00059630326 -0.090110525 0.04993306
-0.13851269 0.12343475 0.0050452454 3.1126918e-05 0.0025858004 -0.011440645 -0.026138498 -1.742916e-05
0.08325655 -0.093075626 0.06433508 0.19596268 0.00042712287 -0.13072419 -0.16402765 0.030608999
-0.15371372 -0.053635366 -2.6250962e-05 -0.002290865 -0.17171459 -0.0019698152 -0.00038531693 -0.14458488
00000000: 184a 8bbd 2707 35be 96b9 7c3d 5968 70bc
00000010: 2838 48bd 1f64 52bd fe99 2c3e 57c1 dd3d
00000020: ff38 90bc 34c2 d83d 6bb7 8ebd 23a2 593d
00000030: 0539 3fbe 3c51 1c3a de8b b8bd 9c86 4c3d
00000040: 45d6 0dbe 5ccb fc3d 9652 a53b 468e 0238
00000050: 8876 293b 8b71 3bbc 6720 d6bc d634 92b7
00000060: 6982 aa3d 6f9e bebd 1cc2 833d 71aa 483e
00000070: 76ef df39 90dc 05be ddf6 27be b9bf fa3c
00000080: 2167 1dbe c2b0 5bbd 8335 dcb7 5622 16bb
00000090: f3d5 2fbe 0418 01bb 5d04 cab9 0f0e 14be

output_layer.bias f4 [4]
0.0004740093 0.031342074 -1.0803894e-05 -7.359039e-06
00000000: 7484 f839 8c60 003d 5f42 35b7 aaed f6b6
