final_autoencoder.pth (torch, 252736 bytes, 40 tensors)

encoder.0.weight f4 [200, 9]
000000 f5 f5 20 3b e5 cd 04 3b 70 85 eb ba a8 a7 c9 3c
       0.0024560664 0.0020264324 -0.0017968845 0.024616078
000010 84 dc b8 39 50 04 0f bd df 46 87 3b ee 85 d3 3b
       0.00035259512 -0.034916222 0.0041283215 0.0064551746
000020 20 28 e8 b6 3c 5d 25 3c ee b9 09 bc c3 f5 32 bb
       -6.91881e-06 0.01009303 -0.0084061455 -0.002730713
000030 b6 93 80 bb e1 b5 d0 bb 79 23 83 bb 15 2b 52 3a
       -0.0039238585 -0.006369338 -0.0040020314 0.0008017284
000040 86 78 97 b8 43 ae 08 bb 06 57 f2 3b 6c d3 4b 3c
       -7.22269e-05 -0.0020855821 0.007395628 0.012440544
000050 66 af f7 3a 46 cd 57 3c fb d1 6b 3c 1c b2 16 bb
       0.0018896877 0.0131715 0.014393325 -0.0022994345
000060 0c ea 00 3b a7 a6 4a 3c ff 35 6b ba b2 be 5b bc
       0.0019670753 0.012368835 -0.00089725846 -0.0134121645
000070 e9 05 51 3b 0c 52 d6 bb 64 cc a1 3c 30 0c 86 bb
       0.0031894392 -0.0065405425 0.019750781 -0.0040908083
000080 87 9e 32 3c f6 38 de bb 47 8b 96 3c 3e ee 2a bc
       0.010902054 -0.0067816926 0.01837696 -0.010432778
000090 e6 00 06 00 b5 46 04 80 4c d8 03 00 2f 80 05 00
       5.51335e-40 -3.92707e-40 3.53099e-40 5.05161e-40
0000a0 54 b1 00 80 eb 3c 09 00 27 2a 05 80 45 aa 02 80
       -6.3613e-41 8.48373e-40 -4.74299e-40 -2.44752e-40
0000b0 be 8b 01 80 5b e4 f4 3a ba 29 b5 3b c2 75 01 bc
       -1.41966e-40 0.0018683778 0.005528656 -0.007901611
0000c0 59 6a ab 3c c5 d9 50 3b 27 aa f8 bc 73 a8 e8 3a
       0.020924734 0.0031868082 -0.030354572 0.0017750397
0000d0 81 80 97 bb 5c cc 8e 3a 62 a8 9c aa 19 9b b8 23
       -0.004623473 0.0010894644 -2.7828006e-13 2.0015006e-17
0000e0 b0 92 84 1e 24 e2 2b 1f 70 33 14 9e 5e e9 09 9d
       1.4036712e-20 3.6397718e-20 -7.845692e-21 -1.8252447e-21
0000f0 0a c1 d3 9d d7 d7 cc 9e a5 be a6 9d e8 a0 f4 3c
       -5.6050833e-21 -2.168861e-20 -4.4136956e-21 0.029861882
000100 be 89 5b bc 66 60 8b 39 a6 41 fb 3c 80 6d 03 bd
       -0.0133995395 0.00026583968 0.030670952 -0.03208685
000110 f0 4c 08 bb 37 b9 94 3c c2 12 6a 3b d9 24 b2 3c
       -0.0020797811 0.018154724 0.0035716747 0.021746086
000120 6b fd 8a 3c 99 91 6d 3c 72 ef f0 39 65 6f 7c 3c
       0.016966542 0.014500045 0.00045954768 0.015407418
000130 d4 9a 8c 3c 19 9c 11 bc 60 67 d0 3a ec db cd 3c
       0.017163672 -0.008887314 0.0015899949 0.025129281
000140 45 a0 41 bc 69 51 a9 3a 8e d9 7a 3a e0 a0 c1 bc
       -0.011817996 0.0012917939 0.00095691613 -0.023636281
000150 71 56 6a bc 0c aa ee 3b 6c ce 03 bc f6 47 9c 3a
       -0.014302836 0.0072834548 -0.00804482 0.0011923301
000160 0f 1f c9 bc a0 d6 ae 3b 68 d8 c3 ad 81 6d 0e af
       -0.024550943 0.005335644 -2.2265037e-11 -1.2953728e-10
000170 c8 2c b9 2e f7 79 0b af 03 15 b6 2e a6 fc b2 ae
       8.420781e-11 -1.2685307e-10 8.280134e-11 -8.139382e-11
000180 47 73 f8 2e 2b 16 3a ae b8 c6 97 ab cc f4 1f 3b
       1.1298212e-10 -4.2311193e-11 -1.0784351e-12 0.0024407385
000190 3a 57 13 bb ae 64 f6 bc 72 08 b9 bc e5 02 41 ba
       -0.002248241 -0.030077305 -0.022587035 -0.0007362797
0001a0 40 d6 2d bc 71 95 0c bc a3 ea 88 bc 38 a8 91 3b
       -0.010610163 -0.0085805515 -0.016713446 0.004445102
0001b0 4a 7d 35 3d 68 d4 aa 3b f3 61 87 bc dd a1 0f bc
       0.044308938 0.005213309 -0.016526198 -0.008766619
0001c0 b3 f6 34 bb 61 7d 09 3b 81 ca 6a bb 23 82 a9 3b
       -0.0027612865 0.0020979273 -0.0035826268 0.005172984
0001d0 10 b5 d0 bb 76 db 99 ba 0f 97 3d ba ab 2b 81 b9
       -0.0063692406 -0.0011738378 -0.00072322873 -0.00024637333
0001e0 20 f7 2a ba 6b 5a 2e 38 dd d9 06 3a f0 b3 f0 38
       -0.000652181 4.156904e-05 0.00051441585 0.00011477608
0001f0 c9 58 16 39 58 fc 82 b7 70 e5 17 3d cc 0d da bc
       0.0001433819 -1.5614714e-05 0.037084043 -0.026617907
000200 7e f2 32 ba 3a cd 1a 3d 54 4d 12 bd f4 e0 d3 bb
       -0.0006826295 0.037793376 -0.035718277 -0.0064660255
000210 27 02 ca 3c c4 53 35 3c c5 71 18 bb 52 5b c4 3b
       0.02465923 0.011067335 -0.0023261171 0.0059923315
000220 4b 2e b4 bc 2e b9 6f bb e0 81 10 bb 99 74 b2 3c
       -0.02199473 -0.0036578882 -0.0022050068 0.021784114
000230 46 15 d4 bc 8e 14 5b 3b f7 1b 77 bc bd b5 42 3b
       -0.02588905 0.0033429 -0.015082351 0.0029710375
000240 61 9b e8 ba 23 b3 57 3c 5e 7b f6 bb 4f 43 cc 3c
       -0.0017746502 0.013165268 -0.0075220307 0.024934439
000250 b4 6a a6 3b 0a b0 b4 bb 9b 26 a3 bc c3 2e 41 3c
       0.005078638 -0.0055141496 -0.01991587 0.011790934
000260 62 c8 41 bc 51 04 81 bb 92 08 52 bc a0 da 48 b9
       -0.01182756 -0.003937282 -0.012819426 -0.0001915493
000270 f4 86 ec 3c 7f 4c d2 bb 3b cb 82 3c 77 b2 44 bb
       0.028872944 -0.0064178105 0.015966048 -0.00300136
000280 99 7f b1 3c 28 1f 2e 3a 5b 49 ac bb d1 26 61 3c
       0.021667289 0.0006642216 -0.005257768 0.013742165
000290 45 93 f1 3a ec 4a c7 3b 45 1a 00 bb 14 65 75 bc
       0.001843073 0.0060819294 -0.0019546908 -0.014977712
0002a0 3d 23 f4 bb 27 6d 83 3c 30 8d 21 bc 4f 6e eb 3c
       -0.00745049 0.016043259 -0.009860322 0.028739123
0002b0 5b 17 a6 bb 4f 41 0e 3c c9 01 30 3c e2 48 ab bb
       -0.005068702 0.008682563 0.010742613 -0.005227194
0002c0 73 2b 5c bd 28 42 94 bb ce 3b 0e bd 30 a9 0d 3c
       -0.053752374 -0.004524488 -0.034725003 0.0086462945
0002d0 a3 4f fa 3a 20 e7 34 3b 53 5c c5 3a e7 87 e2 bc
       0.001909722 0.0027603582 0.0015057422 -0.027652694
0002e0 10 4d 41 bc 71 20 0a 3c 22 ad 13 3c b8 e8 00 3c
       -0.011798158 0.008430586 0.009013446 0.0078679845
0002f0 0b 08 af bb 42 9e 2c 3a 7a a2 9d 3a 47 34 56 3b
       -0.005341535 0.00065848615 0.0012026571 0.0032684968
000300 9a fb 2d 3c 46 49 2c 3d 7c 1a 37 3c 9f c7 4a 3c
       0.0106190685 0.042062066 0.011175748 0.012376695
000310 52 a3 aa bb 5f 89 3f bb 60 3a 14 bc 7b a9 e5 3b
       -0.0052074576 -0.0029226167 -0.009047121 0.007008729
000320 b4 ba fe bc 5f ea 7b bc a4 e9 ba bb d7 74 e5 3c
       -0.031094886 -0.015375703 -0.0057041217 0.028009815
000330 64 40 c8 3c ed d2 78 bc e0 93 28 bb a0 fd 4c ba
       0.024444766 -0.015187007 -0.0025722906 -0.00078197755
000340 45 7c 47 bb 31 67 68 3c 3a 56 cc bb 12 40 99 bb
       -0.003043906 0.014184759 -0.006235865 -0.004676827
000350 3f 33 32 3d 2b 34 54 bc 51 56 02 bd 05 15 77 3c
       0.043505903 -0.012951891 -0.0318206 0.015080695
000360 a1 ac 5b 3a 9d b6 4b bc 88 20 38 3c 81 78 cb ba
       0.0008379911 -0.012433675 0.011238225 -0.0015523584
000370 61 75 2c 3c ea eb 74 3c 41 88 3f bb d0 f2 06 3c
       0.010526032 0.014948824 -0.00292255 0.008236602
000380 51 a5 f0 bb 2a 84 b2 bb f9 2d f2 3c 18 d5 4d bc
       -0.007343926 -0.005447884 0.029562937 -0.012563013
000390 e2 92 a2 3b e1 e0 1c bc 5e 65 a0 bc df a1 35 bc
       0.0049613575 -0.0095751 -0.019579586 -0.011085956
0003a0 7a 8a 14 3c 90 f6 05 3c 26 fb 01 00 26 63 50 12
       0.0090662185 0.008176461 1.8193e-40 6.5755437e-28
0003b0 81 ad 03 80 e9 d2 02 00 49 f9 02 80 5d 32 00 80
       -3.37748e-40 2.59331e-40 -2.73098e-40 -1.8067e-41
0003c0 9f d0 03 80 e7 7c 03 00 3e e4 06 00 97 f4 69 92
       -3.50346e-40 3.20313e-40 6.32891e-40 -7.3823317e-28
0003d0 11 ee e8 0b 57 4c 40 0b 04 ad f0 8b f0 10 7a 8b
       8.972135e-32 3.7035287e-32 -9.270496e-32 -4.816099e-32
0003e0 3d 54 b4 0b 82 f6 3b 8c 2d be fd 0b b6 be 4b 09
       6.9460226e-32 -1.4480137e-31 9.77382e-32 2.4524908e-33
0003f0 05 91 98 bb 0b 98 93 bc e1 f7 42 3b 81 71 ad 3c
       -0.0046559596 -0.018016836 0.0029749798 0.021172287

encoder.0.bias f4 [200]
000000 08 0f f8 33 9c bb d6 32 c0 d5 db 31 80 eb 46 31
       1.1551134e-07 2.4998194e-08 6.3980394e-09 2.8946658e-09
000010 b2 66 26 80 0a e2 e5 b3 4e 3d fa 14 42 3d f2 b4
       -3.526589e-39 -1.070476e-07 2.526773e-26 -4.5120584e-07
000020 64 53 4e b4 ee 02 0f 33 3a 34 db 24 96 69 41 35
       -1.9215582e-07 3.3297447e-08 9.5064586e-17 7.205175e-07
000030 3c 5c 1d b5 50 a8 cc b1 cb 83 f4 34 6b aa 91 b5
       -5.8621276e-07 -5.9563163e-09 4.5544434e-07 -1.085294e-06
000040 7a 32 e3 34 62 8f 0c b4 3a 06 22 33 84 56 a8 34
       4.231877e-07 -1.3090678e-07 3.7724227e-08 3.1355387e-07
000050 d0 22 63 b3 32 09 2b b6 e3 02 d8 b4 93 a3 33 34
       -5.2884218e-08 -2.5486338e-06 -4.0235236e-07 1.6730182e-07
000060 8c 29 96 36 e4 8d 5c 35 72 d5 a6 ab 3c f2 73 03
       4.475185e-06 8.2162865e-07 -1.1854252e-12 7.1689353e-37
000070 cc a2 fb 33 b4 dd ae a7 26 2a 90 ae 5e 56 18 80
       1.1717711e-07 -4.8535073e-15 -6.555849e-11 -2.235035e-39
000080 54 d8 1e 34 e8 fc 0e 36 6e df 18 b6 6f 47 a3 96
       1.4793596e-07 2.130686e-06 -2.2779818e-06 -2.637915e-25
000090 5e 58 4b 34 38 d6 e1 33 60 86 f3 b4 52 19 95 b5
       1.8937996e-07 1.0516345e-07 -4.5360048e-07 -1.1108734e-06
0000a0 88 e0 08 b4 60 6e 53 33 be e2 99 81 13 95 d8 b4
       -1.2747671e-07 4.922765e-08 -5.652868e-38 -4.03416e-07
0000b0 06 cd f6 b4 38 69 b9 36 a5 67 6a 35 a7 21 36 b5
       -4.5970245e-07 5.5256787e-06 8.7322616e-07 -6.7849254e-07
0000c0 e6 ef 4b 01 da 34 05 b5 ee 45 e0 80 cb 1c 2f 2e
       3.745733e-38 -4.962327e-07 -2.0596237e-38 3.9815966e-11
0000d0 2a 0e 01 b5 38 e3 29 b5 96 7e 17 b4 bc c6 b0 a6
       -4.8076856e-07 -6.3288053e-07 -1.4109023e-07 -1.226632e-15
0000e0 40 58 11 b6 8a 0f eb 34 84 52 ac 34 4b e2 2f 36
       -2.1658052e-06 4.3783467e-07 3.2097535e-07 2.6208752e-06
0000f0 46 d6 b4 14 06 07 aa b2 a9 a8 1c 34 7e 3f 08 b6
       1.8259871e-26 -1.9793799e-08 1.458999e-07 -2.0302537e-06
000100 7e f0 f1 35 b7 9a 55 34 bd ee 83 b4 85 1a bc 33
       1.8025892e-06 1.9893456e-07 -2.4574356e-07 8.759256e-08
000110 ab ad c3 a7 e8 df 37 b5 8f d5 91 00 da 7c 60 b5
       -5.4311664e-15 -6.849864e-07 1.3392757e-38 -8.3628186e-07
000120 e9 72 10 81 60 9a 37 96 5a 1e 85 33 94 5c 8e b3
       -2.6531067e-38 -1.4831334e-25 6.198816e-08 -6.62923e-08
000130 e3 49 88 80 51 94 f4 34 f4 a1 8d 33 9e eb cc b4
       -1.2516133e-38 4.5556456e-07 6.595283e-08 -3.8169395e-07
000140 18 ce 94 b2 b0 b5 a1 36 54 a9 fd b4 61 6d c3 b6
       -1.7323188e-08 4.819325e-06 -4.7248125e-07 -5.8241862e-06
000150 d7 5c e1 b4 f2 46 d9 b4 72 fe 03 b5 60 76 ae 34
       -4.1977066e-07 -4.047102e-07 -4.917157e-07 3.2496155e-07
000160 00 25 4b 2e b0 41 bf 34 7c 69 14 34 8d 81 02 34
       4.618972e-11 3.5624316e-07 1.3821949e-07 1.2154324e-07
000170 9d 35 d9 b4 46 2b 8c b5 1d a4 de b4 cc eb a8 b1
       -4.0458409e-07 -1.0443407e-06 -4.147013e-07 -4.9162505e-09
000180 d0 fb 4c 01 a1 f0 3b b4 3e 64 5f b5 51 83 14 b5
       3.764955e-38 -1.7503272e-07 -8.3219845e-07 -5.5325387e-07
000190 66 97 98 33 30 21 73 33 2e aa 54 b5 32 d3 0d 35
       7.105591e-08 5.660803e-08 -7.92238e-07 5.283392e-07
0001a0 d0 ea ea 32 dc e8 43 b4 0c e3 58 b5 61 1a 03 b4
       2.7347966e-08 -1.8245504e-07 -8.0796667e-07 -1.2209922e-07
0001b0 fa b7 d0 b3 8c f3 b4 33 b0 de cf 34 14 a4 78 b4
       -9.71922e-08 8.426204e-08 3.871878e-07 -2.3156491e-07
0001c0 d0 32 13 00 37 1d 77 34 f0 54 c5 34 33 ce 00 35
       1.763103e-39 2.3014296e-07 3.675591e-07 4.7983775e-07
0001d0 da 54 11 35 f0 d3 da b3 20 fd f7 b1 ca 1a d6 35
       5.4140185e-07 -1.0189967e-07 -7.217423e-09 1.5952039e-06
0001e0 a0 b2 3b 35 88 57 e2 b4 34 c3 04 b4 30 42 e4 b4
       6.992286e-07 -4.2159468e-07 -1.2364472e-07 -4.2516467e-07
0001f0 ab 28 bd 34 10 f8 e9 80 c4 f8 2b b5 28 c9 0a 35
       3.5233583e-07 -2.1486659e-38 -6.4064466e-07 5.1701727e-07
000200 07 98 24 34 7a cf db 35 44 b8 8d 34 03 24 b9 34
       1.5328997e-07 1.6377155e-06 2.6397367e-07 3.4485137e-07
000210 38 0b c3 33 a2 94 59 ac cc f3 88 b4 0b 85 19 35
       9.082436e-08 -3.0920063e-12 -2.550936e-07 5.7190545e-07
000220 54 7b 32 35 70 e1 a6 33 3d e1 0f 33 59 ce b7 b5
       6.6489633e-07 7.770984e-08 3.3499635e-08 -1.3694618e-06
000230 c4 d1 08 34 3c 28 b4 b6 b1 91 c4 81 6c bf d3 34
       1.27423e-07 -5.369102e-06 -7.2208086e-38 3.944109e-07
000240 60 b0 a0 33 e8 fd 0d b3 ee b1 46 b5 66 ad 8f 34
       7.482663e-08 -3.3060047e-08 -7.401967e-07 2.676199e-07
000250 a2 5d 6f b4 50 2e 5b 31 76 e4 11 b4 06 78 6d 34
       -2.2292673e-07 3.189502e-09 -1.3587291e-07 2.211601e-07
000260 33 4d d9 b4 1c b7 56 b5 50 6b 39 8a ae eb a3 b3
       -4.047557e-07 -7.998767e-07 -8.927609e-33 -7.633149e-08
000270 3b 59 0d b5 20 45 fe 33 b4 c6 b6 b4 b6 4f bb b4
       -5.265644e-07 1.18403705e-07 -3.4044717e-07 -3.4889462e-07
000280 12 3c 89 b4 58 b5 34 b3 e0 bb 5a 34 00 aa 98 a9
       -2.5561945e-07 -4.2074447e-08 2.037118e-07 -6.779646e-14
000290 94 7a dd b6 86 f1 b9 33 7e 1b 91 b5 28 83 a1 b1
       -6.600583e-06 8.658667e-08 -1.0811343e-06 -4.7006274e-09
0002a0 c0 26 82 33 3c 4e 8a b3 a8 9e e4 b3 59 18 04 b6
       6.060645e-08 -6.4403565e-08 -1.0645937e-07 -1.9683705e-06
0002b0 42 3b 8a 35 30 63 87 32 3d 58 f7 b4 80 b6 1a 34
       1.0299048e-06 1.5761174e-08 -4.6071537e-07 1.4408761e-07
0002c0 ae a5 08 b4 1a 1c 9e 34 9a 7a 20 a3 b6 c1 84 34
       -1.2726261e-07 2.945024e-07 -8.699579e-18 2.472786e-07
0002d0 d0 0a 04 33 36 04 8d b4 8c 47 b1 31 be 83 c1 35
       3.074348e-08 -2.626636e-07 5.159512e-09 1.4417963e-06
0002e0 2c 31 d1 b3 44 26 e6 b3 20 94 3f b2 a4 08 bd b3
       -9.741265e-08 -1.071717e-07 -1.1151343e-08 -8.80257e-08
0002f0 36 8a 5c 33 0e bd db 34 0e 66 0e b6 60 e0 4d 34
       5.1348444e-08 4.0929484e-07 -2.1219053e-06 1.917374e-07
000300 c9 ce 0e 34 5e f8 27 b5 b1 c5 25 b6 c4 bd d3 34
       1.3300009e-07 -6.257377e-07 -2.4701988e-06 3.9439885e-07
000310 64 17 0f b6 8a 5a 8e 34 82 63 0c b6 68 cc 97 b5
       -2.1322276e-06 2.6515437e-07 -2.0919547e-06 -1.1309867e-06

encoder.1.weight f4 [200]
000000 42 7c e1 3c 1c 1f 13 3c 26 8c 89 3c e0 94 d4 3c
       0.027525071 0.008979585 0.01679046 0.025949895
000010 b8 f1 0e 00 d0 27 ce 3c c6 8a 50 2e 6d 90 2b 3d
       1.372409e-39 0.025165468 4.741698e-11 0.041885782
000020 fa 88 e0 3c 28 72 b5 3c 4e 0d 5f 2e fb 0c 03 3d
       0.027409066 0.02214916 5.0716147e-11 0.0319948
000030 82 7a c0 3c cb e1 bc 3a 2e 71 7f 3d ab 7b c6 3c
       0.023495916 0.0014410553 0.062363796 0.024228891
000040 fe 4f d4 3c 1c 84 92 3c 34 52 7e 3c 07 71 5b 3d
       0.02591705 0.01788526 0.015522528 0.05357459
000050 b5 ac 34 3b ee 26 cb 3c cd f9 04 3d 5a c7 0b 3d
       0.0027568762 0.024798837 0.03246479 0.034125663
000060 29 52 83 3c fe 86 b8 3c 19 e3 05 85 87 56 c3 26
       0.016030388 0.022525307 -6.295341e-36 1.3554296e-15
000070 be 01 bc 3c 7b 9b c0 b5 b8 c2 21 b9 a4 72 32 12
       0.02295005 -1.4350366e-06 -0.00015426695 5.63082e-28
000080 19 76 ec 3c b3 38 06 3d 31 19 c1 3c 65 dc 8e 2f
       0.028864907 0.032768916 0.023571583 2.598625e-10
000090 a8 5b 92 3c 39 30 c4 3c 81 55 48 3d 4f 72 e9 3c
       0.01786597 0.023948776 0.048909668 0.02849689
0000a0 ad 1b ec 3c 22 4f 9f 3c 02 2d 8c 0e e7 9f 92 3c
       0.02882179 0.019446913 3.4556006e-30 0.017898513
0000b0 0a 94 96 3c 9c e0 bb 3c d3 f5 d3 3c 9f 9f 05 3c
       0.018381137 0.02293425 0.025874054 0.008155732
0000c0 33 d3 06 00 24 db db 3c 8e e5 0d 80 d9 4f 1a 3a
       6.26777e-40 0.026837893 -1.27621e-39 0.0005886532
0000d0 27 28 cc 3c f1 82 16 3d ea 69 ac 3c b3 6a 2e 36
       0.02492149 0.03674597 0.021046598 2.5990128e-06
0000e0 8d 95 57 3c 14 74 c3 3c cf e7 11 3d 94 44 e4 3c
       0.013158214 0.023859061 0.03562146 0.027864732
0000f0 30 0c 31 2f f5 d1 92 3c 8c 90 f0 3c 59 88 ae 3c
       1.6102386e-10 0.017922381 0.0293658 0.02130525
000100 e5 79 d2 3c 78 7b 8f 3c 77 49 c7 3c e9 f7 82 3c
       0.02569289 0.01751493 0.024327023 0.015987353
000110 5f cd 4d 36 64 28 ce 3c 3d c4 16 0f d3 7f fb 3c
       3.0666922e-06 0.025165744 7.433365e-30 0.0307006
000120 11 8c a2 16 8d aa 0e 2e 03 4d c4 3c 30 38 ba 3c
       2.6260906e-25 3.243854e-11 0.023962503 0.02273187
000130 39 ea 0c 00 ad 3f 8a 3c 78 dc 92 3c a5 8e f0 3c
       1.186049e-39 0.016876066 0.017927393 0.029364893
000140 ae 77 cf 3c 9e 5f bf 3c 2d b8 ae 3c 7e c9 da 3c
       0.025325622 0.023361024 0.021328056 0.026707407
000150 ad bc e5 3c b7 c7 a4 3c 97 dc ba 3c 2d 7a a6 3c
       0.02804407 0.020114763 0.022810264 0.02032193
000160 b6 c2 8b 3a 78 1f b4 3c ae b4 db 3c af 17 ab 3c
       0.0010662887 0.021987662 0.026819553 0.020885317
000170 92 2d b5 3c ea 3a cf 3c f9 95 b1 3c 8b 6c e0 3c
       0.022116456 0.025296647 0.021677958 0.027395507
000180 f6 c8 08 00 82 17 ba 3c 82 af 4a 3c cb cc c7 3c
       8.06775e-40 0.022716288 0.012370946 0.024389645
000190 18 fc a5 3c 3a 76 00 3d 35 88 8f 3c 27 29 11 3d
       0.02026181 0.03136275 0.017521003 0.035439637
0001a0 e6 3f 56 3c c7 1d 17 3d b6 29 b4 3c 66 4e ce 3c
       0.013076758 0.036893632 0.021992546 0.025183868
0001b0 49 a9 f2 3c eb 7e bb 3c 27 8c e5 3c 00 9e db 3c
       0.029621737 0.022887668 0.028020931 0.026808739
0001c0 3a 3d 92 1d ad 48 d3 ba 10 d9 9c 3c 1a ca fb 3c
       3.8709185e-21 -0.0016119682 0.019146472 0.030736018
0001d0 a5 21 b3 3c 3e 59 c3 3c 62 c4 98 3c ea 1f 8e 3c
       0.021866629 0.023846265 0.01864833 0.017349202
0001e0 69 b3 e3 3c b1 43 a0 3a 95 ae b8 3c 2f e2 96 3c
       0.02779551 0.0012227205 0.022544185 0.0184184
0001f0 1a 51 e1 3c eb 3d 06 00 f7 3e da 3c c6 39 b7 3c
       0.027504493 5.73225e-40 0.026641352 0.022366416
000200 c4 50 fc 3c 05 0f 21 3d 6c 17 93 3c c6 f3 87 3c
       0.03080023 0.039320964 0.017955504 0.016595732
000210 d6 73 a5 3c d3 69 17 39 d5 01 b7 3c 75 53 9e 3c
       0.020196836 0.00014439905 0.02233974 0.019326905
000220 58 e6 88 3c 82 41 01 3d e1 d0 11 3c 58 87 ef 3c
       0.016711399 0.031556614 0.008899898 0.029239342
000230 a0 f5 f5 3c 54 8a d8 3c 62 6f ed 17 f4 d0 f3 3c
       0.03002435 0.026433147 1.5343883e-24 0.029762723
000240 3e 4b eb 3c 7d e4 0c 3d c0 be 71 3c 1b b9 ac 3c
       0.028722402 0.03439759 0.014754951 0.021084359
000250 4d e7 0f 3d 6b 76 be 3b 54 c4 07 3d 75 ce bd 3c
       0.035132695 0.0058124564 0.033146217 0.023169735
000260 7d 8c 97 3c 26 e2 a0 3c 38 ce 06 00 1b 46 7c 3c
       0.018499607 0.019639086 6.2499e-40 0.015397574
000270 97 b3 e7 3c db e6 9c 3c 4a 65 87 3c 05 d3 0b 3d
       0.028283877 0.01915305 0.01652779 0.03413679
000280 a1 d7 94 3c a8 94 11 3d 79 56 b1 3c 07 64 85 37
       0.018169226 0.03554216 0.021647679 1.5901414e-05
000290 c0 5a e3 33 c5 fc 71 3c 12 7e cb 3c 75 21 bf 38
       1.05870186e-07 0.014769738 0.024840388 9.1138216e-05
0002a0 08 b7 fb 3c 47 cb 88 3c 2e 45 bc 3c f1 a9 8d 3c
       0.030726925 0.016698493 0.022982206 0.017292948
0002b0 a8 8b 11 3d d4 9c 90 3c 87 41 a5 3c f9 f7 ec 3c
       0.035533577 0.017652906 0.020172847 0.028926836
0002c0 e1 1a bf 3c 5b cc 4b 3d 9e 5a 60 34 30 cb c5 3c
       0.023328247 0.049755435 2.0894592e-07 0.024144739
0002d0 a9 fa e7 3c b4 02 ad 3c 6e da 86 3b 42 1b b7 3c
       0.028317766 0.021119453 0.0041153943 0.022351865
0002e0 b1 a1 b0 3c 30 7f 08 3d 68 92 f9 3c 86 b3 a4 3c
       0.021561475 0.03332442 0.03046532 0.020105135
0002f0 9b 7b c1 3c 56 ce da 3c 95 b5 f8 3c 1c 6b 05 3d
       0.02361851 0.026709717 0.030360023 0.03257285
000300 f4 5a 89 3c da 67 e1 3c 20 a9 04 3d 92 9c 93 3c
       0.016767003 0.02751534 0.032387853 0.018018994
000310 10 07 25 3c d8 af 8e 3c 7c f4 0a 3d 98 05 a3 3c
       0.010072485 0.017417833 0.033924565 0.019900128

encoder.1.bias f4 [200]
000000 11 ba 65 bc fb ff 21 bc da 1a 36 bc b9 5c 8e bc
       -0.0140214125 -0.009887691 -0.0111148 -0.017378198
000010 c8 e1 81 9e a9 c9 4d bc 63 78 46 ab 5e d5 8e bc
       -1.3751787e-20 -0.012560287 -7.05108e-13 -0.017435726
000020 45 36 5c bc 2b 77 94 bb 81 30 be b9 de 5a 26 bc
       -0.013440673 -0.0045308075 -0.00036275762 -0.0101535
000030 d8 99 49 bb cc 73 fc ba 20 07 fe bc 12 23 30 3b
       -0.0030761864 -0.0019260584 -0.031009257 0.0026876372
000040 42 c9 60 bc 0c 64 8e 3b 31 fe 29 bc f5 74 2e bd
       -0.013719859 0.0043454226 -0.010375545 -0.042592008
000050 6e 62 25 bc 23 cd 12 3c 3d e7 14 bc cd f2 2c bc
       -0.010094268 0.008960041 -0.009088335 -0.010555935
000060 96 91 3c bc 64 81 40 bb 5a b4 a5 9c f9 d2 f1 9e
       -0.01150932 -0.0029373998 -1.0965404e-21 -2.5604124e-20
000070 8d bf 28 3b 01 cb d5 b5 b9 3f b5 b9 73 06 66 97
       0.0025748939 -1.5928819e-06 -0.00034570487 -7.432515e-25
000080 6e e8 01 bc 98 22 90 bb 2d 2c 36 bc 99 03 9c ab
       -0.007928951 -0.004398655 -0.011118931 -1.1085465e-12
000090 b8 a2 f7 b9 8e f2 8f bb e9 f0 af bc c3 f6 a6 bb
       -0.00047232746 -0.0043929284 -0.02147718 -0.0050953343
0000a0 fa ba db bb 79 2d da ba 8c 72 fa 9f d5 3a 2b bb
       -0.006705639 -0.0016645632 -1.0606862e-19 -0.0026127596
0000b0 77 94 93 3b 95 c8 ee bb fa d7 46 3a 0d c8 fb bb
       0.0045037824 -0.007287095 0.00075852836 -0.00768376
0000c0 fe 88 8d ae 7b d2 95 bb d3 1c 8e ba 11 13 50 ba
       -6.4362723e-11 -0.0045722104 -0.001084233 -0.00079374114
0000d0 9a b6 65 bc 2b 90 a3 bc d0 ca 16 bb 52 d0 a0 b6
       -0.014020586 -0.019966206 -0.002300907 -4.7926233e-06
0000e0 ea 64 12 3c 84 80 dd bb 48 50 57 bc ae 73 8e bc
       0.008935193 -0.006759705 -0.013141699 -0.017389145
0000f0 d2 5e a7 aa ef 23 b4 bb 41 42 95 bc 1a d5 e4 ba
       -2.9730954e-13 -0.0054974477 -0.018220069 -0.0017458529
000100 46 71 af bb fd d2 d9 3b 5a 41 04 bc 4e d4 5c 3b
       -0.0053540794 0.006647466 -0.008072222 0.003369588
000110 52 90 4f b6 ae 87 2e bc 43 5e 93 9f e2 ce 08 bc
       -3.092941e-06 -0.010652466 -6.2412865e-20 -0.008350106
000120 49 54 d3 a3 b0 89 1c ac 9e 10 61 bc bf 21 3c bc
       -2.2912362e-17 -2.2245365e-12 -0.013736872 -0.011482655
000130 01 0a 1e af 2e ea 67 3b 2a 10 0e bc c3 b9 15 bc
       -1.437357e-10 0.0035387385 -0.008670846 -0.009138527
000140 3e a8 55 bc 38 98 48 bc 56 b1 a8 bb 92 89 e5 bc
       -0.0130406 -0.012243323 -0.005148093 -0.0280197
000150 33 9c 21 bc 90 26 09 bb 60 00 85 b8 12 ef a2 bb
       -0.009863901 -0.0020927526 -6.342004e-05 -0.004972347
000160 ba 58 d0 ba 3f 80 9c 3a 70 ae 46 bb 0b b4 0f bb
       -0.0015895583 0.0011940076 -0.0030316375 -0.0021927382
000170 27 55 09 bb 91 12 f8 bb b3 ee 29 bc 0c 78 e7 bb
       -0.0020955296 -0.0075705727 -0.010371852 -0.0070638712
000180 1e 4e 06 9c ac 54 a6 bb 9d ba 1e bb e2 aa 02 bb
       -4.4437845e-22 -0.0050760116 -0.0024220117 -0.001993828
000190 48 91 4f bb e8 39 87 bc 69 68 01 bc b0 83 cd 37
       -0.0031672288 -0.016507104 -0.0078984285 2.4499226e-05
0001a0 83 67 00 3b 02 98 4c bc 5e 72 f1 3b 8b 2f 5a bc
       0.0019592948 -0.012487413 0.00736837 -0.013316999
0001b0 f9 63 31 bc a5 db 1c bc 28 8e 71 bb cd d2 95 bb
       -0.010827058 -0.009573852 -0.0036858413 -0.0045722486
0001c0 aa b8 6e 9b f6 92 10 bc 6a 28 47 bc 45 74 53 bc
       -1.9746567e-22 -0.008824101 -0.012155632 -0.012906139
0001d0 ee bc ba bb e4 60 08 bc 9a 51 51 ba 34 4a 9c 3a
       -0.0056987917 -0.008323882 -0.0007984877 0.001192397
0001e0 bd 1e 0a bb 4d 5c fc ba ee 0a c4 bb e2 ca 89 3b
       -0.002107545 -0.0019253582 -0.005982748 0.0042050937
0001f0 c2 c6 32 bc 4c 8e ad ab 76 ce e3 bb ae 66 c5 b8
       -0.010911645 -1.2331885e-12 -0.0069521023 -9.4128176e-05
000200 e1 39 0d bc 07 ed a0 bc 74 57 0a bc 22 a2 14 ba
       -0.008619756 -0.019644273 -0.008443702 -0.00056699116
000210 f5 60 eb b9 e4 4f c0 b8 71 8b ff bb fa ce c2 bb
       -0.00044894931 -9.170154e-05 -0.007798605 -0.0059450837
000220 b3 96 16 bb 54 40 43 bc d0 e0 2d 3b 56 4e a0 bc
       -0.0022978007 -0.0119171925 0.0026531704 -0.019568603
000230 b7 46 84 bb 75 a8 41 bc 0a 03 22 9a 57 d4 93 bc
       -0.00403675 -0.011819948 -3.350327e-23 -0.018045587
000240 ed 82 45 bc df 00 dc bc eb 46 27 bb 0c 66 5c bb
       -0.012055141 -0.026855884 -0.0025524448 -0.003363016
000250 dd 10 97 bc 01 3f bd bb 9d 11 8b bc 32 f6 d3 bb
       -0.018440658 -0.005775333 -0.016976172 -0.0064685578
000260 f8 d3 2b bc b1 38 d1 bb cb 46 cc a3 be 26 27 bc
       -0.010487549 -0.006384932 -2.2147706e-17 -0.010202108
000270 77 f3 ca bb cf ce f1 bb cd e1 ac bb 0f 20 ba bc
       -0.006193574 -0.00737939 -0.005275941 -0.022720365
000280 53 0f 0f bc e5 ba c1 bc 3d 37 7e bc 4c e8 f8 b6
       -0.008731681 -0.023648689 -0.0155160995 -7.418019e-06
000290 22 9b 07 b3 9a 9f 01 3a 2d ea dc bb 22 91 e0 b8
       -3.157323e-08 0.0004944742 -0.006741783 -0.000107081854
0002a0 32 8d ac bb 51 0d 6a bc 44 87 e5 3a 13 63 0c 3b
       -0.005265855 -0.014285401 0.0017511626 0.0021421358
0002b0 dd 0f bb bc 10 65 12 bc 32 9b 7a 3b 80 a9 86 bb
       -0.022834713 -0.008935228 0.0038239476 -0.0041095614
0002c0 58 fc 76 bb 7a 9a 9b bc 5d 0f 3c b3 00 2e dd bb
       -0.003768703 -0.018994559 -4.3786134e-08 -0.0067498684
0002d0 f4 86 04 bc 92 40 f5 bb f7 fb b5 bb 14 c7 2e bc
       -0.008088816 -0.007484504 -0.005553718 -0.010667581
0002e0 a4 b4 07 bc a7 68 47 bc ab 21 d3 bb eb f2 c2 ba
       -0.008282814 -0.012170947 -0.0064432225 -0.0014873421
0002f0 87 fd ca ba f4 12 ed 38 88 96 ae bc 24 b2 c6 bc
       -0.0015486934 0.00011304571 -0.021312013 -0.024254866
000300 18 35 eb bb b5 76 22 bb 33 88 48 bc e8 96 f2 bb
       -0.00717796 -0.0024789993 -0.012239504 -0.0074032433
000310 27 72 40 3b 87 f0 b7 bb 41 1a 98 bc 75 03 a0 3a
       0.0029364915 -0.00561339 -0.018567206 0.0012208062

encoder.1.running_mean f4 [200]
000000 20 df a3 b9 9b 00 5d bb 81 98 97 bb 06 a2 9d 3b
       -0.00031256024 -0.0033722285 -0.004626334 0.0048105745
000010 eb 45 0f 00 38 76 7b ba ed c9 04 2a 49 97 f9 bb
       1.402614e-39 -0.0009592506 1.1794012e-13 -0.0076169115
000020 cb 57 20 bc 05 e4 2c bb 1a 6d d1 2d dc ad 59 bb
       -0.0097865565 -0.0026381027 2.3809e-11 -0.00332152
000030 ca 82 ac bc 87 f5 0a 3a 09 61 26 bc aa 0a 0d 3a
       -0.021058459 0.00053008687 -0.010154971 0.0005380312
000040 0a 56 52 ba 8c c5 9f 3b af 2f fa 38 a7 69 06 bc
       -0.0008023685 0.0048758443 0.00011929811 -0.0082039
000050 99 d9 52 bb 39 a7 75 ba fd 81 c3 ba 94 bc 51 3b
       -0.0032173155 -0.00093709264 -0.0014916059 0.003200327
000060 5f bf c5 3a 2e 56 fe ba 01 87 80 29 23 1d d5 11
       0.001508694 -0.0019404346 5.707761e-14 3.3623431e-28
000070 ba 61 aa 3b 98 44 1a b6 82 81 81 34 6e be b2 81
       0.005199638 -2.2987715e-06 2.4122352e-07 -6.5660126e-38
000080 9a 1a 1c bc 60 34 4d bc 90 be 43 ba a9 fe f8 2c
       -0.009527827 -0.012524694 -0.00074670557 7.076857e-12
000090 7a 8b ce 3b dc bf 92 bc 0d 2a 39 bc dc 5b 85 3b
       0.006303248 -0.017913751 -0.01130153 0.0040697884
0000a0 a1 f9 07 3c ca 00 e3 ba a7 8b 8b 07 44 d3 ba bb
       0.008299262 -0.0017318961 2.0996476e-34 -0.0057014544
0000b0 b9 31 04 39 19 86 97 3b ff ff 60 bb 46 a3 a2 bb
       0.00012607024 0.00462414 -0.0034332273 -0.0049633114
0000c0 bb 7c 14 80 69 07 9e bc 6b 41 1f 00 b1 bb 8c 39
       -1.881455e-39 -0.019290643 2.870368e-39 0.00026842722
0000d0 46 6e 0f bb 99 da a9 bb 3e 45 91 3b 57 e6 61 37
       -0.0021885796 -0.0051835296 0.004433303 1.3464675e-05
0000e0 6d 1c ac 3b 3e 18 90 3b 95 15 81 ba ad 3b 6e 3a
       0.005252412 0.004397421 -0.0009848351 0.0009087872
0000f0 7f d0 08 29 34 e5 d3 3a 1f 8c b5 3b 23 3d 21 bb
       3.0378908e-14 0.001616633 0.0055403854 -0.002460309
000100 fb dc 1d ba c6 41 77 bb 06 4f d9 3b 83 4f c8 b8
       -0.00060220034 -0.0037728413 0.006631735 -9.5515534e-05
000110 97 22 66 34 21 42 c9 b9 e1 04 2b 0b bb bd b0 bb
       2.1433003e-07 -0.00038386977 3.2937073e-32 -0.0053937114
000120 b9 2c 1b 89 39 d0 7f ad b5 d0 2b bb 10 77 ac bb
       -1.8678475e-33 -1.45413065e-11 -0.0026216928 -0.005263217
000130 72 6c 05 00 f1 75 0e 3a f8 e4 0d bb 76 30 11 bc
       4.9808e-40 0.0005434445 -0.0021651369 -0.008861652
000140 69 93 1e bc 1b a7 af 3a 2e cd 2e bb d4 77 c6 bb
       -0.0096787 0.0013401242 -0.002667259 -0.006056765
000150 3b 8c 9d 3b 1f 74 93 ba fa 89 37 bb 6b 4c d8 ba
       0.0048079765 -0.0011249817 -0.0028005824 -0.0016502267
000160 a5 15 b6 39 50 7d c2 ba bc 5c 96 bc 2a 5e 71 bb
       0.00034729872 -0.0014838371 -0.018354766 -0.0036829808
000170 3e 0e c5 3b 5b 00 bd bb 85 22 e2 3a 1f 35 74 ba
       0.0060136607 -0.0057678646 0.0017252719 -0.0009315777
000180 41 3c 48 80 f6 d5 49 ba a3 d7 30 bb af f3 6f bb
       -6.633771e-39 -0.0007699424 -0.0026983998 -0.0036613753
000190 70 cc 90 bb d9 0b a3 ba 15 4d 5a 3b de fb d0 bb
       -0.004418902 -0.0012439444 0.0033310105 -0.006377681
0001a0 ee 63 82 3a 97 6f ef bb c6 11 30 3b 89 16 0e bc
       0.0009947994 -0.0073070037 0.0026866063 -0.008672365
0001b0 50 64 4a bb c3 3f b3 3a 96 3f 62 bc 42 5c be ba
       -0.0030882545 0.0013675619 -0.013809105 -0.0014523345
0001c0 eb 37 7b 92 ea b3 9a 3a a7 d2 95 3b d9 de 13 bb
       -7.927056e-28 0.0011802886 0.004572231 -0.0022563247
0001d0 e8 a5 52 3b a6 db 8a ba e1 30 17 3b 75 e2 89 bc
       0.0032142345 -0.0010594025 0.0023069906 -0.016831616
0001e0 cb a9 b7 ba 17 27 03 3a 07 68 59 bc 46 0b 37 3a
       -0.0014012394 0.0005003078 -0.013269431 0.0006982576
0001f0 f8 71 03 3c f2 c6 22 00 bb c9 98 bc 3f 27 90 bb
       0.008022778 3.193775e-39 -0.01865088 -0.0043992097
000200 89 fd 84 ba d4 69 f9 3b 2b 54 d5 b9 d9 b8 42 bb
       -0.001014636 0.0076114926 -0.00040689236 -0.0029712229
000210 11 1f 9d bb 8c e5 44 36 18 89 6b ba 1d c9 b6 3a
       -0.004794963 2.933989e-06 -0.0008984967 0.0013945434
000220 23 86 8f ba cf 69 98 bb 93 5a 80 39 ea 34 1c bb
       -0.001095001 -0.0046512852 0.00024481546 -0.002383525
000230 c4 ca ba ba 2e 74 bb bb f6 72 2e 00 e1 1d ee 3a
       -0.0014251103 -0.005720637 4.265673e-39 0.0018166864
000240 e4 d2 dd ba a2 e2 89 3b 7e 5d 06 3a 60 a7 48 3b
       -0.0016923812 0.004207925 0.0005125626 0.0030617341
000250 20 fd 2f bc b4 88 e0 3a 32 30 1a bc 7c 65 a8 bb
       -0.010741502 0.0017130584 -0.009410905 -0.005139051
000260 77 15 8e ba 47 4b 9a 3b fc 14 0f 08 96 f1 33 3a
       -0.0010840137 0.004708681 4.3057164e-34 0.0006864307
000270 d9 31 0f bc 6b 6d 9e ba 95 97 c8 3b cc 95 a2 3b
       -0.008739912 -0.0012087052 0.0061215856 0.004961705
000280 20 3b 97 ba be 5e 99 37 09 ac 02 38 d7 7c 03 36
       -0.0011538006 1.8283139e-05 3.1154636e-05 1.9593188e-06
000290 91 22 e3 34 fd 79 a4 3b da 69 9c bc f5 c5 39 b7
       4.2307195e-07 0.005019425 -0.019093443 -1.107295e-05
0002a0 cb d5 76 bc 3d d2 60 bb c0 ec 4b bb af d2 78 ba
       -0.015065621 -0.0034305 -0.0031116456 -0.00094918435
0002b0 43 0d e0 bb 37 3d 7f 3b 04 cd 00 bb b2 76 7f bc
       -0.0068375184 0.00389464 -0.0019653449 -0.015592264
0002c0 0e 44 17 bb d0 e0 39 bc c1 f2 ab 30 00 26 d3 3b
       -0.0023081335 -0.011345103 1.2510882e-09 0.006443739
0002d0 c8 f3 b0 3b e8 11 ac b9 39 54 a9 3a d3 be bc bb
       0.0054001547 -0.00032819738 0.0012918777 -0.0057600527
0002e0 71 84 43 bb 6f 41 14 bc 0f b2 a0 b9 30 ad 6a 3b
       -0.002983358 -0.009048804 -0.00030650242 0.0035808794
0002f0 95 62 dd ba f7 ee 90 bc 23 12 7d 3b ab 46 f6 bb
       -0.0016890342 -0.017692072 0.0038615547 -0.0075157485
000300 e9 01 e7 ba 87 63 7d bb b8 24 99 bc 6f 58 17 3c
       -0.0017624471 -0.003866406 -0.018694267 0.009237393
000310 68 82 3c 3b f6 db 53 bc 39 07 34 bc c7 c6 46 39
       0.0028764252 -0.012930861 -0.01098805 0.00018956802

encoder.1.running_var f4 [200]
000000 b0 f1 c3 3a c5 c4 1a 3a a9 09 93 3a e1 c4 c4 3a
       0.0014949348 0.0005903955 0.0011218089 0.0015012288
000010 04 00 00 00 14 5f b9 3a c4 1b ae 16 2f b2 b1 3b
       6e-45 0.0014142715 2.8128739e-25 0.0054228525
000020 3b d6 0e 3b 0a 46 db 3a ed 2c c0 20 8c 0e 32 3b
       0.0021795172 0.0016729247 3.2555795e-19 0.0027169315
000030 e6 ad a0 3b 17 28 cc 36 1a 77 13 3c 02 02 35 3b
       0.004903543 6.084341e-06 0.009000564 0.0027619605
000040 d5 2d f5 3a 51 fa e8 3a f0 c4 68 3a d4 c6 af 3b
       0.0018705676 0.0017774795 0.00088794436 0.0053642783
000050 11 a9 c2 3a aa 6f 07 3b 90 8d 66 3b b8 e0 f0 3a
       0.0014851411 0.0020665922 0.0035179593 0.0018377518
000060 2f 3a 5d 3a 2b 43 44 3b c0 61 05 00 04 00 00 00
       0.0008439151 0.0029947262 4.94244e-40 6e-45
000070 fb 34 cb 3a 8b 51 3c 2f a1 cf 24 30 04 00 00 00
       0.001550346 1.712747e-10 5.995791e-10 6e-45
000080 73 42 9b 3b 5b a6 97 3b 6b ec c5 3a 3e 88 88 1c
       0.004738146 0.0046279854 0.0015100365 9.034943e-22
000090 97 6b 09 3b b1 6e 5a 3b ee 6b 00 3c 2f 19 e5 3a
       0.002096867 0.0033330137 0.007838232 0.0017478819
0000a0 84 f9 1c 3b 28 11 89 3a 04 00 00 00 2b 93 b7 3a
       0.0023952434 0.0010457383 6e-45 0.0014005651
0000b0 e3 20 00 3b a6 9f b6 3a 56 2d 53 3b 3c 09 1a 3a
       0.0019550852 0.0013933077 0.0032223067 0.000587601
0000c0 04 00 00 00 3f ae 81 3b 04 00 00 00 48 cd ae 35
       6e-45 0.0039575393 6e-45 1.3023755e-06
0000d0 af fb 15 3b 97 8b e9 3a 19 93 ef 3a 1b 69 3c 33
       0.002288561 0.001781809 0.0018278091 4.3867754e-08
0000e0 6f 38 9b 3a 52 3e fc 3a fb 2d 12 3b 5f 1c de 3a
       0.001184238 0.0019244647 0.0022305239 0.0016945711
0000f0 cd 3a bf 14 c6 cb ce 3a be e0 d4 3a d7 37 e1 3a
       1.9309264e-26 0.0015777282 0.0016241295 0.0017182779
000100 d8 9e c3 3a b6 8c 05 3b 94 ff 09 3b bf df ca 3a
       0.0014924658 0.002037806 0.0021056877 0.0015478058
000110 2b 95 5b 2c e8 b2 82 3a 04 00 00 00 2a d0 ec 3a
       3.1204577e-12 0.0009971531 6e-45 0.0018067409
000120 04 00 00 00 d7 ab 99 1d 7f c2 1e 3b a0 20 2b 3b
       6e-45 4.067644e-21 0.0024224815 0.0026111975
000130 04 00 00 00 76 cf f9 3a 48 68 18 3b 08 c7 85 3b
       6e-45 0.001905902 0.0023255516 0.0040825643
000140 a5 fd 16 3b 1e df 9a 3a f7 5c d7 3a 6b 0c ca 3a
       0.0023039368 0.0011815762 0.0016430904 0.0015415078
000150 0d a7 ad 3a f2 5d dc 3a c6 8a b9 3a 52 77 61 3a
       0.0013248638 0.0016812666 0.0014155738 0.0008600849
000160 26 6e 6a 36 88 0d 02 3b c1 22 7d 3b 92 1d be 3a
       3.4932832e-06 0.001984449 0.0038625451 0.0014504662
000170 f6 2c 82 3a 07 d8 b3 3a 8c 51 f9 3a a2 0c 3b 3b
       0.0009931612 0.0013720997 0.0019021495 0.0028541465
000180 04 00 00 00 20 f7 ef 3a 83 23 89 3a 4e 89 df 3a
       6e-45 0.0018307902 0.0010462854 0.001705447
000190 63 09 96 3a b0 e2 c1 3a 56 5e 54 3a 3e d4 9e 3b
       0.0011446889 0.001479229 0.00081012154 0.0048470786
0001a0 90 8d 88 3a d9 1a aa 3b 29 a2 cb 3a a4 3d 3d 3b
       0.0010418165 0.005191189 0.0015535998 0.0028875852
0001b0 6c 1a ef 3a 70 d0 02 3b a9 78 5c 3b ba 8f 22 3b
       0.0018242127 0.0019960664 0.0033641255 0.0024804906
0001c0 04 00 00 00 dc b2 72 38 21 6b ae 3a 6c f6 22 3b
       6e-45 5.7863872e-05 0.0013307073 0.0024866117
0001d0 03 03 03 3b 49 dd 06 3b a7 bd c9 3a eb d5 4f 3b
       0.0019990809 0.0020578674 0.0015391604 0.0031713198
0001e0 18 e6 cf 3a 24 89 27 37 b4 16 39 3b f8 55 40 3b
       0.001586142 9.985906e-06 0.0028242292 0.0029348116
0001f0 b1 d6 03 3b 04 00 00 00 0f e9 6d 3b 82 9b e2 3a
       0.002011698 6e-45 0.0036302244 0.0017288777
000200 04 d7 12 3b c1 8a 31 3b 39 ef ac 3a 6a c3 b2 3a
       0.0022405991 0.002709076 0.0013193853 0.001363856
000210 39 f9 83 3b 09 df 56 31 ca 8a f6 3a 5f 36 04 3b
       0.0040275124 3.126788e-09 0.0018809673 0.002017401
000220 78 8d c9 3a e2 45 0c 3b 8a 05 a9 3a 5e 41 2d 3b
       0.0015377244 0.0021403958 0.0012895328 0.0026436667
000230 7c e4 45 3b 8e a2 e0 3a 04 00 00 00 8d 25 12 3b
       0.0030196002 0.0017138289 6e-45 0.0022300214
000240 b2 8b 21 3b 41 f4 5a 3b 3e 5f 8e 3a 05 56 ce 3a
       0.0024649915 0.0033409747 0.0010862125 0.0015742189
000250 0f 50 91 3b d1 0b ce 39 76 d9 89 3b 5c 09 0d 3b
       0.0044345926 0.00039300186 0.0042068316 0.0021520471
000260 5c 17 19 3b 83 05 da 3a 04 00 00 00 51 5d 42 3a
       0.002335987 0.0016633723 6e-45 0.0007414418
000270 5d d9 3a 3b 95 88 a9 3a 7f a5 44 3a f8 d5 45 3b
       0.0028510906 0.0012934381 0.00075014675 0.003018735
000280 24 f4 ae 3a 69 a3 13 3b 97 db 9d 3a 85 32 5e 2e
       0.0013347906 0.002252782 0.0012043592 5.0521826e-11
000290 1c 3e 68 2a 1e ac 98 3a 7f 5b 8a 3b 61 73 fe 30
       2.0627288e-13 0.0011647975 0.004222333 1.8513725e-09
0002a0 14 26 81 3b 1e 8d d8 3a 89 9e 09 3b bf d9 e1 3a
       0.003941307 0.0016521548 0.0020999035 0.0017231031
0002b0 7e 52 24 3b d3 44 9c 3a 75 cb 0b 3b ab 6f 6f 3b
       0.0025073583 0.0011922367 0.0021330987 0.0036535065
0002c0 ab a8 0d 3b a3 a6 f7 3b 8a 0d 6d 24 10 f9 f4 3a
       0.0021615427 0.0075577064 5.140265e-17 0.0018689949
0002d0 1f e4 dd 3a 79 ad a2 3a f1 f9 68 38 5a 47 06 3b
       0.0016928947 0.0012411318 5.5545886e-05 0.0020489306
0002e0 d5 f8 eb 3a 99 e5 99 3b 57 a9 b6 3a a1 c9 ac 3a
       0.0018003235 0.0046965596 0.0013935965 0.0013182649
0002f0 34 48 0d 3b 54 b0 84 3b 62 14 cc 3a ab 86 44 3b
       0.002155793 0.0040493403 0.0015570039 0.0029987495
000300 15 ea 0a 3b 68 ee df 3a 2c 68 ac 3b 96 11 35 3b
       0.0021196653 0.00170846 0.0052614417 0.002762889
000310 97 d8 85 3a 09 6f e9 3a a0 4b 61 3b 7d b5 d4 3a
       0.0010211644 0.001780958 0.0034377351 0.0016228404

encoder.4.weight f4 [100, 200]
000000 f8 22 8a 3c dd 5f 89 b8 c5 ef 12 3b af 53 34 3b
       0.016862378 -6.550525e-05 0.0022420746 0.00275157
000010 9b 96 c5 1d ed c8 65 3c 32 e0 9c 29 38 47 07 bb
       5.230119e-21 0.014024955 6.9666834e-14 -0.0020641815
000020 80 57 d3 3b 17 b1 74 bb 16 53 45 b8 84 02 00 bc
       0.00644964 -0.0037337 -4.704584e-05 -0.0078131
000030 3e cc 32 3c f1 f8 0e b9 a5 65 e4 3b 96 21 8c 3b
       0.010912953 -0.00013634913 0.006970125 0.0042764647
000040 9c e9 ad ba be da 88 3a d3 76 56 bb 14 3c 2a 3c
       -0.0013268474 0.0010441167 -0.0032724633 0.0103903
000050 42 0c 72 3a 52 4e 85 b9 a2 35 c2 bb 12 d9 14 bc
       0.0009233394 -0.0002542609 -0.0059268037 -0.009084957
000060 8e 10 f6 ba ed a1 1d bb bf 25 78 9b 9e 2b 4c 1e
       -0.0018773244 -0.0024052814 -2.0526276e-22 1.080869e-20
000070 c7 2c 1d bb 4f 65 8f 33 8c 42 33 b8 f5 c0 96 17
       -0.0023982988 6.677384e-08 -4.2738902e-05 9.742232e-25
000080 23 f7 06 3a fc 9c 67 3b b2 f0 0f 3a 16 21 46 a9
       0.00051485206 0.0035341373 0.00054908835 -4.399353e-14
000090 08 42 3c bb f3 5a 0c 3c e6 92 be 3b 05 5d 0c bc
       -0.002872588 0.008566606 0.0058158515 -0.008567099
0000a0 8d ba ab bb 0d 83 37 3b de c3 aa a0 f0 0e b7 3b
       -0.0052407444 0.0028001696 -2.8928734e-19 0.0055864975
0000b0 1f a1 98 3a 37 e5 02 bc 25 51 d1 3b 16 d1 bd b9
       0.0011644698 -0.007989219 0.006387847 -0.0003620467
0000c0 00 f5 8a 29 a1 22 bb 3b 76 7f 2c b9 b1 59 9b 37
       6.170932e-14 0.005710915 -0.00016450681 1.8519206e-05
0000d0 7d e5 01 bb 24 19 31 3c a4 c1 34 3b 9c 9d 5a 35
       -0.0019820624 0.010809217 0.002758124 8.144068e-07
0000e0 5a 71 f2 bb 92 5e c0 bb 63 66 81 bb 5e 95 82 bb
       -0.0073987665 -0.0058706487 -0.003948973 -0.003985091
0000f0 91 33 b2 29 97 56 9c 3a e0 7c 55 3a 74 7d ee 3a
       7.913733e-14 0.0011927661 0.0008143913 0.0018195347
000100 09 cc 9a bc a2 a3 02 bc b1 de 51 ba dd de 0b 3b
       -0.01889612 -0.007973583 -0.0008005901 0.0021342554
000110 bc 2f 0a 34 a0 9e 20 3c 38 e1 00 1e d6 c6 b2 bb
       1.2869617e-07 0.009803444 6.822838e-21 -0.005455832
000120 bc 10 f2 20 de 0d b5 2a 86 b7 03 bc 38 17 e8 3a
       4.1007469e-19 3.216168e-13 -0.008039361 0.0017707115
000130 c1 67 fe ad 95 97 0c bb 2d 2d c2 3a 72 08 21 bb
       -2.8922533e-11 -0.0021452655 0.0014814489 -0.0024571684
000140 58 6e cc ba 5f ff 09 bb 71 35 e0 3a bc ba ae 3b
       -0.001559685 -0.0021056754 0.001710577 0.005332319
000150 da e6 b5 b9 d5 7e b2 3a e9 be 7b 3b 68 31 18 bc
       -0.00034695008 0.0013618121 0.0038413352 -0.009289123
000160 62 2b 09 38 e3 23 49 3a 00 45 25 3c cf 13 41 bb
       3.270375e-05 0.0007672889 0.010087252 -0.002946127
000170 9a 77 2e bb 43 d2 ab bb 75 0b b8 3a 91 a3 c8 ba
       -0.002662158 -0.005243571 0.00140415 -0.0015307536
000180 64 a0 6b 9c 6f b2 4d bb f0 ed 53 3a 9a fc 39 bc
       -7.796228e-22 -0.0031386872 0.00080844667 -0.011351729
000190 87 8f 5f bb 4f f8 3b 3c 99 13 bf bb 82 39 8c bb
       -0.0034112649 0.011472776 -0.0058311936 -0.0042793164
0001a0 f5 a4 f5 bb b3 6c 0a bc ba 4f 09 bc 76 ac cf 3b
       -0.007496471 -0.0084487675 -0.008380825 0.0063376976
0001b0 e9 58 1f bc 2d 88 69 3b 29 9b 3b 3c 71 bf 26 bc
       -0.009725788 0.0035634146 0.011450567 -0.010177479
0001c0 f1 41 34 9a 3a 1a c5 b9 fe 06 47 3a 88 4a 4f bc
       -3.7276395e-23 -0.00037594308 0.00075922895 -0.012652047
0001d0 0d b0 b2 bb cc c3 fb bb ae fa fe bb a5 c1 11 3c
       -0.005453116 -0.007683253 -0.007781348 0.008896266
0001e0 f9 de 6b bc c0 e7 51 37 6a 28 f8 39 0a a1 21 3b
       -0.014396423 1.2511329e-05 0.00047332357 0.0024662637
0001f0 cf 88 5f 3b 16 51 4c 2b 51 fe 7e 3b 06 55 15 bc
       0.0034108644 7.258789e-13 0.0038908909 -0.009114509
000200 8e 65 8f bb 79 49 cf 3b 3c cd 33 bb ad 95 83 bb
       -0.00437612 0.0063258973 -0.0027435562 -0.0040156455
000210 50 bf 11 bb 6a b5 17 36 e9 04 9e 3b c6 64 39 3b
       -0.0022239275 2.260635e-06 0.0048223627 0.0028288825
000220 af 95 15 3b 8e 48 48 bc c8 46 2b bb 4c 64 74 bc
       0.0022824814 -0.01222433 -0.0026134718 -0.014916491
000230 bd 39 84 bb c3 aa 52 3c 5a 16 32 98 3f 05 5b bb
       -0.0040352033 0.012858096 -2.3017245e-24 -0.0033419875
000240 30 3d b7 39 6d 9b c2 bb 2a da d5 3b ec 7e e3 bb
       0.00034950068 -0.0059389384 0.0065262513 -0.0069426205
000250 c6 81 c5 bb 84 20 e1 ba f6 36 b6 bb 99 41 2e bb
       -0.006027433 -0.0017175828 -0.005560751 -0.0026589392
000260 ce c2 a3 bb 16 ca 50 bb 76 d7 a9 a2 bc 60 d2 ba
       -0.0049975878 -0.0031858734 -4.603567e-18 -0.0016050558
000270 ea 42 23 bb b9 a1 ba 3a e9 6e 85 bb c6 55 08 3c
       -0.002491171 0.0014238871 -0.0040720594 0.008321231
000280 86 f3 56 3a df 79 80 3b 50 20 01 bc b3 dc 0f b6
       0.000819974 0.003920778 -0.007881239 -2.1437124e-06
000290 a4 29 3d 31 84 3c 28 bb 91 1f 10 3c 6c 3c bd b6
       2.752679e-09 -0.0025670836 0.0087965885 -5.639673e-06
0002a0 fc 10 cc 3b 0a 72 44 bb a3 83 e8 ba 94 a8 84 bb
       0.0062276106 -0.00299752 -0.0017739426 -0.0040484164
0002b0 b9 3e 18 3c 6b e4 56 bb c4 0d 5b 37 03 30 02 3c
       0.009292298 -0.0032789956 1.3056622e-05 0.007946017
0002c0 92 58 79 3b c1 4b 8e 3b 82 65 3e 30 6e e4 51 bb
       0.0038047177 0.0043425267 6.926585e-10 -0.0032027024
0002d0 d7 e5 87 bb d5 71 f8 3b 26 05 58 b9 70 52 23 bb
       -0.004147272 0.007581929 -0.00020601283 -0.0024920963
0002e0 7c 8c b0 3b 9b 90 28 bb 9d 64 dd bb bb 4f ec ba
       0.005387841 -0.0025720957 -0.006756379 -0.0018029133
0002f0 5d 5f 8d 3a 83 f7 c2 3a ac ee 04 3b cc 7e 8d 3b
       0.0010785867 0.001487479 0.002028386 0.004318094
000300 d9 89 95 3b d4 40 36 3b ff 89 b1 3b c8 fc 8e bb
       0.004563552 0.0027809637 0.0054180617 -0.00436363
000310 2a 01 29 bb e7 79 35 3b 62 8f 23 3c 82 89 8e ba
       -0.0025788047 0.0027691068 0.009982916 -0.0010874721
000320 9a f8 a6 bb 18 ed 44 bb 6b a8 40 bb f1 3d a1 3b
       -0.0050955536 -0.0030048545 -0.002939726 0.004920714
000330 dd fd 67 1d f4 ce db 3a d9 85 14 aa 08 a5 1f 3b
       3.070384e-21 0.0016770051 -1.3191478e-13 0.002435984
000340 e3 41 85 bb 73 a7 81 bb 83 74 fc 37 49 06 d6 ba
       -0.004066692 -0.003956729 3.0094996e-05 -0.0016328777
000350 db 8e 50 3b c3 92 7a b7 8a f2 65 bc 11 56 90 bc
       0.003182343 -1.4935332e-05 -0.014034877 -0.017619165
000360 8d 1c 45 3b 14 40 08 3c 96 74 17 3b 68 25 ae bb
       0.0030076832 0.008316059 0.0023110262 -0.0053145178
000370 b8 e9 8b ba 73 0f b8 3a 2a 82 15 3c 78 f1 9b 3b
       -0.0010674512 0.001404269 0.009125272 0.00475901
000380 1e 07 ea 3b d2 16 a9 3b 4d 11 2e 1b af c9 67 9e
       0.0071419617 0.005160191 1.4398533e-22 -1.2270745e-20
000390 b5 41 60 3c 08 34 2e b4 78 0f 3e 38 8a 49 3c 97
       0.013687541 -1.6223942e-07 4.5313936e-05 -6.0838896e-25
0003a0 98 b0 7d bb c3 16 70 bb c6 54 48 bb 66 1a 0c 2b
       -0.0038709994 -0.003663466 -0.0030568107 4.9774627e-13
0003b0 ea 87 a6 b9 68 4d 2d bc f6 80 4d bc c0 cb 74 3c
       -0.0003176325 -0.010577537 -0.012542954 0.014941156
0003c0 fb 69 32 3a 20 2b 6d bb be 85 89 21 79 a0 07 bc
       0.00068059535 -0.0036189035 9.318882e-19 -0.008278006
0003d0 03 c3 ef ba 06 b5 4a 3c b6 54 e9 3b d6 3c 52 3a
       -0.0018292371 0.012372261 0.007120694 0.00080199295
0003e0 75 dc 79 2e 1d 63 98 bb f3 a7 05 ba d2 be 94 b8
       5.681185e-11 -0.004650487 -0.0005098574 -7.092733e-05
0003f0 93 80 83 3b db df db b9 d2 d5 4a bb 2c 4a 77 b4
       0.00401313 -0.0004193772 -0.00309502 -2.3030651e-07

encoder.4.bias f4 [100]
000000 8c 93 a5 b6 be 51 93 b7 34 d3 2f b6 d0 67 69 36
       -4.93456e-06 -1.756183e-05 -2.6199968e-06 3.4780132e-06
000010 d5 33 23 b7 13 37 25 b7 f0 de 37 34 73 da 87 b6
       -9.727625e-06 -9.847589e-06 1.7124307e-07 -4.0487444e-06
000020 1e ae 2e b6 14 5e 53 b6 20 2f 3a b5 92 ef aa 37
       -2.602937e-06 -3.149621e-06 -6.9358975e-07 2.0377138e-05
000030 1f 6e 0b b7 80 e1 36 34 ce c0 c9 b6 32 d3 92 37
       -8.310685e-06 1.7032107e-07 -6.012712e-06 1.7502902e-05
000040 6c bd b0 b7 30 3c 7d b6 88 45 2b 37 4d 19 42 b6
       -2.1069041e-05 -3.7734972e-06 1.0208583e-05 -2.892298e-06
000050 60 df 2f b5 10 31 73 36 a6 5f 0e 36 f6 cc 9c b5
       -6.5517634e-07 3.623838e-06 2.1215324e-06 -1.1682557e-06
000060 32 a8 ee b6 a8 2a 6c b6 f6 5e 76 b7 42 0b c0 b6
       -7.1125332e-06 -3.519157e-06 -1.4684852e-05 -5.7233565e-06
000070 c1 87 8f 36 4d c9 bd 36 a6 44 f6 b6 e8 b6 27 37
       4.277536e-06 5.6560734e-06 -7.339363e-06 9.996562e-06
000080 be 40 e9 b5 e6 54 e4 b6 69 de 80 37 e8 ad da 35
       -1.7378695e-06 -6.804813e-06 1.5362357e-05 1.6292879e-06
000090 3d 34 a1 36 6a 41 30 b7 7a 21 05 37 19 b3 f6 36
       4.8042552e-06 -1.0505648e-05 7.935212e-06 7.352221e-06
0000a0 40 99 17 36 68 3e 8a b6 ab 2d 84 b6 d0 7c 46 37
       2.2589957e-06 -4.1199855e-06 -3.939223e-06 1.183078e-05
0000b0 e8 99 03 37 58 87 9c b6 de b2 0d 37 a5 dc f5 b6
       7.844043e-06 -4.6649184e-06 8.445901e-06 -7.3272554e-06
0000c0 a0 e8 98 b6 b8 f8 76 35 a4 9e 50 b7 f2 f2 57 b7
       -4.557034e-06 9.2004075e-07 -1.24347025e-05 -1.2871564e-05
0000d0 cc f2 07 37 40 f9 c2 36 2c ed 5c b7 e8 00 10 37
       8.103158e-06 5.810667e-06 -1.3168243e-05 8.58328e-06
0000e0 ac fa 49 37 fc 3e 92 b6 fd df e0 36 fc 2d d3 35
       1.2038898e-05 -4.3584714e-06 6.701796e-06 1.5734108e-06
0000f0 2c 93 33 37 9e a3 66 37 d1 31 02 37 5e 66 23 37
       1.07034975e-05 1.3747163e-05 7.760203e-06 9.739391e-06
000100 da 44 15 36 91 ec 19 36 74 36 2d b7 8a cc 88 37
       2.2242807e-06 2.2936476e-06 -1.0324282e-05 1.630771e-05
000110 2a ab 80 b6 e2 19 8d b6 5a 3f d6 b6 82 de 4e 36
       -3.8346234e-06 -4.2051406e-06 -6.385072e-06 3.0825909e-06
000120 c6 e6 4d 36 d4 3a 1d b6 a7 71 e5 36 9e db d9 36
       3.0681708e-06 -2.3429066e-06 6.8379627e-06 6.4926708e-06
000130 60 30 c8 34 e3 2e 30 36 83 07 e8 b6 72 86 76 37
       3.72881e-07 2.6253335e-06 -6.9150133e-06 1.4694046e-05
000140 05 f8 34 37 58 cf 8e 36 38 00 0d 37 50 2f 07 b6
       1.0786583e-05 4.2560678e-06 8.404306e-06 -2.0144107e-06
000150 3c 8c 1b 37 b8 fb 0f 37 18 f4 c9 b5 d0 d7 d6 b5
       9.271371e-06 8.582072e-06 -1.5046708e-06 -1.6007052e-06
000160 6c 4a be 36 de 00 a2 36 a7 95 71 b7 85 73 5a b7
       5.671105e-06 4.828077e-06 -1.4399563e-05 -1.3020709e-05
000170 76 66 5f 37 26 0c 3d b6 4d 60 3d 34 50 89 0a b5
       1.3315692e-05 -2.8170266e-06 1.763703e-07 -5.160882e-07
000180 3f b8 bb b7 20 23 50 b7 0c a9 d9 b6 c5 b3 d6 35
       -2.2377933e-05 -1.2405944e-05 -6.4867836e-06 1.5996562e-06

encoder.5.weight f4 [100]
000000 c3 8a f9 3c f6 63 0f 3d 20 e5 be 3c 9e 0a 0f 3d
       0.030461675 0.03500744 0.023302615 0.034922235
000010 0a a6 12 3d f6 b3 2d 3d 60 bd b8 3c 39 23 a2 3c
       0.03580288 0.042407952 0.022551239 0.019792186
000020 db 96 21 3d 08 78 ef 3c 8b b1 02 3d 9d 46 82 3d
       0.039450508 0.02923204 0.0319076 0.06361125
000030 f0 01 12 3d a4 77 ef 3c a6 e1 e7 3c 81 ae d4 3c
       0.03564638 0.029231854 0.02830584 0.025962116
000040 1a 69 41 3d 14 9a e0 3c 9d d8 21 3d 82 f2 0e 3d
       0.047219373 0.02741722 0.03951322 0.034899242
000050 82 bf 92 3c fa 17 fb 3c 0a 34 3e 3d 6d c2 e0 3c
       0.017913584 0.030651081 0.046436347 0.02743646
000060 da bf 00 3d 88 97 49 3d 85 01 f6 3c cd 6a c6 3c
       0.031432964 0.049216777 0.030030021 0.024220848
000070 94 1a 60 3d 9c 1a 16 3d 41 92 14 3d a8 e8 40 3d
       0.054712847 0.03664647 0.03627229 0.04709688
000080 c5 b5 a6 3c c2 6c 00 3d 8d 8e 0b 3d ca 94 91 3c
       0.020350346 0.03135372 0.034071494 0.017771143
000090 4e 26 04 3d 15 04 bf 3c 2e 9c 98 3c e3 59 0a 3d
       0.032263093 0.023317376 0.01862916 0.03377713
0000a0 9a 6a 05 3d 83 f8 69 3d 7a 7f f2 3c 68 d9 ab 3c
       0.032572366 0.057121765 0.029601801 0.02097769
0000b0 3e e1 00 3d 86 a3 33 3d 0a 85 7b 3d 9f 89 47 3d
       0.031464808 0.04385712 0.061406173 0.04871523
0000c0 9a 0a 88 3c f5 a3 9a 3c 6c ae 0f 3d 3c ac 30 3d
       0.016606618 0.018877009 0.03507845 0.043133005
0000d0 d0 16 e0 3c 9b e5 48 3d 2f b9 18 3d ea d4 08 3d
       0.027354628 0.049047094 0.03728598 0.033406176
0000e0 70 28 f7 3c 95 c9 2d 3d c3 3c 17 3d 51 5b 30 3c
       0.03017065 0.04242857 0.03692318 0.010763959
0000f0 ac c4 e3 3c 61 7e 10 3d 86 5d 3f 3d 31 1a 43 3d
       0.027803741 0.035276774 0.04672005 0.0476324
000100 d8 6f d1 3c 6b 8b c1 3c 51 b3 4e 3d 8f bb 6e 3d
       0.025566027 0.02362605 0.05046398 0.05828434
000110 7b 46 c5 3c 5d e4 ca 3c 1e 39 11 3d 00 9c f2 3c
       0.02408146 0.024767095 0.03545486 0.029615402
000120 e2 e0 1a 3d 0b bc 5c 3d 66 d4 07 3d dc ac a3 3c
       0.03781212 0.05389027 0.033161543 0.019979887
000130 7a 8e 0f 3d 8b 37 d2 3c 45 72 64 3d 40 5a 23 3d
       0.035047986 0.02566125 0.05577304 0.03988099
000140 d7 ab 21 3d b4 eb 1b 3d f5 34 1d 3d 61 94 d7 3c
       0.03947052 0.03806658 0.038380582 0.02631587
000150 dd f8 04 3d 95 2b c1 3c 7b 51 98 3c 00 44 50 3d
       0.032463897 0.023580352 0.01859354 0.0508461
000160 c0 25 ff 3c 05 de 3c 3d f8 3b 3f 3d 21 0f f3 3c
       0.03114593 0.04611017 0.04668805 0.0296703
000170 36 f7 30 3d a6 08 13 3d a6 68 2f 3c 97 87 16 3d
       0.04320451 0.03589692 0.0107061025 0.036750402
000180 00 3c fb 3c 99 63 09 3d c3 44 e8 3c 0b 60 05 3d
       0.030668259 0.03354225 0.0283531 0.032562297
