final_autoencoder.pth (torch, 252736 bytes, 40 tensors)

encoder.0.weight f4 [200, 9]
00000000: 41cc 42ba 0706 c6bc 344c ecbb 5c93 7fbc
00000010: ec68 753c 3cb8 bfb8 d27a 5fbc c737 9a3a
00000020: 6240 64bb 0798 c13b bb4f 623b faa7 dabb
00000030: 2c61 02bc 01b2 1f3d 7bcd 813b 0f1d 28bc
00000040: 3dc3 31bc 0b30 4ebc 7ae3 bf3c ba6c 30bc
00000050: 6686 a23c 4293 15bc 9970 653c 2d5f 853b
00000060: 4d48 ee3b 5ec5 11bb abaf b5ba 30e9 7839
00000070: 73f9 52bc 75c1 bf3c 4c14 c93b 26d9 90bc
00000080: 1465 ec3b 742f a63c 2fec 9b3b 0315 42bb
00000090: fd5c 02bc d66d 2d3c c921 cd3a 9c7d b3bc
000000a0: ac43 b2bc 70fd 2f3d 4c73 123c 1f29 603c
000000b0: c38a 383b 1381 593c d443 21bc d176 f03c
000000c0: aff0 2abc af44 9dbb 563b acbc 22e3 10bc
000000d0: 3aba 883c 409f 3d3c f53e 41bc 7a55 9fbb
000000e0: 10cd 383b ceb6 47bc a1e3 86ba 81c1 0e3d
000000f0: 4baf edbc b726 58bc 6b1a a13b ba23 213c
00000100: 3ec4 003c 1e9c 70ba e37a 32ba fb95 12bc
00000110: 75a9 e5bb 3b55 bd3c 021e 34bc 0b2e d0bc
00000120: 015f 10bc a555 af3b 280f 4fbb f4ef 473c
00000130: 9a5c 6e3c 90f6 873c ab63 7a3c fb4c 74bb
00000140: 21de 8a3b 8e79 3bbc 8b91 91bc 405a af3b
00000150: 88e9 9537 aa90 a93b e8fd d73c 46c2 2abc
00000160: 3284 4dbc be99 523c d62d 853c b023 233c
00000170: 04a4 0cbc f2ec cdb9 dfed 193c 5652 92bc
00000180: 6e6d 883c 9842 25bc 5c45 a8bc 551b 5ebb
00000190: 63bb 89bc 00f0 8abc 8e23 42bc 8f6c 603c
000001a0: d7df fa3b 86ea 43bb 5beb 12bc c749 23bb
000001b0: 69a0 863c a39c ae3c 8a5b 94bc 79c2 2a3b
000001c0: 4b16 703b 0e88 05bc d969 51bc 0e64 75ba
000001d0: 480b c9bc 6963 66bc 376a b23c f6a4 c0bb
000001e0: 34ac 5ebb 1676 d33b 8f59 d638 3ada 923c
000001f0: c363 be3b c36b d63b 44c5 58bb 971a 62bb
00000200: 0c74 9b3b 4166 5abc 2a5c 02bc afa5 5e3d
00000210: d6ae 88bb 7286 8ebb 6a92 36ba d8c9 b5bb
00000220: d12e 31bc 9971 1f3b 24c1 bd3b 9f68 8d3c
00000230: f570 18bc 0316 903b d6ac 60bb 9f29 03ba
00000240: b387 33bc d6c3 033b b480 0c3d c790 0abc
00000250: 6595 98bb 9804 3abb c767 833c 0829 4a3c
00000260: efee f13a c108 eebb fb91 7d3c 3046 4ebc
00000270: da58 dfbc 8c3c d33c 0007 adbc f8f9 7abc
00000280: 09f5 af3b 1a04 f2bb 6534 a63a fd89 dd3b
00000290: 9d07 853b 0b1b ae3c 65fa d43c 7ab0 143c
000002a0: 9a80 f03c 3ce6 e9bb b1b3 12bc fe19 c83c
000002b0: b6d2 083c ff6c ba3c 512a a4bb 8523 043c
000002c0: af53 9b3c 700e 623c fafd f7ba 882b 25bc
000002d0: 8080 09bc 0d36 3b3b 2af2 c53b 45b3 4b3a
000002e0: b121 27bc 9602 f0bc fda1 82bc bc82 ea3b
000002f0: 9809 7b3c cd76 6ebc 4b6b 5cbb 41f3 403c
00000300: 6ec9 a23a 06d8 163d f6a6 843b 8f1b 0ebb
00000310: bac3 92bb 950a 053c 1e4a 5fbc 0ced 6c3c
00000320: 511e 8fbb 0478 e1ba 0e57 e5bb 56fa b43c
00000330: 2eb5 d43b 8845 2a3c fc64 643c 0d0e a93c
00000340: 062c 9ebc 9475 d13c 6ad2 883b d2ea 0dbc
00000350: ed81 a93b 9a98 823c e74c 383c 3b10 25bb
00000360: 8288 95bb a353 aebc a6cc 12bb fb46 debb
00000370: 764a 44bc 7bfc 243d 2bdf 263c e477 e7bb
00000380: f884 f13b 86de 743b 71c9 5fbc db85 1abb
00000390: b590 f9bb 470f a53c 30dd 043c fd13 203c
000003a0: 1d28 10bc fdde 6f3b 9b35 1cbc 8ef1 903c
000003b0: dbfe c73c 4afc 82bb 07aa 9fbb a6d7 e7ba
000003c0: d435 073a d39e 403c d707 8e3c 6c97 d0b9
000003d0: 6eb6 d6ba f00f b2bb 6741 aa3c 9c89 07bd
000003e0: 8302 d5ba 5586 1bbc 8130 113b d358 eabb
000003f0: 94fd 09bc 8633 44bc 8dca 85bb 005b 34bb
-0.0007430949 -0.024172796 -0.0072112326 -0.015599098 0.014978629 -9.141906e-05 -0.0136401225 0.001176589
-0.0034828414 0.0059080156 0.0034532386 -0.0066728564 -0.007957738 0.038988117 0.0039612628 -0.010260834
-0.010849771 -0.0125846965 0.023423899 -0.01076811 0.019839477 -0.009129347 0.014003896 0.0040701837
0.0072718025 -0.0022242884 -0.0013861557 0.00023737992 -0.012876856 0.023407677 0.006136453 -0.01768167
0.007214198 0.0202863 0.00475838 -0.0029614575 -0.00795674 0.010585269 0.0015650328 -0.021910481
-0.021760784 0.042966306 0.008938622 0.013681679 0.002815888 0.013275403 -0.009842832 0.029353531
-0.01043336 -0.0047994475 -0.021024387 -0.008843215 0.016690362 0.011573613 -0.011794795 -0.0048624845
0.0028198399 -0.01218958 -0.0010291227 0.03485251 -0.02901425 -0.013192824 0.0049164793 0.009835178
0.007859288 -0.0009178537 -0.00068084727 -0.008946891 -0.0070087262 0.02311193 -0.010993483 -0.02541258
-0.008811713 0.005350786 -0.0031594727 0.012203205 0.014548445 0.016597062 0.015282552 -0.003727733
0.0042379056 -0.011442555 -0.017769596 0.005351335 1.787093e-05 0.005174716 0.02636619 -0.010422295
-0.012543725 0.012854038 0.016257208 0.009957239 -0.008584026 -0.00039277185 0.009395092 -0.017861526
0.016653743 -0.010086678 -0.020540886 -0.0033890803 -0.016812986 -0.016960144 -0.011849297 0.013697757
0.0076560783 -0.0029894426 -0.008967246 -0.00249158 0.016433911 0.021314925 -0.018110055 0.0026055856
0.0036634381 -0.008150114 -0.012781584 -0.00093609176 -0.024541512 -0.014061787 0.021779163 -0.00587904
-0.0033977153 0.006453286 0.00010220997 0.017926324 0.0058102324 0.006543608 -0.0033076564 -0.0034500712
0.0047440585 -0.013330043 -0.007956544 0.054357227 -0.0041712327 -0.004349523 -0.00069645664 -0.0055477433
-0.010814385 0.0024329184 0.0057908464 0.017261801 -0.009304275 0.0043971553 -0.0034282706 -0.00050034554
-0.010957646 0.002010574 0.03430243 -0.008457369 -0.004656481 -0.0028384086 0.016040696 0.012338884
0.0018458049 -0.007264227 0.015476699 -0.012589976 -0.027264047 0.025785707 -0.021121502 -0.015318386
0.0053697866 -0.007385743 0.001268041 0.0067608343 0.0040597455 0.02125313 0.025998304 0.009075278
0.029358197 -0.007138042 -0.008953975 0.024426457 0.008351019 0.022757052 -0.0050099273 0.008065109
0.018960802 0.0137973875 -0.0018920295 -0.010081179 -0.008392453 0.0028566152 0.006040831 0.00077705487
-0.010200904 -0.029298108 -0.015946383 0.007156698 0.015322112 -0.0145546915 -0.0033633288 0.011776746
0.001241965 0.03682711 0.0040482236 -0.0021683907 -0.004478899 0.008120199 -0.013628511 0.014460813
-0.0043676277 -0.0017201905 -0.006998903 0.022092026 0.006491325 0.010392554 0.013940092 0.020636583
-0.019308101 0.025568761 0.004175474 -0.008661943 0.005172959 0.015941907 0.011248804 -0.0025186676
-0.004563392 -0.021280115 -0.0022399812 -0.006783364 -0.0119806435 0.040279847 0.010185043 -0.0070638526
0.0073705874 0.003736408 -0.013658867 -0.002357832 -0.0076161274 0.020148886 0.008109376 0.009770391
-0.008798626 0.0036601417 -0.009534265 0.017693307 0.024413517 -0.0039973604 -0.0048725638 -0.001768817
0.00051578623 0.011756617 0.017337723 -0.0003978567 -0.0016381273 -0.005434029 0.02078314 -0.03309022
-0.0016251359 -0.0094924765 0.0022154155 -0.007151702 -0.008422274 -0.011975175 -0.004082984 -0.002752006

encoder.0.bias f4 [200]
00000000: d34d 4132 cc4f 3ab2 bab7 6b30 c8ed abb1
00000010: f76a b3b1 0de6 14b2 b020 e431 6a63 b1b2
00000020: 00e5 b2b1 3d21 3cb2 ed6c 7ab1 cf80 68b2
00000030: 90ab e4af 55a1 a831 1c7a 7531 c4ce 9430
00000040: 7947 a8b1 4e4c 5db1 3a19 3931 e487 f8b0
00000050: c973 cc32 7e3f 1a31 fecc 71b2 f411 d7b1
00000060: 8315 d030 f030 4531 e34f 1eb1 f437 9631
00000070: 2cef 8333 1894 4f30 2bc7 3832 6aed 5c32
00000080: 582b 0331 91a5 41b2 363f edaf 6856 1bb2
00000090: cd5a b032 e246 0f33 baf0 66b2 e33a 3bb2
000000a0: 1db9 da31 d2a7 9833 4094 01af dd12 0db1
000000b0: f291 81b2 20ee c331 178e 0532 377b 0331
000000c0: 8fa7 12b2 cd9b 9330 0f6a e031 2132 ffb1
000000d0: 35fb b2b2 6055 ddaf ec69 c6b3 b6bb ca31
000000e0: 14fe d031 0620 35b2 1fc2 7a32 e436 a032
000000f0: 93b3 2232 e37b 83b1 23e4 4cb2 6557 8330
00000100: 51b6 1ab1 4fcc 86b1 79cf 98b2 91e9 93b0
00000110: ec43 fa31 eaf7 0a31 df02 6330 2951 a4b0
00000120: 623e e430 12e9 b0b1 2a80 5731 9a9a ac31
00000130: 5488 afb0 4d33 2731 a04c 8cb2 5681 4d32
00000140: fccf f0b1 4c6b 36b1 5628 c431 1594 c6b1
00000150: cacf 48af 5bdb 2eb0 3dc7 56b1 45cb d6b1
00000160: 9b70 e2b1 6c34 beb2 90d7 2931 9024 2fb2
00000170: 3cad 3ab2 330b 4ab1 61d2 6eb1 4ad0 9931
00000180: 80ee d8b2 981c f5b0 0d34 73b4 4b86 54b1
00000190: 6ef9 a230 4821 6c30 4a6a fc30 53c2 8ab3
000001a0: baa7 36b1 384a a931 fa5a 8731 1420 a4b1
000001b0: 0eee 95b1 1f6b 8d32 1580 b732 2d2e 4531
000001c0: 1fd6 97b1 6fc5 0033 b967 5f32 8c42 beb0
000001d0: cd9b 8bb1 5b1c 9631 9545 40b1 e66f ce31
000001e0: 4d7f 16b1 ddc0 01b2 b0e3 4432 0b7d 3030
000001f0: 6b35 8fb1 67fa 6232 e6b1 81b2 ca8a 3032
00000200: 87e4 f931 32a6 1533 9ed6 29b2 caa4 5a32
00000210: 8c71 bab2 2d6b 92b1 b508 02b3 7e1a cdb1
00000220: c982 8330 4d42 2ab1 9c7e 85b1 4dfc eeb1
00000230: d809 be32 32eb deb1 edf8 00b1 2250 1b32
00000240: 2f42 5c33 dd7b 95b2 6a04 e6af c000 2332
00000250: 0075 e230 c992 3033 26c5 4bb2 3d80 40b0
00000260: ebda 57b0 ccd6 17b1 024f e031 7230 9231
00000270: 813c b0b1 f22b 9931 b3fc 3532 556a 2db1
00000280: 20ae 24b0 08a7 4031 6499 b1b3 e6e0 4231
00000290: 3075 8731 3be4 d7b0 3953 52b1 d832 50b1
000002a0: 396d 1bb1 1e5f 8daf d220 8eb3 5748 e630
000002b0: dde8 77b0 40a0 b6b0 9d5b 8131 1523 f431
000002c0: 2e05 1d30 a117 1db2 f52f 2231 755d fbb1
000002d0: 72b0 4132 02b2 8ab1 7add 44b2 6177 16b3
000002e0: 4494 3331 034b 0732 670b ce31 8f86 09b2
000002f0: 795f d230 d94d c4b2 ae56 5930 e3e7 a4b1
00000300: a84e 1f32 7ba1 8631 b951 9b31 3c55 e732
00000310: 959c 7db0 60ae 5031 fbfb 6031 305c c4b1
1.1251774e-08 -1.0844769e-08 8.5753593e-10 -5.0037876e-09 -5.221746e-09 -8.667041e-09 6.6393895e-09 -2.065072e-08
-5.206516e-09 -1.0950598e-08 -3.6441705e-09 -1.3533465e-08 -4.159486e-10 4.907785e-09 3.5721603e-09 1.0827184e-09
-4.897569e-09 -3.2203107e-09 2.6935383e-09 -1.8082997e-09 2.3801379e-08 2.244604e-09 -1.4074656e-08 -6.2593646e-09
1.5140106e-09 2.869509e-09 -2.3037436e-09 4.3719357e-09 6.143668e-08 7.5516615e-10 1.0755495e-08 1.2859667e-08
1.9087647e-09 -1.1271724e-08 -4.3154963e-10 -9.041834e-09 2.0530388e-08 3.335925e-08 -1.3442497e-08 -1.0898222e-08
6.36568e-09 7.108578e-08 -1.178515e-10 -2.0528923e-09 -1.5083945e-08 5.7023186e-09 7.773926e-09 1.9133048e-09
-8.536417e-09 1.0739939e-09 6.5313155e-09 -7.4271758e-09 -2.0836163e-08 -4.0260328e-10 -9.2393606e-08 5.900314e-09
6.082482e-09 -1.0542868e-08 1.4596053e-08 1.8651413e-08 9.4704715e-09 -3.826686e-09 -1.1926235e-08 9.556343e-10
-2.2513584e-09 -3.9231405e-09 -1.7789477e-08 -1.0762041e-09 7.2836794e-09 2.0222566e-09 8.25862e-10 -1.1955638e-09
1.6606914e-09 -5.148771e-09 3.135947e-09 5.023435e-09 -1.2771673e-09 2.433086e-09 -1.633299e-08 1.1961978e-08
-7.0085644e-09 -2.6545477e-09 5.7089364e-09 -5.7793934e-09 -1.8263716e-10 -6.3612554e-10 -3.1254352e-09 -6.251329e-09
-6.5902674e-09 -2.214275e-08 2.471527e-09 -1.0194654e-08 -1.0866014e-08 -2.9401235e-09 -3.4753145e-09 4.476566e-09
-2.5254167e-08 -1.7834223e-09 -2.2650075e-07 -3.0926397e-09 1.1857944e-09 8.5903595e-10 1.8365622e-09 -6.461473e-08
-2.6579827e-09 4.926985e-09 3.93936e-09 -4.776675e-09 -4.3635344e-09 1.6463273e-08 2.1362249e-08 2.869352e-09
-4.419021e-09 2.9981887e-08 1.3003892e-08 -1.3843233e-09 -4.063145e-09 4.368798e-09 -2.797923e-09 6.0081105e-09
-2.1900235e-09 -7.55264e-09 1.1460472e-08 6.4206124e-10 -4.1679207e-09 1.3211866e-08 -1.5098475e-08 1.0276105e-08
7.2728343e-09 3.484292e-08 -9.885893e-09 1.2726739e-08 -2.1704885e-08 -4.2613437e-09 -3.0275903e-08 -5.969297e-09
9.568676e-10 -2.4775944e-09 -3.8852033e-09 -6.955395e-09 2.2123388e-08 -6.487789e-09 -1.876795e-09 9.0404075e-09
5.1282935e-08 -1.740221e-08 -4.1839893e-10 9.488019e-09 1.6476918e-09 4.1111694e-08 -1.18609815e-08 -7.003143e-10
-7.8527645e-10 -2.209549e-09 6.52824e-09 4.254667e-09 -5.1291527e-09 4.457882e-09 1.0593044e-08 -2.5235256e-09
-5.99103e-10 2.8034624e-09 -8.2701064e-08 2.8358556e-09 3.94234e-09 -1.5708176e-09 -3.0606329e-09 -3.0296885e-09
-2.2617554e-09 -2.5715335e-10 -6.61836e-08 1.6755263e-09 -9.0188995e-10 -1.3287789e-09 3.7648094e-09 7.105323e-09
5.712363e-10 -9.143975e-09 2.3601363e-09 -7.3156863e-09 1.1274198e-08 -4.0365657e-09 -1.14590595e-08 -3.503317e-08
2.6132208e-09 7.87509e-09 5.9966854e-09 -8.005045e-09 1.5306646e-09 -2.2852804e-08 7.906732e-10 -4.7993907e-09
9.2729024e-09 3.9182715e-09 4.5203845e-09 2.69307e-08 -9.226338e-10 3.0367104e-09 3.2739524e-09 -5.7148313e-09

encoder.1.weight f4 [200]
00000000: cc5a dc3c c960 e13c 0ea4 f13c b350 f93c
00000010: 5d29 593d 9d52 3c3d a1fe 0b3d ea06 293d
00000020: d081 b23c c0fb 0d3d 0906 133d ee18 f63c
00000030: 150f 193d 7403 e13c 9467 243d ca27 b53c
00000040: dd5b 363d 934d 0d3d 3ab5 b93c 1afb 433d
00000050: c157 d03c 4464 173d 0491 fa3c 8e20 063d
00000060: da4d 163d 85b9 df3c 74fb 043d ba47 443d
00000070: 5e87 ea3c cb7e 143d e011 1a3d cea1 153d
00000080: 36ff eb3c 7bee 0f3d 1418 d23c d8a3 c83c
00000090: 0027 183d 98c2 393d 83dd ea3c 978f e63c
000000a0: 63bd 0d3d acb1 0d3d ede7 1c3d 8974 393d
000000b0: b85a 503d 0702 163d 2362 383d 5a2d 403d
000000c0: 50a2 d03c 85cb 0f3d d213 1d3d 523d e73c
000000d0: 4282 233d f82e 2b3d f263 473d 8bb9 193d
000000e0: 4441 173d 90bd 163d 3f99 483d 23db 083d
000000f0: ae7b 2b3d 53da 0f3d 7f95 003d d3dc e53c
00000100: 599b e73c cd5b 103d 1490 393d 3511 f43c
00000110: 1fb1 063d 3e5d fd3c 2786 033d df03 fb3c
00000120: 5e0a 1d3d 3bc0 fb3c 2b4e 153d 55fd fc3c
00000130: ea20 133d eccf 203d be56 0f3d 4975 1e3d
00000140: 3061 a33c e232 093d b666 5d3d aefa a03c
00000150: 22f6 bd3c 9102 083d 315e 1c3d efb4 113d
00000160: 7ace fd3c ae40 083d cbf0 dc3c c550 163d
00000170: 91f5 153d a722 3d3d cc4e 303d b27e 173d
00000180: def0 013d 40c7 f33c ff55 c13c 0bd5 cb3c
00000190: b1b2 ab3c 78a2 043d ea02 dc3c 3ad9 433d
000001a0: 1d74 f33c 9609 053d 03ad d73c 6d95 e33c
000001b0: 8b63 cf3c 14ef 0c3d 122a 2d3d 9c69 9c3c
000001c0: 53f4 fb3c a46b 263d cdbc b33c 5ea9 163d
000001d0: 4757 ed3c 483c 183d 8cdc 2d3d b487 e83c
000001e0: d0d5 003d 98a6 023d b409 253d 6802 fe3c
000001f0: 45fd 3f3d 9d11 043d da79 323d 70c4 113d
00000200: d7ce b03c 4a35 fe3c 16da 0a3d e693 143d
00000210: 6c69 1c3d 7e2a dd3c 40b5 1b3d 42f5 353d
00000220: 9458 253d 884f 1c3d 0e43 0f3d ac7e 1b3d
00000230: 4228 103d fd28 f83c 8833 013d 7788 693d
00000240: fd45 0d3d b665 363d 0e27 013d a00b 2b3d
00000250: 15f4 2c3d bf69 053d bc31 043d 29a8 dd3c
00000260: 35b9 2b3d caf0 d03c 21f0 103d 9d67 f53c
00000270: 6d83 ae3c 03e4 f73c 9356 383d 75c9 0f3d
00000280: 9f90 a03c e46f 193d c914 083d cd37 dc3c
00000290: e755 ba3c 8d50 ec3c f651 083d 11ae 2d3d
000002a0: 6a98 003d 2e7a a23c d1fa 043d c24b 083d
000002b0: 8244 2c3d 36cc c33c 87b3 033d 183f 223d
000002c0: 2d85 d63c 0d47 143d 7a50 253d 1dbd 3b3d
000002d0: 7c90 393d 1150 c33c 254c 053d 31d0 0a3d
000002e0: 828d fc3c 1769 263d d6cf e33c b4e5 2c3d
000002f0: 00b5 1e3d 325d 293d caea 023d a8a0 2c3d
00000300: c07d e83c ff4a df3c 0bb7 2c3d 5f46 043d
00000310: 8ff2 f93c 5ac9 263d d144 fa3c fc3d 0e3d
0.026898764 0.027511971 0.029497173 0.030433988 0.053017963 0.045977224 0.03417838 0.04126636
0.021790415 0.034663916 0.035894427 0.030041184 0.0373679 0.027467467 0.040137842 0.0221137
0.0445212 0.03449781 0.022669423 0.04784689 0.02543247 0.036960855 0.030586727 0.03274589
0.03669534 0.027310142 0.032466367 0.047919966 0.028629001 0.03625373 0.037614703 0.036531262
0.028808217 0.035139542 0.025646247 0.02449219 0.03714657 0.045351595 0.028670078 0.02814464
0.03460444 0.03459327 0.03830712 0.045277152 0.050867766 0.036623027 0.045015465 0.04691825
0.025468022 0.0351062 0.03834898 0.028227482 0.039919145 0.04179284 0.0486793 0.037530463
0.036927477 0.036801875 0.048974272 0.03341211 0.041865997 0.03512032 0.03139257 0.028059399
0.028272318 0.035243798 0.04530342 0.029793361 0.03288376 0.03092825 0.03211036 0.030641494
0.038339965 0.030731311 0.0364515 0.030882517 0.03592006 0.03926079 0.034994833 0.03868607
0.019943804 0.03349579 0.05405303 0.019650783 0.023188654 0.033205573 0.038175765 0.035572942
0.030982245 0.03326481 0.026970288 0.03669812 0.036611143 0.046175625 0.043043897 0.03698606
0.03172385 0.029758096 0.023600576 0.02488186 0.02095923 0.032381505 0.026856858 0.047814585
0.029718453 0.032479845 0.026327616 0.027781213 0.02531602 0.03440769 0.04227645 0.019093327
0.030756151 0.040629998 0.021940613 0.036782615 0.028972281 0.037166864 0.042446658 0.02838502
0.031453907 0.031897157 0.040292457 0.031007007 0.046872396 0.03224336 0.043573238 0.035587728
0.021583004 0.03103127 0.03389939 0.03627386 0.038186476 0.0269978 0.03801465 0.04442335
0.040367678 0.038161784 0.034976058 0.0379626 0.035194643 0.030292982 0.031543285 0.05701491
0.034490574 0.044530593 0.031531386 0.041759133 0.042224962 0.03257155 0.032273993 0.027057724
0.041924674 0.025505442 0.035385255 0.029956633 0.021302903 0.030260092 0.04500444 0.035104234
0.01960021 0.037460223 0.033222947 0.026882077 0.02274604 0.028847003 0.03328129 0.04240233
0.031395353 0.01983365 0.03246576 0.033275373 0.04205752 0.023901086 0.032153632 0.039610952
0.02618655 0.03620057 0.04035995 0.04583465 0.045303807 0.02384189 0.03254332 0.033889953
0.030829195 0.040627565 0.027809065 0.04221125 0.038746834 0.041348644 0.031962194 0.0421454
0.028380275 0.02725744 0.04216675 0.032293674 0.030511169 0.040719368 0.030550392 0.03472708

encoder.1.bias f4 [200]
00000000: 30ca f43b 820a 2a3c 751e 0bbc d4b2 b3ba
00000010: ec4f 22bc 8c90 563b 440d a639 b3b1 60bc
00000020: b3ad 7bbc a8fe 423b 88c0 8dba 9547 893b
00000030: 0587 79bc 2a06 59bc 3ce5 18bc 5cb2 49bc
00000040: cef3 d83b 4c9c 8cbc c013 99bc 49a4 173a
00000050: 69ed f8ba 8a7b 8abc cebc 54bc 19e5 c2bb
00000060: de22 b93b e2c2 17bc c450 0fbc 0813 17bc
00000070: 32a7 18bc 4590 193c d815 e33b ada0 f0bb
00000080: 8740 87ba 2e11 c1bb a6b1 b0bb 7653 9c3b
00000090: e240 203b cf97 e6bb 83e2 8fbb 04a3 863c
000000a0: 4eb1 d9bb dcb2 08bc d9c1 0c3c a593 03bc
000000b0: 7967 24bc c477 65bc 8b7f 913a 3478 303a
000000c0: 4af0 00bc b4bc 1f3c 2289 bbbb 71a5 86bc
000000d0: 5eb4 fbbb 1f11 d33a 5112 e3bb fb37 e2bb
000000e0: 3da3 8abc a0e9 353c 44e7 4438 62ff 6e3c
000000f0: 217a a2bc abc2 963c 549b a1bb c68e 04bc
00000100: 2f2c a5bc a0b7 463b ecd9 5ebb 281f c4bb
00000110: 7e8c cf3b 8caf ee3b 0284 91bb babc 3bbb
00000120: d017 bdbb aa1a 03bc 6c65 903b 5d51 4bbb
00000130: f400 5ebb 791f b9bb 1bbc 72bc fa35 45bc
00000140: 0b51 483b ebe8 423c f61c 00bc 0561 98bb
00000150: cbbd 8ebc b8b6 1b3a 181c 8dbc c328 dbbc
00000160: 5926 6d3b a6c8 bc3c 8fb6 cc3b 3a3c eebb
00000170: 6984 febb 3114 1ebc 7930 45bc 81dc 7abc
00000180: 420f 593c 3340 ab3b 2d37 a3bc 42e4 393b
00000190: 93c2 d1bc 7ee0 88ba fd7c 9fbc 40a7 bf37
000001a0: 8a3a 0bbc 1587 3ebc 1971 12bc 7482 9fbb
000001b0: 74b8 07bd eb7d bd3b 7222 713b c27a b5bc
000001c0: 0e90 0ebb 327a 38ba bb11 6fbc 5a84 61bb
000001d0: 3c1d 1a3c 9cd8 5abc ab8d b4bb 1e32 733c
000001e0: a7a3 d0bb 207f c0bc dc13 bcbb 81ba 4a3c
000001f0: 65f0 e0bb 0275 5dba 8bbb 2bbb a23e 07ba
00000200: 6a6e b5bc a5a1 9fbb deb6 6e3a 0f57 57bc
00000210: bb1f 40bc f291 89bb db68 b5ba 9edf a3bb
00000220: fae6 23bc bcc1 20bc b57e 5039 ec9d 2b3b
00000230: e155 eebc 1f6a 25bc f139 af3c bca8 183b
00000240: 796d 843b 0335 8cbc c13b e6bb c0f5 b33b
00000250: c9e8 80bc 1411 4f3c 0232 88bc 0c8e 93bc
00000260: e297 bfbb 9897 ebbb 4889 d6bb fa4a 7ebb
00000270: 57c2 34bc 331a 03bc 4d22 fdbb 149f 123a
00000280: 180a 11bc d433 123b 8171 c43a b890 893a
00000290: d3a0 5cbc 38b9 e2bb c413 b1ba c164 bfba
000002a0: 3839 013c 3dc9 54bc f191 3dbb 6a37 94bb
000002b0: 0025 73bb f5ef 63bc 7c48 973b e96d c43b
000002c0: 20ad 95bc 763e 923b 3388 34bc 9426 3dbb
000002d0: d12b 013c 9655 87bb 0332 9c3b d84a 2b3c
000002e0: f31d 03ba 9703 28bb e186 75bb 2686 1dbd
000002f0: 916c 5abc 31cf 9bba 68ce 28b8 cc39 b7bb
00000300: ce29 9abb 8bfe 59bb 45fb 3ebc f7c3 2dba
00000310: cd68 04bc 0eb1 0e3b 93c3 5ebc 3546 dfbb
0.0074703917 0.010378482 -0.008491148 -0.0013709911 -0.00990675 0.0032739965 0.0003167187 -0.013714242
-0.015361237 0.0029753838 -0.0010814825 0.0041894414 -0.015229945 -0.0132460985 -0.0093319975 -0.012310591
0.0066208607 -0.017164372 -0.018686175 0.0005784673 -0.0018991652 -0.016904611 -0.012984468 -0.0059477207
0.0056499084 -0.009262772 -0.008747283 -0.009220846 -0.009317206 0.009372775 0.006930094 -0.007343373
-0.0010318913 -0.0058919406 -0.005392271 0.0047706915 0.0024452736 -0.00703714 -0.004391016 0.016435154
-0.006643451 -0.008343425 0.008591139 -0.008030807 -0.010034435 -0.014005605 0.0011100633 0.0006731779
-0.007869789 0.00974958 -0.0057231346 -0.01643631 -0.0076814136 0.0016103125 -0.0069296737 -0.006903646
-0.016923541 0.011103064 4.6945424e-05 0.014587255 -0.019833626 0.018403372 -0.0049318466 -0.00809068
-0.02016267 0.0030321851 -0.0034004403 -0.0059851594 0.0063338866 0.0072841104 -0.0044407854 -0.0028646425
-0.005770661 -0.008001963 0.0044066217 -0.0031023838 -0.003387508 -0.005649504 -0.014815356 -0.012036795
0.0030565883 0.011896352 -0.007819405 -0.0046502375 -0.017424485 0.0005940008 -0.01722531 -0.026752835
0.0036186187 0.023044895 0.0062473486 -0.007270363 -0.0077672494 -0.009648369 -0.012035483 -0.015311361
0.013248267 0.005226159 -0.01992377 0.0028364812 -0.025605476 -0.001044288 -0.019468779 2.2846856e-05
-0.0084978435 -0.011628886 -0.008938097 -0.004867846 -0.033134893 0.005782833 0.0036794213 -0.022153262
-0.0021753344 -0.00070372515 -0.01459163 -0.0034411163 0.009406384 -0.013357308 -0.005510052 0.014843492
-0.006367165 -0.023498118 -0.005739672 0.012373568 -0.0068645948 -0.00084479165 -0.0026204314 -0.00051591743
-0.022147376 -0.0048715645 0.0009106229 -0.013143315 -0.011726315 -0.0041983062 -0.0013840453 -0.0050010225
-0.0100038 -0.009811815 0.00019883628 0.0026186658 -0.029093685 -0.010096102 0.021389933 0.0023293933
0.0040413705 -0.017115122 -0.007026166 0.005491942 -0.015736 0.012638349 -0.016625408 -0.01801207
-0.0058469633 -0.0071897022 -0.006547127 -0.0038802014 -0.011032662 -0.008001852 -0.0077250362 0.00055931625
-0.008852504 0.0022308724 0.001498744 0.00104954 -0.013466078 -0.0069190525 -0.0013509919 -0.001460217
0.007887177 -0.012987432 -0.00289261 -0.0045232074 -0.003710091 -0.013912191 0.004616795 0.0059945476
-0.018271029 0.0044630123 -0.011018801 -0.0028862106 0.007883982 -0.0041300757 0.004766704 0.010454856
-0.0005001716 -0.0025636905 -0.0037464427 -0.038458012 -0.013331548 -0.0011887309 -4.0246552e-05 -0.0055916067
-0.0047046905 -0.0033263292 -0.011656587 -0.00066286273 -0.008081627 0.0021773013 -0.013596433 -0.0068137893

encoder.1.running_mean f4 [200]
00000000: 9d2e e6ba 98ba baba 929d 5bbb 729a 203a
00000010: 4285 563b dbda 21ba 92e9 203b ef61 c4ba
00000020: df00 4a3a b45b 263a d862 2ebb 820e e0ba
00000030: 2e9e e6ba 76ab 2b3b fc99 b33a 682a 1fba
00000040: ddf2 5d3b 9dc2 803a 15bc 59ba 85a7 05bb
00000050: 8dd3 e33a 2c73 ab3a e0dd 4a3b 946d 26bb
00000060: 54d7 2bb9 ec25 0dbb 395f 783b edbc e039
00000070: 2a52 d9b9 5166 bdba e8f7 1cbb 9d03 283a
00000080: b8fd 393a 0393 243b 0c15 0039 d60e 6737
00000090: 80a9 9cba c82d 12bb 354b e438 f820 d43a
000000a0: 2d68 3d3a 12af d2ba 7f17 85b8 d825 0aba
000000b0: c7f6 f5b9 45ad ddba 3c6a b4ba 180e a3ba
000000c0: 232f 04bb 3a6b c3ba 0862 4abb 125f b23a
000000d0: 574a 1c3a 75d2 02ba 388b 53bb 35e1 22bb
000000e0: b2a9 53bb 73a1 9939 e739 afb9 d7ab 09bb
000000f0: 38b5 1dbb 4f71 77ba 153c 09bb a8f3 3dba
00000100: 886d d23a d9b4 603a b207 afba 1816 09bb
00000110: ad79 cbba 7258 30bb 0323 3abb 89fa 95ba
00000120: a390 fa3a 674a b1ba 6385 7ebb 95fc 06bb
00000130: a0ce d8ba 9949 c7ba 0a33 0539 2403 d33a
00000140: 5863 7e3a 8e0e 89b9 f970 723a 0aec 3cbb
00000150: d4d6 ca3a 0372 98ba ad10 103b c846 b73a
00000160: 7052 2e3b 747b feba 9abc 6dba 2d4a 1dbb
00000170: 9d1c d03a 206b 3fba 84be d33a d953 29bb
00000180: dc77 1ab8 9e18 98ba 7fd0 033b 6f3a 21bb
00000190: 2e5d 9eba 8773 5038 3d35 823b 999c 64ba
000001a0: d43a d939 7d57 1bb9 f6bd 8938 5e90 ddba
000001b0: 5066 3e3a 5aee efb9 6ae0 a8ba 1d2c 6f3a
000001c0: 8daf 9fba 786e 263b 68a9 1a3b 5da3 e6ba
000001d0: 7b51 cbba 4ceb 7a3b db74 02ba 473f ff39
000001e0: 3dd3 04bb ef7b 38bb 253b 22bb 8be3 8b3a
000001f0: 608d b83a ff53 8939 06cc 73ba 02e5 1c3a
00000200: 930d 9d3b dadb d3ba 9671 15bb 05af 14bb
00000210: 4edd 473b 9a5b 0abb 6793 993a ce2b 48bb
00000220: 834e bb3a f0cf 27ba 90aa 993a bedd f5ba
00000230: d7db 46bb 1079 04ba 7046 543b 0288 29bb
00000240: 0130 1fba 6ec5 37bb 35fd c3b8 3ed5 c03a
00000250: 0e54 e2ba 36c5 32bb 2a2f 523b f55e 7c3a
00000260: 08a0 b6ba 9a44 933a 207f f03a 3e20 993a
00000270: eda0 00bb 3e3d 61ba 9013 333b 6a67 ddba
00000280: a2a0 9ab9 32bc 21bb c320 09bb 8633 753a
00000290: ba36 8d3b 813d aeb9 8622 33bb de95 27ba
000002a0: 20b3 c13a 5933 ecb9 308f 5bbb c4d8 12bb
000002b0: 4cc2 f6ba 37c4 fcb8 afce 9cba c7ca 4fbb
000002c0: 7bff 693b 036a a03a 604b 5e3b 1ebb ed3a
000002d0: ed30 843b 85c1 343b 847a 59b9 f544 453b
000002e0: d7dd 2cba f2a0 10bb 87af bb3a f29a b4b8
000002f0: 5a18 6db9 33f2 b4ba 98ae 4cb9 c0a7 06bb
00000300: d5f6 433b 6f2a 79ba 9187 aeb9 c807 93ba
00000310: 207e de38 9b9e aeba ece7 dbba 2409 acba
-0.0017561499 -0.0014246283 -0.0033510667 0.000612653 0.0032733236 -0.00061742746 0.0024553281 -0.00149828
0.0007705818 0.00063460623 -0.0026609208 -0.0017094167 -0.0017594749 0.0026194728 0.0013702507 -0.00060716877
0.0033866682 0.0009823624 -0.00083059195 -0.002039404 0.0017381773 0.0013080589 0.0030955002 -0.0025394903
-0.00016388047 -0.0021537496 0.0037898554 0.0004286537 -0.00041450682 -0.0014450048 -0.0023951475 0.000640923
0.0007094997 0.002511204 0.00012214872 1.3772127e-05 -0.001195237 -0.002230512 0.000108858956 0.0016184142
0.0007225301 -0.0016073904 -6.346311e-05 -0.00052699214 -0.00046913905 -0.00169126 -0.001376457 -0.0012440113
-0.0020169697 -0.0014909275 -0.0030881185 0.0013608655 0.0005962005 -0.0004990467 -0.0032279026 -0.0024853472
-0.0032297191 0.00029302723 -0.00033421742 -0.0021006966 -0.0024064314 -0.00094391865 -0.0020940353 -0.00072460854
0.0016054371 0.000857187 -0.0013353734 -0.002091771 -0.0015523933 -0.0026908186 -0.0028402216 -0.0011442463
0.0019116591 -0.0013526202 -0.003883683 -0.0020597328 -0.0016541071 -0.0015204429 0.00012702882 0.0016098958
0.00097041344 -0.0002614152 0.00092484016 -0.0028827214 0.0015475401 -0.0011630658 0.0021982596 0.0013982886
0.002659943 -0.0019415454 -0.00090689363 -0.002400051 0.0015877668 -0.00073020346 0.00161548 -0.002583733
-3.682809e-05 -0.0011604016 0.0020113287 -0.002460148 -0.0012082213 4.9698658e-05 0.0039736317 -0.00087208446
0.00041433296 -0.00014814544 6.568052e-05 -0.0016903987 0.00072631706 -0.00045763218 -0.0012884263 0.00091237
-0.0012183056 0.0025395434 0.002359951 -0.0017596293 -0.0015511954 0.003828722 -0.0004976519 0.00048684535
-0.002026751 -0.0028150042 -0.0024754491 0.0010672671 0.0014080219 0.00026193258 -0.0009300116 0.00059850526
0.004792878 -0.0016163543 -0.0022803298 -0.0022687328 0.0030496898 -0.0021111728 0.0011716903 -0.0030543688
0.0014290366 -0.00064015295 0.0011723805 -0.0018758101 -0.0030343437 -0.000505344 0.0032390617 -0.002586842
-0.0006072522 -0.0028041261 -9.345488e-05 0.0014711989 -0.0017267482 -0.0027278191 0.003207157 0.0009627187
-0.0013933191 0.0011235655 0.0018348433 0.0011682583 -0.001962717 -0.00085921946 0.0027324893 -0.0016891782
-0.0002949285 -0.0024678824 -0.0020924069 0.0009353686 0.0043095024 -0.0003323369 -0.002733381 -0.00063928764
0.0014778115 -0.00045051685 -0.0033502094 -0.0022407034 -0.0018826216 -0.00012052844 -0.0011963452 -0.0031706558
0.0035705257 0.0012238625 0.0033919439 0.001813743 0.0040341527 0.0027581167 -0.00020740373 0.0030100916
-0.0006594336 -0.0022068587 0.0014319279 -8.61193e-05 -0.00022611153 -0.0013805091 -0.00019519997 -0.0020546764
0.0029901762 -0.0009504919 -0.0003328887 -0.0011217529 0.000106092775 -0.0013322415 -0.0016777492 -0.0013125283

encoder.1.running_var f4 [200]
00000000: ec58 2a3b ccc6 0c3b d984 9b3b d59f 1c3b
00000010: 9b66 4a3b a422 8d3b 3835 283b 961f ad3a
00000020: bd6a ab3a 4009 1e3b 7251 163b 5d52 073b
00000030: 84e0 5d3b 40bd 273b 86dd 1a3b 9885 813a
00000040: f880 4e3b 346c 733b eb79 0a3b 91ed ac3b
00000050: f74f 9c3a 2015 323b 3303 073b 5c01 ad3b
00000060: 22e4 403b 6168 a63a 7605 263b 437f 0a3b
00000070: 1469 c83a ffbe 643b a703 2e3b 8d46 e33a
00000080: 2995 d93a 506e 5d3b 7dca 113b ae5f 073b
00000090: eca1 0a3b def7 743b 92cc be3a 57e1 763b
000000a0: e5e3 453b ff03 163b 6a1c 0f3b e9f7 243b
000000b0: c1a9 833b dbbe 643b 9e87 6e3b 80af bb3b
000000c0: 267e c73a b87b 423b 8111 a23b 4810 573b
000000d0: 8c58 2a3b 2e5e b43b 9387 9c3b 80e6 c73a
000000e0: f725 d53b ad4e ed3a 0b88 1a3b 9173 fb3a
000000f0: 9a36 4e3b f6f2 153b 5f7d 4b3b 26a9 063b
00000100: f0dc 123b 6466 3f3b 21b7 8b3b 2f1d 413b
00000110: eb4f eb3a 9a17 f83a 35ff 433b b7aa 583b
00000120: d0dc ea3a 7f88 7d3b fce7 673b 76b3 463b
00000130: 26c8 3a3b 0e2d 4a3b 0a6e 1c3b 08c8 123b
00000140: b6f7 993a 900e 463b e440 f83a a540 923b
00000150: 270d c63a 6387 cf3a 7ba5 433b 817d 383b
00000160: e7b0 673b eba4 383b 1c9f 623a 257f bc3b
00000170: 66d1 063b 2bcc 423b caac 233b 9551 213b
00000180: 0678 153b 3b18 473b fb2b 103b 62d6 a13b
00000190: f2b6 d13a 2e34 cc3a 83a0 903b 8c95 823b
000001a0: dd83 2e3b 8c70 113b 8d17 4e3b d713 a13a
000001b0: 6c75 ba3a 29e9 e63a a1fa 1c3b 16a6 943a
000001c0: bf4f 523b b7a3 313b 2c80 f43a 1b19 013b
000001d0: 02c2 243b 1821 293b 799e 093b c69a cf3a
000001e0: decb cd3b 461c 283b f60c 923b 7dd9 183b
000001f0: 14ce 2f3b 0d1a 533b b663 033b d83a de3a
00000200: 215c a13b ab0f 0d3b 3596 1e3b 1846 e83a
00000210: 3bc2 6f3b 6530 2c3b 1f3d 2f3b 2431 8c3b
00000220: 7047 5b3b c39e 613b fa97 163b 15ff 3d3b
00000230: 3f5c 633b d833 053b 0fb0 683b 0d32 5f3b
00000240: ce73 f13a e8e7 2b3b c230 cc3a 50b2 e23a
00000250: 943b 083b 32a9 2a3b 0430 633b faba 4a3b
00000260: fda6 863b d6f8 7a3a edca ec3a ee75 183b
00000270: f495 e33a b22f 593b 150d 4d3b 8006 903b
00000280: 807f 833a 0416 943b e2dc a43b 478c d63a
00000290: 11a8 5f3b 6fe2 943a c5e9 773b 24fc dc3a
000002a0: a1cf 553b 1a05 653a 853e 923b 158f 143b
000002b0: 2b44 5f3b da83 e13a ea6f c33a b374 313b
000002c0: f02a 5c3b c26e 173b 3101 833b 81e7 313b
000002d0: 1628 4e3b c414 e53a c48d a43b 6d56 143b
000002e0: 7c3d b23a 9edb df3b 9a0d 063b e53b a33b
000002f0: 3824 ea3a 501f 683b 6781 423b 4eb6 963b
00000300: d5f1 023b 5399 e33a cbe8 493b 975b 103b
00000310: d3b3 ca3a 9ff7 983b bbae f03a 1dea ed3a
0.0025992943 0.0021480797 0.0047460613 0.0023898978 0.0030883912 0.004307108 0.0025666486 0.0013208266
0.0013078075 0.00241144 0.0022936729 0.0020648458 0.0033855746 0.002559498 0.0023630573 0.0009881733
0.0031509977 0.0037143352 0.0021129798 0.0052773436 0.0011925687 0.0027173236 0.0020601272 0.005279703
0.0029432853 0.0012695902 0.0025332845 0.0021132983 0.0015290105 0.0034903882 0.002655247 0.0017339751
0.0016600239 0.0033787675 0.0022245937 0.0020656395 0.0021153642 0.0037379186 0.0014556816 0.0037670934
0.003019565 0.0022890565 0.0021837004 0.002517218 0.004018039 0.0034903798 0.0036396752 0.0057277083
0.001522009 0.0029675793 0.0049459343 0.00328161 0.002599272 0.005504391 0.004776904 0.001525119
0.00650477 0.0018105112 0.0023579623 0.0019184222 0.003146565 0.0022880412 0.0031050069 0.0020547598
0.002240952 0.0029205317 0.004263774 0.0029466858 0.0017952895 0.0018927932 0.0029906754 0.0033060738
0.001791859 0.0038686094 0.0035386076 0.003031937 0.0028500645 0.0030849609 0.00238693 0.002239706
0.0011746797 0.0030221082 0.0018940237 0.0044632726 0.0015110121 0.0015833195 0.0029853273 0.0028150978
0.0035353245 0.002817447 0.0008644925 0.0057524615 0.0020571589 0.0029723744 0.0024974816 0.0024615277
0.0022807135 0.0030379433 0.002199887 0.0049388865 0.0015999957 0.0015579516 0.0044136657 0.0039851125
0.002662889 0.0022192327 0.0031447143 0.0012289238 0.0014225668 0.0017617095 0.0023953097 0.0011341001
0.003209099 0.0027105638 0.0018653921 0.0019698802 0.0025140052 0.002580708 0.0020998998 0.0015838973
0.0062804064 0.0025651618 0.0044571115 0.0023322992 0.0026825713 0.0032211572 0.0020048446 0.0016954793
0.0049243127 0.0021524231 0.0024198417 0.0017721085 0.0036584276 0.0026273963 0.0026739312 0.004278319
0.0033459328 0.0034426905 0.0022978769 0.0028991152 0.0034692434 0.002032509 0.003550533 0.0034056932
0.0018421353 0.0026230756 0.0015578496 0.0017295573 0.0020787464 0.002604079 0.003466607 0.00309342
0.004109262 0.00095738226 0.0018065848 0.002326365 0.0017363415 0.003314 0.0031288315 0.004395306
0.0010032505 0.004519226 0.005031214 0.001636871 0.0034127275 0.0011358986 0.0037828546 0.0016859812
0.0032624977 0.0008736417 0.0044630193 0.0022668291 0.003406773 0.0017205433 0.0014910672 0.0027077615
0.0033594929 0.0023106788 0.0039979448 0.0027146044 0.0031456999 0.0017477502 0.0050217826 0.0022634522
0.0013598646 0.0068316003 0.0020454885 0.004981505 0.0017863577 0.0035419054 0.002967918 0.004599369
0.001998057 0.001736442 0.0030808921 0.0022027248 0.0015464969 0.0046681906 0.0018362621 0.0018151436

encoder.4.weight f4 [100, 200]
00000000: fd06 9fba cc87 1c3c 62a1 f839 1297 2abc
00000010: d39c 97bb 71d6 6bbc e201 45bc 058f 553b
00000020: 8bb7 76bb 6b5d ffbb 3e45 a43b 50a1 00bc
00000030: 441b 58bb 222b 1ebb b9cb d6bb 590a 9e3b
00000040: 86ef 813b 9055 263c a115 a5bb a0a8 133b
00000050: 62c5 5cbb eeaa e03b d449 38bb 1fb3 cbbb
00000060: 462b 4ebc 61d5 4fbb e577 04bb bd4f b9bb
00000070: 8d97 48ba f76e 4dbc 898f 553c b037 8ebb
00000080: 0ec1 a83b 9302 413b 815e adbb 7036 8d3b
00000090: c3f7 8f3c d33f ee3b 3f81 91bb 5988 cfb9
000000a0: 13e8 773c 516a b3bb 285e dbbb 5f14 0abc
000000b0: 8006 e93b c9f1 8abb 862c 9fbb e919 59ba
000000c0: 2ecc a93a 8e1d e1bb bf50 7dbb 8bd2 5f3c
000000d0: fc32 7c3b 8b2e 88bc 8f81 813b 9751 7d3b
000000e0: 46f9 cb3b c85a 33bc 9c97 1cbb 1bb0 d73b
000000f0: b97f 823b 82c2 82bb 1c46 323c a8cf f63a
00000100: 138b c33b e0cc 713a 1c87 b5bb 504f 9c38
00000110: b3b8 933b fc89 463c 937d 45bb 204d 9c36
00000120: 9131 9abb f4f4 e5bb 7278 813b 3e5c 9f3b
00000130: f56c 813c 747b 1b3a 6ce5 563c f64f 37bc
00000140: 0a11 70bb 70df a2ba ef8f 19bc 946d bc3a
00000150: ac19 83bb d5cf 113b 0749 8d3c d981 07bc
00000160: ff27 c53a 249d c4bb 23c5 9aba 197a d4b9
00000170: 7b67 05bc 69bd 8abb 362d 573b c433 57bb
00000180: 9ff1 7c3b 548d aebb e4a4 21bc a708 393b
00000190: d49c 0f3c a6b2 1b3c 0996 17bc f27b 63bc
000001a0: 2642 aebb ec20 c13b 080c 4dbb 0f2f dc3b
000001b0: 5e5f 89bb 8ac0 3f3b 7ef1 043c 2ce0 58bb
000001c0: 7407 29bc 6411 7139 39b7 93bb 49f4 df3b
000001d0: 9490 0cbc 9a8b 95ba 5fae 493c 1110 ae3c
000001e0: f44d c33b 8eb7 983b 4095 18bb 7b51 513a
000001f0: 8267 df3b e8d7 123b 2b68 02bc b0a7 0d3c
00000200: f66a a5bb d381 063b f617 f2ba 653e 0bbc
00000210: 1075 53bc 36e1 20bb 3336 09bc 5aae 92bb
00000220: abad 91ba 049d 02ba 0e4a 19bc 76ea 1b3a
00000230: e50a 06bb 6a79 cf3b 902a 563b 7029 fc3b
00000240: 513c cdba 82ef a63b dc79 39bc 7de0 11bc
00000250: 38ec 8b37 60b1 a7b8 ca49 95bb f55c 333b
00000260: bb2b 9fb9 d837 b4ba d8d6 cebb 7613 753c
00000270: 2b48 203c 5888 1ebc 3e09 823b b3f2 3ebc
00000280: 4443 40bb 45cc 33bc 491b ffbb ce8b 1abc
00000290: 3117 19bc 8271 cfbb 94ef a13a 1d7c 2abc
000002a0: 1c13 a1bb 5e7b 9ebb fcad c2b8 141f d6bb
000002b0: 0a10 ca3b f5eb f6ba 075c e7bb 683f 3d3c
000002c0: da51 9cbb 13c7 953b 1fc0 8bbb 171e 50bc
000002d0: 31a9 02bb cf89 823b 5032 173b 1f1f 97bb
000002e0: 8fa0 57bc a4c9 35bc dad2 3739 b307 bf3a
000002f0: 07d0 9fbb 15c7 8cbb 87fd 29bb 7f19 00bc
00000300: f269 2bbc 6b91 253c b600 02bc aec8 1bbb
00000310: 3151 5dbc e158 28bc 461f c03b 398f 64bb
00000320: 1ee3 5cbb cd76 143b 3f33 283a 878a 673b
00000330: 8b34 faba be86 1bbb 8add 1fbc 92d4 f23b
00000340: afd6 bbba a35d ba3a 48e7 af3a 9b3e 71bb
00000350: 2457 f7ba 2d7e 88bb 6a80 40bb b13f a43a
00000360: 3a48 993a 8ba7 2bbc 50d3 f43b 165e b93b
00000370: ada6 b9bb 20df a9bb a007 2bba 3fab 10bb
00000380: deda 4eba aa68 b13b fb99 eabb 5c3a a8bb
00000390: abf1 96bb fc2e 7dbb f4cf e1b8 ffb7 383c
000003a0: bc0b e03a 19b5 14bc 9bd9 bdba bd62 c6bb
000003b0: abf8 563c 2b28 1c3c 14bc 2b3c 2b29 04bc
000003c0: cbf7 673a 5a72 baba 12db da3c c96f 69bc
000003d0: 532e 7b3b 7932 213b d30d 6a3b e9cb 44bc
000003e0: f9e9 8abb 49b5 2fb9 b65e 55ba 476a 8ebb
000003f0: 8c02 6c3b 7aff 92bb fbb9 a83c 603c b6ba
-0.001213282 0.009553861 0.00047422486 -0.0104119945 -0.004626849 -0.0143943885 -0.012024375 0.0032586467
-0.0037646021 -0.0077931187 0.005013137 -0.00785096 -0.0032975236 -0.0024134596 -0.0065550474 0.004823011
0.003965321 0.010152236 -0.0050379788 0.0022530928 -0.0033686985 0.006856314 -0.0028120177 -0.0062164213
-0.012583559 -0.0031712877 -0.0020213064 -0.0056552575 -0.00076519774 -0.012538663 0.01303471 -0.0043401346
0.005149967 0.0029450997 -0.0052908068 0.004309468 0.017574197 0.007270792 -0.004440456 -0.00039583704
0.015131014 -0.0054753204 -0.006694574 -0.008427708 0.0071113706 -0.004240249 -0.0048576025 -0.0008281754
0.0012954527 -0.0068699783 -0.0038652865 0.013661037 0.0038482537 -0.016623756 0.003952212 0.0038653368
0.006224784 -0.010946937 -0.0023894077 0.0065822727 0.003982511 -0.0039904723 0.010880973 0.0018830197
0.0059675067 0.0009223949 -0.005539788 7.453433e-05 0.004508102 0.012117859 -0.0030134663 4.658141e-06
-0.004705616 -0.007017726 0.003951126 0.004863291 0.015799025 0.0005931177 0.013116222 -0.011188498
-0.003663125 -0.0012426209 -0.009372695 0.0014375919 -0.004000863 0.0022249122 0.017246736 -0.008270704
0.0015041827 -0.006000178 -0.0011808019 -0.0004052676 -0.008142347 -0.004234005 0.0032833344 -0.0032837251
0.0038596166 -0.005326906 -0.009865973 0.0028233917 0.008765418 0.009503042 -0.00925208 -0.013884531
-0.005317944 0.005893817 -0.0031287689 0.006719477 -0.004192277 0.002925905 0.008114217 -0.0033092601
-0.010316718 0.0002299003 -0.004507926 0.006834541 -0.008579392 -0.0011409402 0.01230964 0.021247895
0.0059602205 0.0046605533 -0.002328232 0.0007984859 0.006817759 0.0022406522 -0.007959406 0.008645937
-0.005048151 0.0020524159 -0.0018470276 -0.008498763 -0.012906328 -0.0024548299 -0.0083747385 -0.0044763507
-0.0011114379 -0.00049825036 -0.009356035 0.0005947718 -0.002045327 0.0063316124 0.0032679178 0.0076953694
-0.0015658234 0.0050944695 -0.011320557 -0.00890362 1.668009e-05 -7.996219e-05 -0.0045559155 0.002736864
-0.00030359425 -0.0013749553 -0.0063122325 0.014958253 0.009782831 -0.009676062 0.003968387 -0.011654544
-0.0029336968 -0.010973995 -0.007785235 -0.009432746 -0.009343908 -0.00633067 0.0012354725 -0.0104055675
-0.004915608 -0.004836484 -9.283048e-05 -0.0065344665 0.006166463 -0.0018838631 -0.007060531 0.011550762
-0.0047704997 0.0045708506 -0.004264846 -0.0127024865 -0.0019937272 0.003983713 0.002307076 -0.004611864
-0.013160839 -0.011095438 0.00017530788 0.0014574438 -0.0048770937 -0.0042961934 -0.0025938468 -0.007818579
-0.010462271 0.010105471 -0.00793474 -0.0023770737 -0.013508127 -0.010275097 0.005863103 -0.0034875406
-0.0033704708 0.0022653819 0.00064163277 0.0035330371 -0.0019089145 -0.0023731436 -0.009757409 0.0074105943
-0.0014330948 0.001421858 0.0013420368 -0.0036810997 -0.0018870574 -0.004165432 -0.0029373416 0.0012531189
0.0011694499 -0.010476957 0.0074714795 0.005656968 -0.0056656213 -0.0051840693 -0.00065242685 -0.0022074727
-0.000789089 0.0054140883 -0.007159469 -0.00513391 -0.004606446 -0.0038632741 -0.0001076757 0.011274337
0.0017093341 -0.00907638 -0.0014484407 -0.006054251 0.0131208105 0.009531061 0.010481853 -0.008066456
0.0008848875 -0.0014224753 0.026715789 -0.014247843 0.0038327172 0.0024596734 0.0035713806 -0.012011507
-0.0042393175 -0.00016756835 -0.0008139418 -0.0043461653 0.003601226 -0.0044860216 0.020596495 -0.0013903491

encoder.4.bias f4 [100]
00000000: b1b4 c334 4262 c332 5342 2e35 f031 4532
00000010: 55e9 b0b3 2d37 7334 a047 bb34 82ec 0a36
00000020: 218e c334 f312 13b5 d24b 9c33 231e 2734
00000030: ce83 6bb5 6e4d a4b2 1053 6bb3 344d 96b3
00000040: 5cfa 1d33 2257 d1b3 4329 3b35 e2dd b5b5
00000050: 8a3c f134 aa13 a7b4 6ddb f834 2ec3 57b4
00000060: 9a86 8833 5dc5 1c34 f63c a3b3 9d42 4634
00000070: c19a 0bb4 7da7 9934 1008 4134 30e3 85b4
00000080: c4ba 7334 849a 5834 56b0 2334 4e65 2734
00000090: 5785 6a34 5063 9832 4265 3e35 a0e8 43b5
000000a0: 4819 8f34 5ce3 4735 8669 6bb3 6c79 73b3
000000b0: 22c5 12b4 e423 9833 7984 9f35 bcd6 eab4
000000c0: f861 c835 1abe 03b4 0af0 0a36 a005 6cb3
000000d0: 4c79 5934 c667 d333 1f2d 5fb1 e98b bf33
000000e0: 2a0f 83b3 a9ee 9734 2d44 8634 849f 52b5
000000f0: d34f a3b3 91ae 58b4 4ce1 87b2 b159 9f34
00000100: 440a b6b6 5a51 2eb4 91a5 c734 8119 84b5
00000110: b234 e133 bf8d 34b5 ff68 1f33 86f2 db34
00000120: bd63 0a35 5a50 2533 7083 1334 be5c 1634
00000130: b56e 0d35 7ec6 f134 d22e 05b5 b97d 88b4
00000140: ac2e aeb3 041c 1733 12b3 f2b4 8213 8334
00000150: 9e84 8334 4b57 2b34 fa2e 47b4 56b1 06b7
00000160: 7242 47b5 3d2e 2bb4 7255 adb3 d7de b4b4
00000170: b21f bfb2 e4d1 15b4 7c3b 89b4 ad6d 3eb5
00000180: 7ca0 74b4 8569 ecb4 2378 77b4 e071 f233
3.645305e-07 2.274567e-08 6.4916566e-07 1.1478264e-08 -8.2380815e-08 2.2651211e-07 3.4883578e-07 2.0701268e-06
3.6424993e-07 -5.478934e-07 7.278108e-08 1.556405e-07 -8.7736123e-07 -1.9127324e-08 -5.4790746e-08 -6.9989625e-08
3.678211e-08 -9.74817e-08 6.972297e-07 -1.3550127e-06 4.4933796e-07 -3.1120481e-07 4.6353253e-07 -2.0094441e-07
6.3574774e-08 1.4600433e-07 -7.601368e-08 1.8464421e-07 -1.3001683e-07 2.8620335e-07 1.7977459e-07 -2.493848e-07
2.2699084e-07 2.017278e-07 1.5244709e-07 1.5589941e-07 2.1841457e-07 1.7740291e-08 7.0927865e-07 -7.2981675e-07
2.665422e-07 7.446413e-07 -5.4811174e-08 -5.668828e-08 -1.3669026e-07 7.08458e-08 1.1884978e-06 -4.3742136e-07
1.4929674e-06 -1.2269484e-07 2.0703324e-06 -5.4953148e-08 2.0253827e-07 9.8443294e-08 -3.247642e-09 8.91958e-08
-6.102921e-08 2.829959e-07 2.500905e-07 -7.846322e-07 -7.604799e-08 -2.0180075e-07 -1.5818522e-08 2.9681317e-07
-5.4252178e-06 -1.6234608e-07 3.7187104e-07 -9.842189e-07 1.0486964e-07 -6.7261493e-07 3.7115566e-08 4.0968388e-07
5.1554144e-07 3.8490136e-08 1.3738259e-07 1.4003578e-07 5.2687693e-07 4.503417e-07 -4.9614493e-07 -2.542345e-07
-8.110996e-08 3.5182907e-08 -4.5206303e-07 2.4414845e-07 2.4497143e-07 1.5957373e-07 -1.8550409e-07 -8.028312e-06
-7.422997e-07 -1.5942437e-07 -8.071483e-08 -3.368975e-07 -2.224974e-08 -1.3953064e-07 -2.556152e-07 -7.0940115e-07
-2.2782655e-07 -4.40352e-07 -2.3047373e-07 1.1289717e-07

encoder.5.weight f4 [100]
00000000: 3fbb 3e3d e3ee 433d 01a0 fd3c cd18 203d
00000010: e1e0 7f3d f4f5 313d 63aa 503d c214 643d
00000020: 64a8 0e3d 3176 5c3d 0ff0 3b3d f82d 1c3d
00000030: e435 3c3d 814e 4a3d 8094 1e3d 8ee8 573d
00000040: 58af 503d 0544 183d d922 763d 5077 633d
00000050: baab 4a3d 0b35 683d c8f4 553d 5e9d 483d
00000060: 8eb9 633d 32f3 4b3d 8145 483d ee0e 523d
00000070: cc0a 1e3d 0890 433d 8a3b 1e3d 6eb7 603d
00000080: 573e 1d3d 9e19 2a3d c140 073d b228 5a3d
00000090: 1b11 153d a9dc 3b3d e41c 253d ae7a 3f3d
000000a0: 8121 503d 993e 7d3d adad 573d 23e3 913d
000000b0: 851f 033d d209 523d bd94 6a3d 61c7 523d
000000c0: b9c1 503d d3f9 4a3d 54b9 3d3d 010a 463d
000000d0: 6fc1 353d a50b 613d 4e8b 373d 56d9 553d
000000e0: 3815 453d 42e5 513d b1c8 2a3d 7284 f93c
000000f0: 2218 1e3d e82c 213d 02f4 433d 4b09 543d
00000100: 154e 623d 0b9c 2a3d 0ed8 053d 66bc 423d
00000110: 8883 3c3d 3f59 6d3d cb4a 523d 596a 463d
00000120: 2c8e 4a3d 65c9 313d 3a4d 703d 9e9f 223d
00000130: 2bf1 3d3d e253 4b3d 2a9b 403d cd3f 2f3d
00000140: 39c4 4f3d 657e 0f3d de90 093d dd82 373d
00000150: 8e98 323d 331b 5b3d 5c37 3b3d 87de 3f3d
00000160: 6aea 5e3d 055e 5f3d beb4 683d 0f2e 5e3d
00000170: 38dc 2c3d 0a99 c43c 605e 863d 2f43 1d3d
00000180: dc9d 723d e70e 7c3d db1b 413d f2d1 433d
0.04656529 0.047835242 0.030960085 0.039086152 0.06247032 0.04344745 0.050943743 0.05568386
0.03482856 0.053823654 0.045883235 0.038129777 0.04594983 0.049391273 0.03871584 0.052712016
0.05094847 0.037174243 0.060091827 0.055533707 0.049480177 0.05669121 0.052235395 0.048978202
0.05559688 0.049792476 0.04889441 0.05128377 0.038584515 0.04774478 0.038631 0.054862432
0.03838953 0.041528337 0.03302074 0.053261466 0.036393266 0.045864735 0.040310755 0.046747856
0.0508132 0.061827276 0.052655865 0.07123401 0.03201248 0.051278897 0.057270754 0.051459674
0.050966 0.049554657 0.04631932 0.048349384 0.044373926 0.054942746 0.044810586 0.05220922
0.04811594 0.051244028 0.0416953 0.030458663 0.038597234 0.039349467 0.047840126 0.051766675
0.055250246 0.04165272 0.03267675 0.047542952 0.046023875 0.05794644 0.05134086 0.048441265
0.049451992 0.043404955 0.0586674 0.039703004 0.046372574 0.049640544 0.047022976 0.042785455
0.050724242 0.03503265 0.03358542 0.044802535 0.04360252 0.053492736 0.04570709 0.046843078
0.054422773 0.054533023 0.056812994 0.054243144 0.042202204 0.023998756 0.06560969 0.03839415
0.059232578 0.06153765 0.047145706 0.04780764

encoder.5.bias f4 [100]
00000000: 2d17 023b a919 173c 107a dbbb 8a7f 83bb
00000010: 9eca ffbb 54cc 29bc 1582 8fbc 83eb f3bb
00000020: be6a 443b f7b3 62ba 5fc5 d9ba a0dd efbb
00000030: 947b 85bc 8362 35bc 77ce 60bc e682 39bd
00000040: 262b e4bc 7759 a4bb 3e66 54bc c81b 913c
00000050: b2ac 6dba 16c4 86bc 2f7f 733a 3237 96b9
00000060: b4d7 38bc 5546 333b d480 4abc b84b f4bb
00000070: 75aa 8cbb d0f2 aabb 2a95 b0bc 2762 2ebc
00000080: d3e0 d8bc e1d9 743c b9af cc3b e055 afbc
00000090: 2f34 463c 8f10 7e3b b79c e7bc 7fac 2dbc
000000a0: e370 773b 1ecb fe3b 2635 71bc a004 453b
000000b0: ab9f fabb adab cabb 61c2 9e3c c8d6 02bc
000000c0: 7830 6f39 7a9b 9e3a 1130 8abc 211f 18bc
000000d0: 742b 14bc 825d a0bc 7967 51bc 32f3 03bb
000000e0: d5c7 7fbc 124d 263c 0ce4 8a3b 7324 5b3b
000000f0: 65d6 ae3a f89e b4bb 1e2a b5bc dcb2 c33b
00000100: 2944 39bb 8318 fdba de8a 93bb 26a9 6ebc
00000110: f57b 6d3b 6b12 fa3b 8e3e db3c 21cc ba3c
00000120: 622d 89bc e426 2e3c 0596 8d3c 629c 8539
00000130: 3fff 2d3c 1b05 bbbc 2b54 d13a 2e3e 61bc
00000140: b0ea 70bc 66fa b4bb 5502 733b ad74 44bc
00000150: 108c dcba e868 63bc 2340 16bb 91bb 12bc
00000160: d606 27bb 1884 abbb b84c 99bc 4a86 b1bb
00000170: d1ca 053c 73ef 9c3c b334 babc cc47 1d3a
00000180: 9389 21bc 5aad 123c 25ee 483c b129 99bc
0.001985024 0.009222426 -0.0066979006 -0.0040130066 -0.0078061363 -0.010363657 -0.017518083 -0.0074438467
0.002997085 -0.00086480327 -0.0016614607 -0.007320121 -0.016294278 -0.01107085 -0.0137211 -0.04529085
-0.027852606 -0.005015548 -0.01296383 0.017713442 -0.0009066566 -0.016450923 0.0009288666 -0.00028651353
-0.011281896 0.0027355154 -0.012359817 -0.0074553154 -0.004292781 -0.005216934 -0.021555502 -0.0106435185
-0.026474392 0.0149445245 0.0062465337 -0.021403253 0.0120974025 0.0038767194 -0.02827297 -0.010600208
0.0037756495 0.0077756783 -0.014722144 0.0030062571 -0.0076484284 -0.006185016 0.019379796 -0.007985778
0.00022810872 0.0012100779 -0.016868623 -0.009284765 -0.009043563 -0.019575838 -0.012781017 -0.002013397
-0.0156116085 0.010150211 0.004238611 0.0033438473 0.0013339041 -0.0055121146 -0.02211481 0.0059722494
-0.0028269386 -0.0019309673 -0.0045026382 -0.014566695 0.0036237214 0.00763159 0.026763227 0.022802414
-0.016745273 0.010629389 0.017283449 0.0002548425 0.010619937 -0.022829583 0.0015970519 -0.013747735
-0.014704391 -0.005523014 0.0037080247 -0.011990708 -0.001682641 -0.013879992 -0.0022926412 -0.008955852
-0.0025486252 -0.0052342527 -0.01871334 -0.00541762 0.008166031 0.019157147 -0.022730207 0.0005999773
-0.00985946 0.008952463 0.012263809 -0.018696638

encoder.5.running_mean f4 [100]
00000000: 7a25 b6ba b78b c4ba b974 393a ca3c 8c3b
00000010: 85dd bcbb 340a 86bb 049b daba cf5c 27bb
00000020: 84ff 033b e7ec 6f3b d95b 1cba 636c b73a
00000030: 5891 d33a 0a22 10ba 0cf5 093b 9082 72bb
00000040: 3b64 17b8 f2a3 503a c451 9439 b4b9 86ba
00000050: 341e 093b 3499 80ba 6ad2 8dbb d988 82ba
00000060: 7c0a 603a d512 baba 360b dbba 5b1e 0dba
00000070: c810 91ba 9725 4f3a bbda 2f39 5144 d73a
00000080: 556c bab9 bb55 c33a 5f97 1f3b d954 173b
00000090: 3c4f 5cbb 7142 833a 5c63 09bb a644 6cba
000000a0: 50a2 13bb 6c2c 3d39 b74e 83b9 8d2d c5bb
000000b0: 3af4 5cba 5d31 ee3a 7c4e 743a 24bb 2bbb
000000c0: f45e b5ba ab3b b4ba b3cf caba e078 d0b9
000000d0: 2aa5 28ba 4679 ebba dbd4 94ba 2c83 09bb
000000e0: 4c6a 44bb 632a 8dbb 01ed 8638 9c97 ddb9
000000f0: ff07 83bb ec69 ba39 f9b2 03bb 1d26 deba
00000100: 0f7c b039 f5be 303a b65e 8a3a cd3c 893b
00000110: e6ea 4cb8 9c5a 58b9 7762 ce3a b158 2db9
00000120: 05a9 fab9 a503 85ba 217b 19bb a32b 69ba
00000130: 6c05 f6b9 8ab5 21bb c020 eebb c8f0 c737
00000140: c477 1db8 0e38 8abb f4e6 31b8 f871 82b9
00000150: 9bd6 6dba 1f3c f139 aa30 603b 248d 6dbb
00000160: 7699 f73a 11aa 623a fc7b 0339 da81 c0bb
00000170: b1aa 54bb 2212 1cbb 3245 12bb ba35 0cbb
00000180: 55bb c9bb 6e86 98bb c047 9b3a 21b8 28bb
-0.0013896667 -0.0014995252 0.0007074583 0.0042797076 -0.005763712 -0.004090572 -0.0016678278 -0.0025537496
0.0020141313 0.003660971 -0.0005964614 0.0013994094 0.0016141338 -0.0005498236 0.00210506 -0.003700409
-3.6094552e-05 0.0007959 0.0002828968 -0.0010278733 0.0020922543 -0.0009811283 -0.004328062 -0.0009958997
0.0008546484 -0.0014196286 -0.0016711715 -0.00053832465 -0.0011067623 0.00079020247 0.00016770784 0.0016423558
-0.00035557398 0.0014902869 0.0024351699 0.0023091345 -0.0033616563 0.0010014308 -0.0020963764 -0.0009012915
-0.0022527166 0.00018040993 -0.00025044914 -0.006017393 -0.00084287266 0.001817267 0.00093195564 -0.0026204074
-0.0013837502 -0.0013750693 -0.0015473276 -0.0003976291 -0.0006433303 -0.001796522 -0.001135494 -0.0020982726
-0.0029970584 -0.0043080314 6.433763e-05 -0.00042265363 -0.003998756 0.00035555603 -0.002009569 -0.0016948615
0.00033661767 0.0006742322 0.001055679 0.004188156 -4.8856156e-05 -0.0002063312 0.0015745898 -0.00016531606
-0.00047809645 -0.0010148181 -0.0023419338 -0.0008894747 -0.00046924816 -0.0024674856 -0.0072670877 2.3834771e-05
-3.7543257e-05 -0.004218108 -4.241518e-05 -0.00024880446 -0.0009072811 0.00046011896 0.0034208694 -0.0036247456
0.0018890339 0.00086465577 0.00012539321 -0.0058748545 -0.0032450373 -0.002381452 -0.0022319076 -0.0021394328
-0.006156365 -0.004654697 0.0011846945 -0.0025744515
