final_rbm.pth (torch, 13652 bytes, 10 tensors)

v_bias f4 [4]
00000000: 0000 0000 0000 0000 0000 0000 0000 0000
0.0 0.0 0.0 0.0

h_bias f4 [10]
00000000: 0000 0000 0000 0000 0000 0000 0000 0000
00000010: 0000 0000 0000 0000 0000 0000 0000 0000
00000020: 0000 0000 0000 0000
0.0 0.0 0.0 0.0 0.0 0.0 0.0 0.0
0.0 0.0

weight f4 [50, 4]
00000000: 73fe 90bd cc05 45be 083a fabc b26b 44ba
00000010: 375d 9f3c 2623 803a d21e 5dbd 4e1b 8cbd
00000020: d410 b8b9 da5c 363e 6a02 193e 7d26 3abe
00000030: d206 b3b7 99f8 533e 7f0b 6aba 7272 c3bb
00000040: 5e23 37bb 81ae 563e 8b75 62b8 738d bb3d
00000050: 7553 d33a d313 ad3d 5fc2 45b9 70b6 093c
00000060: 6d44 73ba 3d34 6a38 3af6 23be 3d84 4138
00000070: b952 f7bd d4d1 233e 1c97 353e 8209 71ba
00000080: 58bf e739 2490 4bbd 019a 32be e067 05b9
00000090: 36aa 8239 a310 6439 8db8 163a af1c 8fba
000000a0: 0f9f e8ba ed37 91ba 8d4a 83b8 dbc7 2b39
000000b0: 1a70 6fba 3189 6438 78f8 683e 4435 91bb
000000c0: 6036 59bb 512f 883c 3a33 e63d f27c 79b8
000000d0: bf03 12bd 98e8 b43c 18cd 243d 96f5 75bb
000000e0: 9f06 5bba 9ef2 45bd 1dfb 0ebd b5ab d23d
000000f0: 0689 d4ba f0ad beb6 f6af 4bbe 5c88 ee3d
00000100: 6bab 12be f6f3 333d 4fe4 6f38 5737 ff3d
00000110: 2492 d93d d454 9937 d87e 5cbe ecb5 283e
00000120: 2e4a cc36 e4df 643e b041 8e38 f86f dcbd
00000130: 4832 323e c004 a93d 5ce8 2c3a 5203 e9bb
00000140: ef2f 8e3c 1cc3 763d b563 59b9 7381 1639
00000150: 3af9 26b8 31f6 d5bd f61d 4c3d f5af 79bd
00000160: 4aff 9cb9 e748 053a 9f67 6c3a c09b 393e
00000170: 97e3 9cbd 7454 b9b8 e5fd 9c3c fe77 9b3c
00000180: 965a 0c3e 245e 3db8 4d55 31be fa27 50bd
00000190: 730f 613b fb99 47be 1b8d 733a 385d 413e
000001a0: 92eb 683e 1042 70be 3e1f 053c a381 a53b
000001b0: 26de 4dbe f099 7c3a 42b4 00be 2f29 3fbe
000001c0: fa0a 66b9 77f2 633b 2397 8738 e28c 93bd
000001d0: af78 4f3d 5891 0534 39b4 433e ba17 da3d
000001e0: 6df5 c639 ab90 1b3e f000 4ebe 48ef 0abe
000001f0: 45ab 9fba aac2 c2ba a527 a43d 5d97 663e
00000200: a43a ad3d 3f19 7b3a 882d 503e 03c8 243e
00000210: 52fc 3ab9 af7e a33d c9d5 76bd 814c 6aba
00000220: 58f5 33be edc5 8db9 b1ee 653e 7058 b33c
00000230: a9d4 2b3d f566 643e 2887 09be ae51 bfbd
00000240: 24e7 383a 554d e1bb 1dda fd3d 8b7e 393e
00000250: 23a4 83bd 4e39 4c3e f6a3 27be 9002 9c3a
00000260: 9c2e 50be 24b1 3b3e a8ee 633e 87e5 193c
00000270: 2fef 2abe f42b 13be 621b cfbd 6d81 553e
00000280: c520 df39 3644 6eb6 8458 bb3c d38b f8b8
00000290: a0d8 b1bd 552b 3b3e 2edc e4bd 6fcf 6d3e
000002a0: 81ce b3bc ded3 81b6 29a4 a33a b6a1 58be
000002b0: 280a f93d 2dff ddbb 625d ae3d 2852 183d
000002c0: 29b8 4eb9 1304 9a34 9805 7738 0e63 d5bd
000002d0: 7630 92ba d0c4 463c 3be0 39be c82a 233e
000002e0: fe39 d63c b3a6 b53c c188 723e 7c5a b8b9
000002f0: 58c9 3f3e d43a 3fbe cd58 713a 3a21 143e
00000300: ba31 93b7 6d5e 98bd d3ac 1cba 4c04 69bc
00000310: 3a7f beba 1fd9 b73c f3e8 1239 fe03 d4ba
-0.07079782 -0.19240493 -0.03054525 -0.00074928545 0.019453628 0.00097761 -0.05398447 -0.068411455
-0.00035107753 0.17808858 0.14942327 -0.18178745 -2.1341639e-05 0.20700301 -0.00089281047 -0.0059645707
-0.0027944664 0.20965005 -5.399207e-05 0.09157839 0.0016122895 0.08451047 -0.00018859793 0.008405313
-0.00092799106 5.58386e-05 -0.16011897 4.6137942e-05 -0.12076325 0.15998012 0.17733425 -0.0009194837
0.00044202316 -0.04969801 -0.1744156 -0.00012722565 0.0002492235 0.00021749972 0.0005749546 -0.0010918583
-0.0017747598 -0.0011079289 -6.260453e-05 0.00016382283 -0.0009133831 5.4487205e-05 0.22751033 -0.0044313986
-0.0033143982 0.016624125 0.112402394 -5.948259e-05 -0.035648104 0.022083566 0.040234655 -0.0037530414
-0.00083551736 -0.04832708 -0.03490745 0.10286657 -0.0016215153 -5.6826902e-06 -0.19891343 0.11647102
-0.14323203 0.04393383 5.719467e-05 0.12461727 0.10623577 1.8278522e-05 -0.21532762 0.16475648
6.0883094e-06 0.22351032 6.783323e-05 -0.10763544 0.17401993 0.08252859 0.00065959035 -0.0071109915
0.01735684 0.060244665 -0.00020731876 0.00014353338 -3.9809594e-05 -0.10447348 0.04983326 -0.06095882
-0.00029944844 0.00050844107 0.00090181263 0.1812582 -0.07660597 -8.837218e-05 0.019164035 0.018978115
0.13706431 -4.5148787e-05 -0.17317696 -0.050819375 0.0034341484 -0.19492333 0.00092907407 0.18883216
0.22746113 -0.23462701 0.0081251245 0.0050508543 -0.20104274 0.00096359756 -0.12568763 -0.18668054
-0.00021938598 0.0034781971 6.465453e-05 -0.07204606 0.050652202 1.2439466e-07 0.19111718 0.10649057
0.0003794836 0.15191905 -0.20117545 -0.13567841 -0.001218178 -0.001485904 0.08015374 0.22518678
0.084584504 0.0009578652 0.20329869 0.16091923 -0.00017832339 0.07983147 -0.060262475 -0.00089377916
-0.1757406 -0.00027041082 0.22454335 0.021892756 0.041950855 0.223049 -0.13430464 -0.09341751
0.00070534856 -0.006875674 0.123951174 0.18114679 -0.06427791 0.19943735 -0.1637114 0.0011902619
-0.2033028 0.18329293 0.22259009 0.0093931025 -0.16692804 -0.14372236 -0.10112645 0.20850153
0.0004255829 -3.5504468e-06 0.022869356 -0.00011851606 -0.08683896 0.18278249 -0.111748084 0.23223661
-0.021949055 -3.869164e-06 0.0012484837 -0.21155438 0.1216014 -0.006774804 0.08513905 0.037187725
-0.00019714296 2.86877e-07 5.88946e-05 -0.10419284 -0.0011153359 0.012131885 -0.18151943 0.15934289
0.0261507 0.022174215 0.2368498 -0.0003516263 0.1872915 -0.18674785 0.0009206653 0.144658
-1.7546921e-05 -0.07439885 -0.00059766805 -0.014222216 -0.0014533766 0.022442399 0.00014010425 -0.0016175506

bias f4 [50]
00000000: 0afa 283e 5c46 47be 6455 46be e15b e7bb
00000010: 3d11 383c 7b0d 6bbe 2056 0c3e 06eb 4938
00000020: 47a7 5e3e 7b70 5e3e ef49 8437 4ca2 493e
00000030: 50b9 dbbd 8d8b 113e 2807 30be 345d 90bd
00000040: 00e0 39bd 6534 2e3e 8e48 71be f0d1 87ba
00000050: 9828 113c 8727 03b7 712c 03b9 85e6 17be
00000060: 5720 cfbd 3564 5a3a 2856 20bd 093f 713e
00000070: 996d 2bbe ee72 fb3b a1ad 6fbe c34d 5fbe
00000080: d97d 683d 7421 78bd 138e af39 2bad 51b9
00000090: 2df9 5b3e 46cc d03d 0433 fd35 cbce ccbc
000000a0: e763 d7bb 19dc c3bd 993d d0ba 6fc9 33be
000000b0: 75bf 303a 087f 5d3c 198b 0f3d dbd1 33be
000000c0: cc9c 553d a853 b433
0.16501632 -0.19460434 -0.19368511 -0.0070605134 0.011234579 -0.22954361 0.13704729 4.8141017e-05
0.21743499 0.21722595 1.5770054e-05 0.19690818 -0.10728705 0.1421339 -0.1719023 -0.07049027
-0.04537964 0.17012174 -0.23562834 -0.0010362249 0.008859776 -7.817412e-06 -0.00012509689 -0.1483403
-0.1011359 0.0008330972 -0.039144665 0.23559202 -0.16741027 0.007673613 -0.23406078 -0.21807007
0.056760643 -0.06057878 0.00033484455 -0.00019996303 0.21481772 0.10195212 1.8864816e-06 -0.02500095
-0.0065731886 -0.09563465 -0.0015887498 -0.1755731 0.00067423965 0.013519056 0.035044763 -0.17560522
0.052151486 8.39712e-08

weight f4 [30, 50]
00000000: b843 bb37 f495 ba3a 3d8d 593a 1062 1db9
00000010: b971 50b9 e6de 60b7 d492 9f3a 3597 16b8
00000020: 82e6 013a 5dcc d436 a6a3 1fba 29a3 25ba
00000030: a61b 7039 ad91 ab38 f565 60b9 f562 6c3a
00000040: ef0b 9138 bfad 8ab7 9597 1c39 a5f7 24b7
00000050: 9e95 6cba fe88 72ba 9ac9 6936 c974 a73a
00000060: 6f80 c6ba a1ac d735 01c7 cb38 b30b a937
00000070: c451 9337 f69b 4cba 1d16 a939 16d3 2d39
00000080: ed1b 62ba bb0f 723a 26a6 5eb8 b48f 47b9
00000090: 8255 c2b9 02c8 2d3a b09c b938 5a76 6339
000000a0: 7442 93b8 ca79 b3b6 cba9 31b9 4282 c53a
000000b0: 4412 a33a d2e5 00b7 e528 2638 b1ae 24ba
000000c0: efb8 85ba 9236 c2ba 23f7 6ab9 4fef 87b8
000000d0: d814 8db4 e412 b9b9 e352 163a aaa9 c8ba
000000e0: 7d5b 15b9 2c4e 1db8 3688 a5b8 2095 583a
000000f0: a795 a3ba 781d dbb6 554d 42b7 0c5c 693a
00000100: 3cb8 9939 79df 7038 d3bc 54b9 0d99 b036
00000110: 9547 1739 414c b9ba a88d 07b9 dd2d cd3a
00000120: f66d 51b9 e80b 27ba 90ac 45b6 1e6e b3b9
00000130: 8f08 cb3a cdeb 9a38 aafe 4db7 81e6 0838
00000140: 6a4e 01b6 7a17 bcb6 f738 9837 7fb8 733a
00000150: f595 dc36 d555 1cba 3d73 4eb7 f288 34b8
00000160: 163a 13b6 407e 713a f134 8038 3637 62ba
00000170: ae2e 703a 25f2 1bba 698b 0b38 e42e a23a
00000180: 0dd0 46b8 0f10 7ab6 f6fa 4eb9 e2a0 8cba
00000190: 8ed1 86b7 772b 3a3a fe33 56b6 b57c d0ba
000001a0: e0da acba da16 03b7 f6a8 9337 3f97 1a3a
000001b0: 98c1 0fb9 f0ff e037 81bb 8038 c834 b639
000001c0: 0f18 6c3a 7778 55b8 6080 f4b8 b26f 5d36
000001d0: f6e4 5a3a 36fe 3bb7 72ec 6c3a 8dff 3239
000001e0: 6d86 9739 6085 4939 f4a6 24b9 4a0f 453a
000001f0: 24b3 943a cb14 abba 7124 9fb5 3efd 4bba
00000200: 25bf 4239 6713 96b7 9381 3d39 483b 4238
00000210: 32a5 b1b9 d8f5 bcb6 da76 6ab9 4c22 70ba
00000220: ab86 ba38 759c 7bb6 6e41 8236 440f bdb8
00000230: d0c3 bcba d3c8 8838 c756 c8ba 1321 a63a
00000240: 0f4c 66b9 2103 dc35 76d4 e0b8 8101 733a
00000250: 7820 353a dc47 5c37 4030 8d38 224d 513a
00000260: faa3 6739 6a72 ad39 aacb f1b8 2f49 e1b9
00000270: d6e3 3439 a3cf 9a3a 3506 2cb9 6ebd f736
00000280: d1fd fcb6 8f7f b4b9 6f4b a93a bf67 57b8
00000290: 4f97 1739 1e11 17b9 9c3d 983a 2e36 5938
000002a0: f798 6a3a 04fd 04b8 50d8 ec34 2862 0fb8
000002b0: 2891 733a 7e62 00b9 1bbf 52b8 c8ce b5b6
000002c0: c9ac 31b9 971c 9d37 1fa4 19b7 071e 75b8
000002d0: f875 f4b8 1f0b 11b9 2ef9 55b5 f8f2 8438
000002e0: 61bc 003a 651b f638 2afc 50ba fc5c 4e3a
000002f0: 2e97 2bba a821 b5b9 2de9 3d38 a97e c2ba
00000300: c75f 2ab9 d141 13b9 722b 8036 45bb 0fba
00000310: 1195 63b6 1ef4 8639 7214 723a 772b ae39
00000320: 38ed b637 4506 24ba f885 81b7 60d9 8e38
00000330: 0b32 6439 045f 99ba cca9 c035 db51 63ba
00000340: 151e b739 66db afb6 566d 8038 8cfd c339
00000350: 539d 06b9 ffde 5039 6a48 c1ba 010b d23a
00000360: 0d74 3135 92ad d7b9 57b3 ba3a f708 3fba
00000370: d818 643a f3d7 2539 e0af 6637 97ce d1b9
00000380: d2b5 5ab7 a469 c438 4bbc b13a 65d5 8dba
00000390: 651a 80b6 a741 90b8 36c2 84ba f5e6 fcb9
000003a0: 7d03 28ba 72da e6b8 0367 54ba ad18 9e39
000003b0: af16 1839 787b 1db8 ab09 733a 73d9 62b6
000003c0: b564 1139 3a90 4eb9 a5ad 1b3a b250 2939
000003d0: e15b 5db9 9184 a438 3eec 373a 548f 5138
000003e0: 5c15 c7ba 94d7 8939 4e15 6536 7882 523a
000003f0: 0c8c 403a 151c a138 8abf 2cba 281f d23a
2.2323671e-05 0.0014235363 0.0008298939 -0.00015009218 -0.00019878791 -1.3403338e-05 0.0012174495 -3.590361e-05
0.0004955308 6.3418834e-06 -0.0006089754 -0.0006318563 0.00022898483 8.1810496e-05 -0.00021400287 0.00090174313
6.9163616e-05 -1.6531789e-05 0.00014933788 -9.832821e-06 -0.000902498 -0.0009251981 3.4837053e-06 0.0012775894
-0.0015144477 1.606899e-06 9.716862e-05 2.0151818e-05 1.756184e-05 -0.00078052224 0.00032250668 0.00016577201
-0.0008625377 0.00092339114 -5.3083662e-05 -0.00019031652 -0.00037066272 0.000662923 8.850673e-05 0.00021692496
-7.021884e-05 -5.348794e-06 -0.00016943288 0.0015068727 0.0012441357 -7.682904e-06 3.961557e-05 -0.00062821346
-0.0010202209 -0.0014817289 -0.00022408045 -6.481876e-05 -2.6278462e-07 -0.00035300024 0.0005734397 -0.0015309353
-0.0001424383 -3.750452e-05 -7.8931844e-05 0.00082619675 -0.0012480513 -6.530139e-06 -1.1581306e-05 0.00089019607
0.000293197 5.7428584e-05 -0.00020288238 5.263026e-06 0.00014427149 -0.0014137105 -0.00012927374 0.0015653927
-0.00019972757 -0.00063723186 -2.9455732e-06 -0.00034223584 0.0015490222 7.3872136e-05 -1.2278246e-05 3.26396e-05
-1.926814e-06 -5.6055696e-06 1.8146338e-05 0.00092972064 6.573968e-06 -0.00059637177 -1.2305388e-05 -4.3042884e-05
-2.1938517e-06 0.0009212233 6.113377e-05 -0.0008629443 0.0009162229 -0.0005948863 3.327002e-05 0.0012373594
-4.740064e-05 -3.726225e-06 -0.00019739181 -0.0010729099 -1.6071626e-05 0.00071018137 -3.1918748e-06 -0.0015906306
-0.0013187788 -7.813529e-06 1.7602444e-05 0.0005897171 -0.00013709662 2.6822061e-05 6.138441e-05 0.0003475307
0.00090062706 -5.089535e-05 -0.000116587384 3.2996581e-06 0.0008350158 -1.1205257e-05 0.00090379186 0.00017070603
0.0002890112 0.0001921854 -0.00015702454 0.0007517232 0.0011344892 -0.0013052461 -1.1857029e-06 -0.00077815715
0.00018572489 -1.7890428e-05 0.00018072715 4.6308414e-05 -0.0003388315 -5.6314566e-06 -0.00022360255 -0.0009160384
8.894255e-05 -3.7492985e-06 3.881919e-06 -9.015066e-05 -0.0014401618 6.522392e-05 -0.0015284651 0.0012674652
-0.00021962843 1.6392188e-06 -0.00010720726 0.00092699385 0.000690944 1.3129753e-05 6.732391e-05 0.0007984211
0.00022090963 0.00033082376 -0.00011529711 -0.0004296987 0.00017251013 0.0011811148 -0.0001640551 7.383226e-06
-7.5397334e-06 -0.00034427314 0.0012916158 -5.1356616e-05 0.00014456849 -0.00014406859 0.0011615041 5.178729e-05
0.0008949185 -3.170689e-05 4.4115814e-07 -3.4185272e-05 0.00092913443 -0.00012243722 -5.0245882e-05 -5.418293e-06
-0.00016944403 1.8729172e-05 -9.157723e-06 -5.8440517e-05 -0.000116568 -0.0001383242 -7.971129e-07 6.339507e-05
0.0004910883 0.00011735297 -0.00079721457 0.0007872132 -0.000654566 -0.00034548086 4.5278273e-05 -0.0014838773
-0.00016248143 -0.00014043531 3.819755e-06 -0.00054829224 -3.3912404e-06 0.00025740353 0.0009234614 0.0003322025
2.1806554e-05 -0.0006257038 -1.5440382e-05 6.811577e-05 0.00021762417 -0.001170129 1.4354532e-06 -0.000867156
0.00034926893 -5.2409478e-06 6.123881e-05 0.00037382205 -0.00012837844 0.00019919498 -0.0014746313 0.0016025008
6.6106514e-07 -0.00041137316 0.0014244121 -0.00072874076 0.0008701212 0.00015816074 1.3750017e-05 -0.00040017508
-1.3036146e-05 9.3656854e-05 0.0013560144 -0.0010821043 -3.81777e-06 -6.878684e-05 -0.001012868 -0.00048237262
-0.0006409211 -0.00011007943 -0.0008102508 0.00030154493 0.000145043 -3.7546706e-05 0.0009271155 -3.3803196e-06
0.00013865794 -0.0001969942 0.0005938656 0.00016147157 -0.0002111043 7.844822e-05 0.0007016099 4.9962968e-05
-0.0015188861 0.00026291294 3.413606e-06 0.00080303056 0.00073450874 7.682309e-05 -0.0006589821 0.0016031014

bias f4 [30]
00000000: 95a3 a6ba 7a1d 693a 4834 8cba 86a9 ac37
00000010: 1436 58b6 64db 16b5 54ca bdba a5a9 b138
00000020: df93 6b3a e832 90b7 6e5f 50b7 7020 38ba
00000030: 3d3d bbb8 47d6 cfba 7354 92ba 500d 0ab7
00000040: faa0 fab8 01cf abba 7e9a 1139 d5c4 5938
00000050: d176 17b9 98f2 4cb9 455b 2335 51d4 23b9
00000060: f6df 2639 a739 f739 d531 d1b9 b7ac 57ba
00000070: 3438 2738 f688 9eb7
-0.0012713546 0.0008892637 -0.0010696733 2.0582938e-05 -3.2217986e-06 -5.619861e-07 -0.0014479854 8.4716165e-05
0.0008986573 -1.7189843e-05 -1.2419985e-05 -0.00070238765 -8.9282614e-05 -0.0015856706 -0.0011164084 -8.2285405e-06
-0.00011950913 -0.0013107957 0.0001388583 5.1920146e-05 -0.00014444745 -0.00019545329 6.0855047e-07 -0.00015623985
0.00015914426 0.00047154466 -0.00039900714 -0.00082273356 3.9868246e-05 -1.8898845e-05

weight f4 [10, 30]
00000000: 4ec8 cbb8 6d64 5eb8 0694 333a c296 50b7
00000010: 2834 63ba 8cb7 4fb7 76c5 d2ba 1e54 90ba
00000020: 0b3e bb3a 667d 66b7 7fee 763a 79ee 2d3b
00000030: 4e1e 73ba 2000 5f36 6400 ad38 a901 723a
00000040: e6d5 68ba 0f13 a9b8 e8e3 3438 1da4 1a3a
00000050: a182 2438 9739 5ab8 d908 8f38 89bf 5638
00000060: bfc4 6539 af25 1c36 bdd5 933a 827f 31b7
00000070: 3d9e a637 0b01 1e3a be53 3a37 0dd3 9836
00000080: 9b43 cc38 1358 f7b9 c404 9839 c789 d1ba
00000090: ba6f 89ba 2b21 5739 8569 123a a860 7038
000000a0: ab14 ed38 0d42 a83a 1909 24b9 a8d6 b3ba
000000b0: 32de f038 8ce0 2e39 7ad4 9a36 fbff 9dba
000000c0: fee6 9a38 0994 7637 f24f 7237 91a9 05ba
000000d0: 18f9 c83a a6a0 c3b9 9cc6 b7b6 a270 5cba
000000e0: 791d 21b8 8cca 4539 0a07 c73a 5863 8c3a
000000f0: c36c 003a 6da3 e139 bbf6 d33a 1b34 4eb8
00000100: cfe3 413b f9be ba3a b54b 593a 82d1 753a
00000110: e750 17b9 ca85 d4ba 0460 bfb9 61fc 9e3a
00000120: edf7 8a37 52d8 66ba 4359 d5b7 cc62 a639
00000130: 211e 713a 2896 6bb4 67d5 193a a4e9 5437
00000140: 63a2 c23a 6048 1837 f8bb e438 7856 0eba
00000150: 347a df3a bb2f 3fba 71ed 533a 2a17 1dba
00000160: 3e20 a23a 617e c93a 5e23 18bb 7cbf 7139
00000170: e899 61b9 1217 74b7 30ee ce3a 0f87 1239
00000180: 3d80 ae37 8730 35ba fdcd 87b7 5829 1539
00000190: 535c 21ba 9b52 aeb9 1f7a 71b7 2e38 73ba
000001a0: cc94 3e3a 5690 55b9 89bf 0fbb 2561 1e39
000001b0: c5fc 81ba af39 caba ba18 84b8 0f51 95b7
000001c0: 0e46 d538 ad08 1539 b706 6db9 5e46 60ba
000001d0: d4f7 f0b9 3588 d33a 4884 6f39 800c a431
000001e0: 8ff3 bfb7 36ee d838 aee0 2bb8 39f9 61ba
000001f0: 13e6 d1b8 7417 6139 1676 4237 8b37 d938
00000200: fe11 9737 2708 5d3a d300 e1b9 8353 b2ba
00000210: 09ba f0b7 ef6a 48ba 80ed b339 b957 0d36
00000220: 702f 1536 bf03 f138 0ab4 88b8 df82 17b9
00000230: c5dd 72b6 6793 44b9 e03a a438 f187 583a
00000240: f6a6 8d3a d48a 6ab9 db58 93b7 7b09 4139
00000250: a58b d4ba 09a1 af38 02db 5e39 f7e5 fcba
00000260: 1cce 17ba 0cce d43a 7875 6539 9574 8c39
00000270: d4dd 73ba 0373 dab9 25fa d33a 62ba b6ba
00000280: 5662 bd3a 3b96 4ab8 0bc2 493a 0d8c 75b7
00000290: f419 18ba 55bc 683a d093 55ba 95cf 17b9
000002a0: fef8 423a f89d c53a 53e3 37b9 affb 4838
000002b0: 7c68 95b7 da3b ccba fe97 ffb6 5261 d536
000002c0: 2c74 0e39 d93a 673a 5644 a4b8 bef1 f039
000002d0: cfec 6cba 845e 43ba db59 1a3a 7888 a7ba
000002e0: 805c bab8 3533 22ba 2e89 803a 13d3 6eb9
000002f0: 464c 5dba 9e6b fcb9 0156 243a e75b 12bb
00000300: 36a7 63b8 b270 a9b8 e9a0 803a afad 0f39
00000310: c95c 30b8 43ff 783a 114b 3a3a a458 4a3a
00000320: 0aa2 9d3a 6b36 76b7 1f5c 9db8 1c4b bb35
00000330: 2820 6ab9 53e6 62b9 a16e fdba 895e 9039
00000340: 11e6 c2b9 76bc 6036 a282 1cba cfaa 73ba
00000350: db43 69ba e0df 26b7 d05b b137 c11b 7dba
00000360: dbed a5b9 203d cf3a 0b5f cfba 1d61 7337
00000370: 0f43 3939 cbfa 57b8 c293 6cba a2e7 8bb8
00000380: 1f43 05ba 2e53 e2b9 103d cb3a 55ee 5cb7
00000390: c5e9 62ba fe16 24b7 d8ea 10b7 54ac dbb7
000003a0: ff45 6d37 9ef0 a93a 14d6 3a39 64ca 5bb9
000003b0: 9fab ff39 b5f1 98ba efd1 5d38 1943 3839
000003c0: b275 b83a 3fb5 10bb 072c 47b8 d643 58ba
000003d0: 7b8f ab38 b328 a339 4795 293a 9445 5e3a
000003e0: 2c2f 5ab9 d382 713a fadc 0539 e370 2139
000003f0: ae2b 1539 ed36 b9ba f71a 1bb8 664c 2439
-9.717104e-05 -5.3022453e-05 0.00068503653 -1.2432867e-05 -0.00086671347 -1.2380897e-05 -0.0016080576 -0.0011011397
0.0014285458 -1.3738265e-05 0.0009419694 0.0026539846 -0.000927423 3.3229662e-06 8.2493556e-05 0.0009231815
-0.0008881971 -8.062098e-05 4.31276e-05 0.00058990886 3.9222305e-05 -5.2028885e-05 6.8204194e-05 5.1199957e-05
0.00021912435 2.3267746e-06 0.0011278909 -1.057971e-05 1.9862428e-05 0.0006027377 1.1105962e-05 4.5545225e-06
9.7400705e-05 -0.00047177132 0.0002899525 -0.0015986495 -0.0010485568 0.00020516354 0.00055851816 5.7310477e-05
0.0001130489 0.0012837067 -0.00015643648 -0.0013720589 0.00011485479 0.00016677583 4.614293e-06 -0.0012054438
7.386318e-05 1.469721e-05 1.4442938e-05 -0.0005098815 0.0015333025 -0.0003731299 -5.476946e-06 -0.00084091176
-3.841284e-05 0.00018862839 0.0015184593 0.0010710759 0.0004899019 0.00043037106 0.0016171554 -4.9162754e-05
0.0029585247 0.0014247588 0.00082891743 0.00093772274 -0.0001443062 -0.0016214189 -0.00036501896 0.0012129658
1.6566331e-05 -0.0008806038 -2.5433144e-05 0.00031735597 0.000919791 -2.1940707e-07 0.0005868286 1.2690583e-05
0.001484942 9.076757e-06 0.00010906899 -0.0005429755 0.0017049969 -0.0007293184 0.0008084393 -0.00059925264
0.0012369228 0.0015372747 -0.002321444 0.00023054885 -0.00021515007 -1.4548905e-05 0.0015787538 0.00013973958
2.0802132e-05 -0.0006911833 -1.6189175e-05 0.00014225149 -0.000615542 -0.00033249412 -1.4393153e-05 -0.0009278086
0.0007270097 -0.00020367032 -0.0021934232 0.00015104243 -0.000991725 -0.0015428568 -6.298856e-05 -1.779993e-05
0.0001016968 0.0001421298 -0.00022604583 -0.00085554074 -0.00045961014 0.0016138615 0.00022842095 4.7744493e-09
-2.288239e-05 0.00010344053 -4.0978826e-05 -0.0008620206 -0.00010008751 0.00021466409 1.1590795e-05 0.00010357712
1.8008981e-05 0.0008431696 -0.00042915958 -0.0013605211 -2.8696859e-05 -0.0007645329 0.00034318492 2.1061699e-06
2.2230342e-06 0.00011492473 -6.51852e-05 -0.00014449235 -3.6189897e-06 -0.00018746928 7.831096e-05 0.0008260003
0.0010807205 -0.00022367697 -1.7565142e-05 0.00018409446 -0.0016215934 8.3746454e-05 0.00021253157 -0.0019294609
-0.00057909056 0.0016235723 0.00021882902 0.0002678974 -0.00093027693 -0.0004166589 0.0016172571 -0.0013941044
0.0014448862 -4.8300466e-05 0.0007696456 -1.4635746e-05 -0.0005802207 0.00088781613 -0.0008147331 -0.00014477813
0.00074376154 0.0015076986 -0.00017536925 4.7918114e-05 -1.7810838e-05 -0.0015581802 -7.6172864e-06 6.3592242e-06
0.00013585453 0.00088207197 -7.832858e-05 0.0004595648 -0.0009037973 -0.00074527436 0.00058880233 -0.001278176
-8.8864006e-05 -0.000618744 0.0009806508 -0.0002277608 -0.00084418466 -0.00048145367 0.0006268919 -0.002233261
-5.4276745e-05 -8.079539e-05 0.000981358 0.00013702245 -4.2048083e-05 0.0009498486 0.00071065227 0.0007718897
0.0012026441 -1.4675413e-05 -7.503502e-05 1.3954445e-06 -0.00022327958 -0.00021638842 -0.0019335338 0.00027536254
-0.00037173976 3.34883e-06 -0.00059703935 -0.0009295167 -0.0008898356 -9.946496e-06 2.1142798e-05 -0.000965532
-0.0003164847 0.0015811063 -0.0015821172 1.450654e-05 0.00017667956 -5.1493564e-05 -0.0009024703 -6.6711815e-05
-0.0005083549 -0.00043168053 0.0015505869 -1.3168513e-05 -0.000865605 -9.780515e-06 -8.637748e-06 -2.6187081e-05
1.4142598e-05 0.0012965386 0.00017818093 -0.00020960864 0.00048765258 -0.0011668714 5.2886022e-05 0.00017572603
0.0014073162 -0.0022080687 -4.74863e-05 -0.00082498544 8.180641e-05 0.00031120106 0.00064690824 0.0008478996
-0.00020807673 0.0009212915 0.00012766189 0.0001539621 0.00014226019 -0.0014130749 -3.6979993e-05 0.0001566872

bias f4 [10]
00000000: 7e12 7ab9 061d 8f35 f883 d43a 5e74 28ba
00000010: 8cea 6fb9 ca7d d238 ada6 4cb9 12f1 f1b8
00000020: e585 733a a51c 9ab8
-0.00023848747 1.0662777e-06 0.0016213646 -0.00064260315 -0.00022880192 0.0001003701 -0.00019517048 -0.00011536678
0.0009289666 -7.348628e-05

weight f4 [4, 10]
00000000: 66ec 36b7 acbf a2ba 2b47 ef36 cfa6 65bd
00000010: 9d0f c33a 7bc8 bfbc f5c7 1abb 3e18 9eb7
00000020: 5580 29bd c04d 8937 b558 1abd bdc5 0f39
00000030: 9b49 143c 2d6a 3abc e531 59bd de03 26bd
00000040: fb49 17bd e08a d934 ae1f 3e3a fee1 c23c
00000050: f9e8 7339 6634 3eb7 b4a8 d0ba a254 5538
00000060: c378 faba e486 5fb8 9632 4836 cb2b 163d
00000070: cb66 95b6 f700 0cbd e487 bd3a d2e7 0b36
00000080: 4d57 c53a 8661 55b9 f8e0 14b9 4d10 fc39
00000090: 881e 0339 52d7 0f3a f7a7 00bd 50e3 7dba
-1.0903086e-05 -0.0012416742 7.13104e-06 -0.056067284 0.0014881972 -0.023411026 -0.0023617719 -1.8846356e-05
-0.041382153 1.6367878e-05 -0.037682254 0.00013711206 0.009050752 -0.011377853 -0.0530261 -0.04053103
-0.036935788 4.0520445e-07 0.00072526454 0.023789402 0.00023261075 -1.13370825e-05 -0.0015919418 5.0861978e-05
-0.0019109476 -5.329297e-05 2.9831767e-06 0.036662858 -4.4525127e-06 -0.034180608 0.0014460054 2.0847551e-06
0.0015055925 -0.00020349593 -0.00014198187 0.0004807733 0.00012504507 0.00054871023 -0.031410184 -0.0009685056

bias f4 [4]
00000000: e416 7d36 5cd8 bdba df23 42b8 43b9 43ba
3.7713262e-06 -0.0014484036 -4.6286612e-05 -0.0007466266
