ncf_model.pth (torch, 59795 bytes, 9 tensors)

user_embedding.weight f4 [1, 50]
000000 7b 96 aa 3f bf d0 9d bf 13 04 c5 3e 78 c4 a4 3b
       1.3327173 -1.2329329 0.3847967 0.0050283037
000010 bf 81 0e 3e 38 02 6b bf 72 1b bc be bd 71 96 3f
       0.13916682 -0.9180026 -0.3673969 1.175346
000020 c6 3f 33 3e 85 89 23 bf 00 a8 aa bf a3 55 b7 bf
       0.17504796 -0.63881713 -1.333252 -1.4323009
000030 ec 14 02 3b 61 d0 9f 3f 54 72 ca bf 50 07 4f bf
       0.0019848896 1.2485467 -1.581614 -0.80870533
000040 06 c0 23 bf b2 3a 3b 3f 61 f6 04 3f f9 95 48 bf
       -0.6396488 0.73136437 0.51938444 -0.7835384
000050 f6 d2 2d bf 35 e0 be 3d 1e 77 ce 3f 7b 18 ab 3f
       -0.67900026 0.09320108 1.6130102 1.3366846
000060 d8 39 ac 3f 88 c9 3d 3e 77 38 d0 3e f0 de a0 3e
       1.3455153 0.1853391 0.4066808 0.31420088
000070 20 74 6a 3f de 02 72 bf 3d 9e 3b 3f 2e f9 9b bf
       0.9158344 -0.94535625 0.7328833 -1.2185419
000080 20 cb 09 bf 05 d4 5c 3f 6d f8 ad bf 36 36 91 3f
       -0.5382557 0.86261016 -1.3591439 1.1344669
000090 6f 79 d3 bf 4c 44 16 c0 b5 ba 6d 3f f6 98 ed 3e
       -1.6521434 -2.3479185 0.9286302 0.46405762
0000a0 e5 c0 06 bf 33 ef 47 bf 81 24 05 be 87 97 0d bf
       -0.52638084 -0.78099364 -0.13002206 -0.5530934
0000b0 6b f1 5b bd cf ce 8a be 05 bd cc 3c 4e f4 b1 bd
       -0.05369703 -0.27110907 0.024992475 -0.086891755
0000c0 8e 8d 8d bf a8 63 d3 3e
       -1.1058824 0.4128697

item_embedding.weight f4 [6, 50]
000000 c0 57 63 3e 2c 70 e1 3d 5a c8 34 3e b5 e6 82 bf
       0.22201443 0.11007723 0.17654553 -1.0226656
000010 c0 3b 4a 3f fd 14 4d 3f 11 7f e8 3f b8 bf 14 be
       0.7899742 0.8011015 1.8163778 -0.1452626
000020 d9 19 94 bd 6a 48 43 bf 5b da 5d 3f 36 c9 40 bc
       -0.072314925 -0.7628237 0.8666131 -0.011766722
000030 11 71 7c be 4d 5e df 3e 8b 04 a9 bf 03 73 53 bf
       -0.24652506 0.43626633 -1.3204511 -0.8259737
000040 cb 25 9c 3e 9e a1 1b 40 20 ac 0a be 2e 24 5f bf
       0.30497584 2.4317393 -0.13542223 -0.8716458
000050 e1 a0 93 3f 6b a1 dd bd 51 2c 2b 3f a1 26 74 3f
       1.1533471 -0.10821804 0.66864496 0.95371443
000060 e4 f8 a5 3e 7f 8f 45 bf ac a2 b6 3f 75 83 69 bf
       0.3241645 -0.7717208 1.4268394 -0.9121621
000070 b9 1b 58 bf db dd d4 be e6 79 91 bf 31 41 ac 3f
       -0.844173 -0.41575512 -1.1365325 1.3457395
000080 1d 0c 19 3e 12 47 72 3f 3d 9c 38 40 1c 45 6a 3e
       0.14946027 0.94639695 2.884536 0.22877926
000090 a6 4a bc bf f3 32 83 3f 8e 9d e0 3f 93 bf c9 3f
       -1.4710281 1.0249923 1.7548082 1.5761589
0000a0 cd 9d 81 bf 3b cf 1f 3f ea 07 fe 3e b2 30 27 c0
       -1.0126282 0.62425584 0.49615413 -2.6123471
0000b0 71 82 25 be 18 d3 32 bf ce 88 89 3e 9f 2c 63 3f
       -0.1616304 -0.69853354 0.26862186 0.8873996
0000c0 b2 f8 08 bf 99 e9 93 bf f8 50 d2 bd ce 20 7e be
       -0.5350448 -1.1555663 -0.1026935 -0.24817201
0000d0 97 d8 95 bf 26 30 2f 3f cb 68 83 3f a9 99 a8 bd
       -1.1706723 0.68432844 1.0266355 -0.08232433
0000e0 e9 67 61 3f 42 7a ad be a0 30 ce 3f 71 a8 58 bf
       0.8804918 -0.33882338 1.6108589 -0.8463202
0000f0 f5 de f8 bf 55 a4 df 3e 87 f3 a9 bc ad 05 02 be
       -1.9443041 0.43680063 -0.020746006 -0.12697478
000100 6f d9 8c be d1 da 86 3f 27 a3 8c 3e 04 70 e1 be
       -0.2750964 1.0535527 0.27468225 -0.44030774
000110 7a 12 7c 3f b1 05 b0 3f bd b7 b7 bf aa 95 ad bf
       0.98465693 1.3751737 -1.4352947 -1.3561299
000120 d4 73 86 3e 50 d9 8a be 2e c5 d5 3d 36 42 bc be
       0.26260245 -0.2711892 0.10438 -0.36769265
000130 d8 87 7a 3f ec 0f 36 bb fb c7 cc 3d 78 b9 c2 3e
       0.9786353 -0.0027780486 0.09999081 0.38032126
000140 14 dd ee 3e ed 47 b8 be a6 05 12 be b1 62 5d 3f
       0.46653044 -0.35992375 -0.14259967 0.86478716
000150 18 3a 75 bf 88 06 78 bf b1 77 5c 3f a1 da 0e 3f
       -0.9579177 -0.96884966 0.86120135 0.5580235
000160 67 fa 8c 3f 47 9a 90 3e 4f 1e bb 3f 03 68 d6 bf
       1.1013917 0.28242704 1.4618624 -1.6750492
000170 db e8 4f 3e 33 f8 12 40 94 77 9b 3f 84 8a 66 3f
       0.20303671 2.2963989 1.2145867 0.9005511
000180 da 44 bd 3f 77 14 cb bf 02 2b 20 bf da 48 03 c0
       1.4786637 -1.586562 -0.62565625 -2.0513215
000190 06 10 c0 3e ba 79 09 bf 3a ab 28 3f 49 f0 34 bf
       0.37512225 -0.53701365 0.6588627 -0.70679146
0001a0 57 ae 2e 40 5e 42 eb 3e 53 98 35 bf 64 5f 38 bf
       2.7293909 0.45949072 -0.70935553 -0.72020555
0001b0 61 fb 86 bf 58 32 31 3f 0e 87 c7 3e a5 04 36 3f
       -1.0545465 0.69217443 0.38970226 0.71100837
0001c0 eb 62 d4 be db 1d 18 bd 77 2c 7d 3f 6e ab 87 bf
       -0.41481718 -0.037137847 0.9889597 -1.0599191
0001d0 5c 9d 8d bf 64 75 0a 3f 6b cc 72 bf d4 8d 76 bd
       -1.1063647 0.54085374 -0.9484317 -0.06019385
0001e0 7e 36 8b 3f f9 a7 14 3f 77 4c e9 3e f8 7a 70 bf
       1.0876005 0.58068806 0.4556615 -0.93937635
0001f0 2e 95 ce 3f 39 50 ac bd 01 3b be 3e 9f a4 d2 3f
       1.6139276 -0.08413739 0.3715439 1.6456488
000200 8a d5 bb 3f 47 68 f9 be 1e 11 00 be 10 86 72 be
       1.4674542 -0.4871237 -0.1250653 -0.23683953
000210 b5 d6 c4 bd 07 95 24 3f a4 17 90 be 4d 83 d4 bf
       -0.096112646 0.642899 -0.28143036 -1.660257
000220 2a 4e fe be ed 68 d9 3d 0d 0e d3 3e 8c 5a 41 3e
       -0.4966901 0.10615716 0.41221657 0.18882197
000230 b5 35 dc 3f 14 5f 6d 3e 98 14 a9 3f a4 63 0f bf
       1.720389 0.231808 1.320941 -0.56011415
000240 98 45 ad bb 29 c8 58 3f b6 76 29 c0 58 b7 6b bd
       -0.0052878372 0.8468042 -2.6478705 -0.057547897
000250 07 0d e2 be 02 22 5e 3e 6e a9 9f 3f a4 86 06 3f
       -0.44150564 0.2169266 1.2473581 0.52549195
000260 eb 3c 59 bf e0 b7 96 bf 1b f7 7c be cd 0d 32 3e
       -0.8485858 -1.1774864 -0.24703638 0.17388077
000270 8b 9f ed bf c1 66 6f 3f 30 2f 92 bf bf 7f 64 3f
       -1.8564314 0.93516165 -1.142065 0.89257425
000280 e1 ce 64 3f d0 1d 53 3f b8 21 e1 3f 2d c0 4d bf
       0.8937817 0.82467365 1.7588415 -0.8037136
000290 55 1a 81 3d d3 74 42 be 39 b1 4a 3e 9f 95 f0 3f
       0.063038506 -0.18989877 0.19794168 1.8795661
0002a0 28 36 20 3f 9a 84 33 40 d8 69 bc bf 89 30 33 3e
       0.62582636 2.8049684 -1.4719801 0.17498983
0002b0 8d 2e 10 c0 66 17 c3 3e 69 96 71 bf 76 70 44 bf
       -2.2528412 0.3810379 -0.9437013 -0.767341
0002c0 ec 5f c3 bf 19 49 8f 3d 1e f3 3c bf 63 b1 3d be
       -1.5263648 0.06996364 -0.7380847 -0.18524699
0002d0 27 b5 bc 3f 1e e0 ae 3e 02 88 db bf 21 d0 d9 3f
       1.4742783 0.34155363 -1.7150881 1.7016641
0002e0 11 c4 54 3e 82 42 ac 3e 27 bb 86 3f 77 4f 43 3e
       0.20777918 0.3364449 1.0525864 0.19073282
0002f0 9b af c1 bf 26 7b d8 3c 13 9a 3f bf fe d0 16 3e
       -1.5131716 0.02642591 -0.74844474 0.14728162
000300 d8 37 b1 be da 8a 1e bd 44 32 6f bf f5 74 19 3f
       -0.34612918 -0.038706638 -0.93436074 0.5994409
000310 43 a4 9c 3f 73 ef 53 bf 22 78 bd bf 8f a0 21 3f
       1.2237629 -0.82787246 -1.4802287 0.6313562
000320 4b d7 5e 3d 29 1b 08 3f fc fe c6 3f 2b 39 bb 3f
       0.054404538 0.53166443 1.5546565 1.4626821
000330 64 97 51 bf 8d 1a 9b be a0 bd 37 bf ad 3d 44 bf
       -0.8187163 -0.30293694 -0.7177372 -0.7665661
000340 ff 83 29 bf c5 a9 fe 3e 66 83 5f 3e ed 65 7c be
       -0.66217035 0.497389 0.21827468 -0.24648257
000350 2f 65 54 be 30 e5 f3 bf 6e fd c7 3f f2 19 5f be
       -0.20741723 -1.9054317 1.5624216 -0.21787241
000360 08 6f c4 be 2a dd 9e bf e3 30 33 3f 04 2a c6 bf
       -0.3836596 -1.2411244 0.6999647 -1.5481572
000370 78 c6 c7 bc 37 f1 31 3e 97 03 b7 3f 89 27 80 bf
       -0.02438663 0.17377172 1.429797 -1.0012065
000380 21 fb 9d bf c5 d3 94 3f c0 bb 9c be 20 8d ca 3e
       -1.2342263 1.1627127 -0.30611992 0.39560795
000390 f3 9e 16 3f 33 b0 ae 3e 2b 72 f6 3f a3 04 4f 3f
       0.5883629 0.34118804 1.9253591 0.8086645
0003a0 66 a1 34 be a4 d3 22 bf 11 15 96 bf 3b 92 ae be
       -0.17639694 -0.6360419 -1.1725179 -0.3409594
0003b0 33 93 c7 bd a4 99 e5 be a8 f0 7b bf 5d 0d e0 bf
       -0.09744873 -0.4484378 -0.9841409 -1.7504078
0003c0 b5 6e a0 bf 3d 25 1b c0 c4 4f ab bf 9f 21 21 3f
       -1.2533785 -2.4241478 -1.3383718 0.62941927
0003d0 b1 7e a2 bf a0 ff e2 3e bf 9a 72 3b a8 5d 12 bf
       -1.2694913 0.4433565 0.0037018505 -0.5717416
0003e0 11 c9 ec bf 64 03 59 bf 3b bd b5 3e 01 80 d3 3f
       -1.8498861 -0.847708 0.35495934 1.6523439
0003f0 6b f6 b1 3e 95 8b ab 3e 0c 82 d3 be 6a d3 51 3f
       0.34758314 0.3350493 -0.41310155 0.8196322

fc_layers.0.weight f4 [128, 100]
000000 e8 c3 0e 3c e9 7c 34 bb a4 ee 2b bd db 59 2b 3d
       0.0087137 -0.0027540273 -0.041975632 0.04183374
000010 cf d5 06 bd 2e 54 8f 3c 5d 84 36 3d c2 52 92 bb
       -0.032918748 0.017496195 0.044559825 -0.004465432
000020 fa 7c 9a 3d 08 17 41 bd 76 32 a3 bd 75 65 dd ba
       0.07543369 -0.047141105 -0.07968609 -0.0016891198
000030 33 36 af 3c 3f 41 7c bb d9 fa a1 3c f9 e6 10 3d
       0.021388149 -0.0038491038 0.019772934 0.035376523
000040 7c 44 79 3c 25 af 06 3d d8 a4 1c bc e0 36 b4 bc
       0.015214082 0.032881875 -0.009560786 -0.021998823
000050 bd d0 96 bd b4 1e 77 bd 2c 2b 8d 3d 56 9b 8b 3d
       -0.073640324 -0.060332015 0.06893 0.06816737
000060 71 50 39 3d f9 e3 16 3d 4c ac fb 39 fc 95 a2 bc
       0.04524273 0.036838505 0.00048002822 -0.019846909
000070 97 43 5f 3c d4 79 fc 3c 34 8e 9e 3d 2a 01 12 3b
       0.0136269545 0.03081981 0.07741967 0.0022278526
000080 44 c0 04 3d ee 93 7a 3d 4b e1 18 bd 31 94 73 3d
       0.03240992 0.061176233 -0.03732423 0.0594675
000090 b2 8f 51 3d cc 0c 46 3d 3a 5d 86 bd 6a 9c 87 3d
       0.05116243 0.048352048 -0.0656075 0.066216305
0000a0 eb a5 a2 bd 5a 9e 31 bb 73 e5 3b 3d 35 32 02 bc
       -0.079418026 -0.0027102442 0.045873117 -0.007946541
0000b0 d5 39 88 3b f4 7f 67 bd 15 86 40 3d 0c 7b 5e 38
       0.0041572847 -0.05651851 0.04700287 5.304352e-05
0000c0 81 bd 09 39 ee d5 b5 bc 4c 03 bf 3c 2f 75 a6 bd
       0.00013135934 -0.022196736 0.023317002 -0.0812782
0000d0 6e 57 6b bd 3d d2 d1 bd 58 2c 48 3d 42 8e 2c 3d
       -0.057456426 -0.10245178 0.048870414 0.042127855
0000e0 44 0e 88 3d f7 88 d2 3d b3 e4 77 bd 87 33 65 3c
       0.06643346 0.1028003 -0.06052084 0.013989336
0000f0 39 d1 98 bd aa be a7 3d c0 0f 7d bd f2 0c 6b 3d
       -0.07461781 0.08190663 -0.0617826 0.057385392
000100 ae 82 88 3d d2 cd 18 bd ba 85 e8 bb 48 a5 34 3d
       0.0666555 -0.03730566 -0.0070960196 0.044102937
000110 90 f1 e6 3c 84 49 79 bd 0d f9 6c bb 14 41 86 3d
       0.028191358 -0.060861126 -0.0036159188 0.065553814
000120 6f b6 b2 bd e1 6f 81 bd 20 5e 6c bc 20 38 89 3d
       -0.08726203 -0.06320167 -0.014426738 0.06700158
000130 1d 5a d2 bd 46 89 2c 3c 18 9f 8c bd d1 16 5a 3d
       -0.10271094 0.010530775 -0.06866282 0.053244416
000140 1d 84 c5 3d 42 5e bf 3d c1 61 8d 3d 42 6e 1d 3d
       0.09644339 0.0934415 0.06903411 0.03843523
000150 cc 0c c2 3d 31 14 a3 bd 03 c0 3a bd 92 8c b2 3d
       0.09475097 -0.079628356 -0.045593273 0.08718218
000160 35 f6 87 bd 1a de f7 bb 3d ae b6 bd ce 7a a8 3d
       -0.06638757 -0.0075643184 -0.08919952 0.08226548
000170 7f 08 ac 3d 58 8e 9e 3d e1 33 dd 3c 77 00 63 3d
       0.08400058 0.07741994 0.027002277 0.055420365
000180 96 3c 86 bd af 73 82 3d d0 94 16 3c 2c 6d a7 bd
       -0.065545246 0.06369721 0.009190753 -0.0817512
000190 f1 0c 80 bd 77 9e 80 3d 2f 93 9f bd 6a 80 9d bd
       -0.062524684 0.06280225 -0.07791745 -0.07690509
0001a0 36 db ce 3c af f8 84 3c f6 2a a1 3d 50 14 b5 3c
       0.025251012 0.016231863 0.07869522 0.022104412
0001b0 de 1b 83 3c 9b eb b3 3c 7c 91 62 3d 77 de 42 bd
       0.016004499 0.021962931 0.055314526 -0.04757544
0001c0 3b e5 42 3c b0 09 91 bd d9 6e 01 bd 89 83 34 3d
       0.011895473 -0.07081926 -0.031599853 0.044070754
0001d0 01 57 98 bd 81 5c 8c 3d e7 34 8a 3d 9d 5b f5 3a
       -0.0743847 0.06853581 0.067483716 0.001871932
0001e0 d5 4f e9 3c cc 03 05 3d 74 90 75 bd c9 e3 f1 bc
       0.02848045 0.032474324 -0.059952214 -0.029527562
0001f0 cb 62 78 ba fa fd 3b ba 95 f8 88 bd a3 e0 91 bd
       -0.00094751705 -0.00071713293 -0.06688038 -0.07122924
000200 22 76 36 3d ba 2c 50 bd 3e 13 7b 3d 4b ae a0 bc
       0.044546254 -0.050823905 0.061297648 -0.01961436
000210 09 42 98 3c c6 f9 77 3c 4a bf f0 3a 61 e5 96 3d
       0.018586176 0.015135234 0.0018367555 0.07367969
000220 83 d2 00 3b 1e de 8d ba b6 d7 76 bc 55 17 9d bc
       0.0019656725 -0.0010823642 -0.015066078 -0.019176165
000230 a4 77 ef bc 16 68 1b bd 8a cd ac bc 85 b7 05 bd
       -0.029231854 -0.03794106 -0.021094102 -0.03264572
000240 ee 47 6f ba af 2a ab bc 47 a5 3c bd 24 86 2d 3d
       -0.0009127845 -0.020894377 -0.04605606 0.042364255
000250 57 d4 31 3b 39 73 2e 3b a9 32 25 3d 2c e1 a9 bd
       0.002713462 0.002661897 0.040331516 -0.08294901
000260 61 31 8c 3d d6 99 b1 bd 0a 31 75 3d df 96 96 bd
       0.06845356 -0.0867192 0.05986122 -0.07352995
000270 25 63 47 bd 48 e8 d9 bb 56 00 54 3b 1d 19 c0 bd
       -0.048678536 -0.0066500045 0.0032348833 -0.0937979
000280 7b 58 9b bd df 91 30 3d 20 6f 67 bd 01 30 83 bd
       -0.07585236 0.043107864 -0.05650246 -0.064056404
000290 da 5a 61 3d cb cd 8e bd d0 32 95 3d 74 ec 09 bd
       0.055018283 -0.06972846 0.07285082 -0.033672765
0002a0 ca 1b 32 3d b5 a2 3e bd 01 3a e3 3d 56 c4 a0 bb
       0.043483533 -0.04654189 0.11095048 -0.0049062176
0002b0 99 c3 8e 3d d1 6e b8 bb 2e a7 0a bd 26 4e ab bc
       0.06970901 -0.0056284447 -0.03385084 -0.020911288
0002c0 d3 ea 9c 3d 53 41 54 3d 53 c6 43 3d c3 20 8c bd
       0.07661977 0.05182011 0.04779656 -0.06842186
0002d0 37 a8 94 3d 94 d3 a9 bc a3 fa 47 bd d1 c6 75 bd
       0.07258647 -0.020730771 -0.04882301 -0.06000406
0002e0 5b 0b f1 3c 74 b4 5f 3d 87 72 a1 3d 22 6f b2 3d
       0.02942436 0.054615453 0.078831725 0.08712603
0002f0 f3 29 da bc 44 df a5 3c a8 1d a3 bd aa 79 0f 3d
       -0.026631331 0.020248063 -0.07964641 0.035028137
000300 62 c7 71 3d 64 a6 91 bd af 12 60 bd 6f df 82 bd
       0.059028037 -0.071118146 -0.054705318 -0.06390273
000310 b1 06 39 3a 2b 30 35 bd 91 80 9b 3a d4 23 fe bc
       0.0007058187 -0.04423539 0.0011863877 -0.031022944
000320 22 7d 11 3d cb 33 8f 3d 37 26 3b 3c b0 e2 f9 bc
       0.035519727 0.069923006 0.011422685 -0.0305036
000330 9c 3a 9c bc dc 98 cf bc c5 8c 1c 3d ca 08 81 bb
       -0.019070916 -0.025341444 0.038220186 -0.0039378153
000340 7a 6c 9d bd a9 d8 4d ba 31 31 b3 3a 70 8b 17 3b
       -0.07686706 -0.0007852414 0.0013671276 0.0023123883
000350 56 fb 2f 3d 43 3a 6c 3d 27 73 00 3d 43 9d a9 bb
       0.042964302 0.05767275 0.031359818 -0.0051762178
000360 04 38 96 3d 87 69 7f 3c f4 1b 4c 3d 98 db 58 3d
       0.07334903 0.0155891245 0.049831346 0.052943796
000370 2c f7 09 bd 00 49 66 bb 4a a4 09 3c 69 23 7d bd
       -0.033682987 -0.0035138726 0.008400986 -0.061801348
000380 e5 b8 7a ba d7 1a d7 3c 9d 37 88 bd bb f4 b0 bc
       -0.00095642946 0.026257915 -0.066512324 -0.021601072
000390 a6 6e 83 bb 9e 5b 57 bd a1 34 8b bd 3a 80 ed bc
       -0.004010993 -0.052577607 -0.067971475 -0.028991807
0003a0 10 54 8d 39 3d c2 9d 3c 4c dd 33 3b 52 c6 85 bd
       0.00026956247 0.01925766 0.0027445136 -0.06531967
0003b0 ca e8 c3 3b cc 1c 92 bd 59 de 58 3d d3 51 f1 ba
       0.0059786784 -0.07134399 0.052946422 -0.0018411226
0003c0 18 da ec bc 69 e4 3f bd 29 9a 00 3d a9 cf e2 bc
       -0.028912589 -0.04684869 0.03139702 -0.02768691
0003d0 c2 2b 25 3d 39 b6 88 3b de d1 a2 bd 83 dd 23 bd
       0.040324934 0.0041721133 -0.07950185 -0.040006172
0003e0 3f 29 1d 3d 1e d1 30 bd d5 9e 48 bd 7c a0 41 3d
       0.038369413 -0.04316818 -0.0489796 0.04727219
0003f0 6b e1 8f 3d 15 7f 60 3d f3 8a 8b bd 62 22 aa bd
       0.07025417 0.054808695 -0.06813612 -0.08307339

fc_layers.0.bias f4 [128]
000000 a3 1b 86 bd bf 11 8a 3d e6 2c 6a bd f9 07 58 3d
       -0.0654824 0.06741666 -0.057171725 0.05274198
000010 0b aa da bb bd 77 4d bd ce 4c f4 3a 46 07 61 bd
       -0.0066731027 -0.05016302 0.0018638612 -0.054938577
000020 6e 32 94 b9 b4 de 41 bd c5 74 32 bd 8b 86 66 3d
       -0.00028266333 -0.047331527 -0.04356839 0.056280654
000030 a9 69 a0 3d 50 bf 13 3d 56 f4 89 3d 17 fd 73 bd
       0.07832653 0.03607112 0.067360565 -0.059567537
000040 ab d5 81 bd 3d ec 08 3d 97 b2 ad 3b 86 b3 1f bb
       -0.06339582 0.03342842 0.0053008306 -0.002436848
000050 9b 3c 72 3d c8 3e ed bc e3 e3 27 3c 93 7a 8c bd
       0.05913983 -0.0289606 0.0102472035 -0.06859317
000060 0d e4 20 3b 2b 4a 88 bd fe fb 97 bd 0e 34 80 bd
       0.0024549991 -0.066547714 -0.074211106 -0.06259929
000070 bb f2 45 bd d8 f2 6d 3c c5 28 78 bd 87 e2 97 bd
       -0.04832719 0.0145232305 -0.060585756 -0.074162535
000080 c0 10 87 3d d8 6b 9d 3d 67 38 f7 39 67 5f 59 bd
       0.06594992 0.07686585 0.00047153534 -0.0530695
000090 a6 43 17 3d 4c 76 00 3b d2 0c 77 bb 69 24 ec 3c
       0.03692975 0.001960176 -0.003769685 0.028825955
0000a0 53 31 f8 bb de 38 41 3d 2e 84 20 3b 6e 88 16 bd
       -0.0075742393 0.047173373 0.0024492848 -0.036751203
0000b0 41 d9 3a 3d 81 6c 78 bc 1b 5e 40 3d 66 21 1a 3d
       0.045617346 -0.015162588 0.046964746 0.037629507
0000c0 8d 6c 34 bd ab b9 22 bd a1 28 fe bc f8 9b 17 bd
       -0.044048835 -0.039727848 -0.031025233 -0.037013978
0000d0 d0 57 a1 bd 73 ec 68 3c 68 70 46 3d 5c 90 84 3d
       -0.07878077 0.01421653 0.048447043 0.06472847
0000e0 86 b7 e8 3b 03 ec 1c 3b 87 d6 37 3c e0 49 e5 bc
       0.007101956 0.0023944385 0.011220581 -0.027989328
0000f0 7d eb 09 3d be 24 2f bd c6 3a 27 bd 89 75 4b ba
       0.033671845 -0.04275965 -0.040827535 -0.00077613496
000100 b5 6f 33 3d 94 dc 55 3d 10 a0 06 bd 23 ae ae bc
       0.043807704 0.052212313 -0.03286749 -0.02132327
000110 0c 34 dd 3c 5d cf 92 bd 22 bc 89 bd 16 01 05 bb
       0.027002357 -0.07168458 -0.067253366 -0.0020294837
000120 79 58 2d bb 9a 90 97 3d 0e 4b 06 3d 87 8a 5e 3d
       -0.002645044 0.074006274 0.03278642 0.05433133
000130 8c e9 33 3a 7e 82 25 bc b4 82 50 bc 4b 1a 77 bd
       0.00068631093 -0.010101913 -0.012726475 -0.06032781
000140 30 5c da 39 b6 07 0d 3a 82 4d 74 3a 1b 4b 75 bb
       0.00041648885 0.0005379872 0.0009319411 -0.00374288
000150 28 9f 4a 3d 96 b1 9b 3d 6b f6 32 bb 4d 71 d9 3c
       0.04946819 0.07602231 -0.002730752 0.026543284
000160 34 ac 19 3b 9b f4 0c bd a5 f6 94 bd 3c 72 ce 39
       0.0023448588 -0.03441296 -0.07273606 0.00039376493
000170 ef dc b4 3c 60 43 97 bd de 9f 70 3d 42 6e 9d bd
       0.022078006 -0.07385898 0.05874621 -0.07687046
000180 8d 8f af 3c ed cf 2d bb 1c 79 06 3d dc 96 42 3d
       0.021430755 -0.0026521639 0.032830343 0.047507152
000190 9b 05 0c bd 21 5f 5d 3d 29 ca 4f bd a3 1d 7c 3c
       -0.034185033 0.0540458 -0.050729904 0.015387925
0001a0 00 ae 9c 3d 81 7c 7a bc dd 78 5d bd a5 8f 85 3d
       0.07650375 -0.015288473 -0.054070342 0.06521539
0001b0 9c f0 8d 3d 76 6e 59 bd 4b 19 8b 3d 21 c5 d1 3b
       0.06930658 -0.05308386 0.067919336 0.0064016734
0001c0 6e c3 6a bd 19 8d 2b bd d5 29 26 3b a9 e8 34 3b
       -0.057315283 -0.041882608 0.0025354524 0.0027604497
0001d0 60 8a 00 3b bf e3 33 39 41 74 2a bd 31 60 ad 3c
       0.0019613728 0.00017155612 -0.041614775 0.021164032
0001e0 d5 ea 07 3d 7c 6b e4 bc fd bd ff 3c de 74 f7 3a
       0.033182938 -0.027883284 0.031218523 0.0018879434
0001f0 08 e0 9f 3d d0 14 9f 3d da 7c 95 3d 69 76 9c 3d
       0.078064024 0.077676415 0.07299204 0.076397724

fc_layers.1.weight f4 [128]
000000 1e 44 82 3f 9a 57 82 3f 3b 8f 7b 3f c3 da 7b 3f
       1.0177038 1.0182984 0.9826543 0.9838068
000010 e9 a6 7b 3f aa c9 7b 3f 55 21 7c 3f 48 87 7b 3f
       0.9830156 0.9835459 0.9848836 0.982533
000020 05 bf 7c 3f 55 a5 7b 3f 22 aa 7b 3f ec dd 7b 3f
       0.9872897 0.9829915 0.9830648 0.983855
000030 58 50 82 3f 9f 7b 7b 3f 2b 66 82 3f 89 0a 7c 3f
       1.0180769 0.98235506 1.0187429 0.98453575
000040 d9 be 81 3f e3 75 82 3f 80 70 7b 3f 3a 40 82 3f
       1.0136367 1.0192226 0.98218536 1.017585
000050 cf e3 7b 3f f0 ae 7b 3f 36 49 82 3f c4 a7 7b 3f
       0.98394483 0.9831381 1.0178592 0.98302865
000060 22 83 7b 3f 87 e4 7b 3f 0b 4c 82 3f 94 56 7b 3f
       0.9824697 0.9839558 1.0179456 0.9817898
000070 4d 56 82 3f 35 d7 7b 3f 63 f3 81 3f 4b d8 7b 3f
       1.0182587 0.98375255 1.0152401 0.9837691
000080 08 67 82 3f 6c 5f 82 3f c5 35 82 3f b8 72 7b 3f
       1.0187693 1.018537 1.0172659 0.9822192
000090 69 9b 7b 3f 73 b5 7b 3f 9f ab 7b 3f 45 5f 82 3f
       0.9828401 0.98323745 0.9830875 1.0185324
0000a0 ec 73 82 3f 61 7b 7b 3f 2c 52 82 3f 68 7d 7b 3f
       1.0191627 0.98235136 1.0181327 0.9823823
0000b0 af 54 82 3f 84 39 82 3f 4e c1 7b 3f 2e a1 7b 3f
       1.0182093 1.0173802 0.98341835 0.98292816
0000c0 7d 2c 82 3f ff 65 7c 3f 4b 52 82 3f 2c 67 82 3f
       1.0169827 0.98593134 1.0181364 1.0187736
0000d0 26 2d 82 3f ba 48 82 3f c8 4f 81 3f 31 b6 7b 3f
       1.0170028 1.0178444 1.0102472 0.9832488
0000e0 b0 a0 7b 3f 75 7b 7b 3f f7 94 7b 3f 9f ff 7b 3f
       0.98292065 0.98235255 0.9827418 0.9843692
0000f0 e6 6a 7b 3f 87 19 82 3f 62 f7 7b 3f ed 23 7f 3f
       0.9820999 1.016404 0.9842435 0.99664193
000100 56 c3 7b 3f f5 67 82 3f 9c 5a 82 3f 86 45 82 3f
       0.98344934 1.0187975 1.0183902 1.0177467
000110 08 a9 7b 3f e2 a0 7b 3f f3 63 7c 3f 17 83 7b 3f
       0.98304796 0.9829236 0.9859001 0.982469
000120 61 b0 7b 3f a5 a5 7b 3f 9e 2d 82 3f d2 71 82 3f
       0.9831601 0.9829963 1.0170171 1.0190985
000130 60 8a 7b 3f 6d f6 81 3f d4 aa 7b 3f 4c 76 7b 3f
       0.9825802 1.0153328 0.9830754 0.9822738
000140 a6 c5 7b 3f 51 2e 82 3f 1a 42 82 3f fd 5b 82 3f
       0.9834846 1.0170385 1.0176423 1.0184323
000150 10 61 7d 3f b6 9c 7b 3f 9d 46 82 3f 7d 2c 82 3f
       0.9897623 0.98285997 1.01778 1.0169827
000160 6c 18 82 3f a0 93 7b 3f b8 a7 7b 3f ec 43 82 3f
       1.0163703 0.9827213 0.98302794 1.0176978
000170 68 44 82 3f 2e a9 7b 3f 1f 93 7d 3f c1 21 82 3f
       1.0177126 0.9830502 0.99052614 1.0166551
000180 86 4b 82 3f fa 30 82 3f 5e 8f 7b 3f 1e 7c 7b 3f
       1.0179298 1.0171196 0.98265636 0.9823626
000190 b8 66 82 3f 38 95 7b 3f 9b c8 7b 3f 8d a2 7b 3f
       1.0187597 0.98274565 0.98352975 0.9829491
0001a0 3a 99 7b 3f ae ac 7b 3f a6 5c 82 3f 75 0b 82 3f
       0.9828068 0.98310363 1.0184524 1.0159746
0001b0 0d 61 82 3f 4c 95 7b 3f e6 e0 7b 3f d0 c3 7b 3f
       1.0185868 0.98274684 0.9839004 0.9834566
0001c0 09 67 82 3f cd 8c 7b 3f 80 37 81 3f 85 55 82 3f
       1.0187694 0.9826172 1.0095062 1.0182348
0001d0 05 13 7c 3f ea d5 7b 3f 81 58 82 3f 9e 90 7b 3f
       0.9846652 0.9837328 1.0183259 0.98267543
0001e0 2c 69 82 3f dd c4 7b 3f b9 db 7b 3f 03 26 82 3f
       1.0188346 0.98347265 0.98382145 1.016785
0001f0 54 52 82 3f 06 af 7c 3f 36 69 7b 3f 6d b9 7b 3f
       1.0181375 0.98704565 0.98207414 0.9832981

fc_layers.1.bias f4 [128]
000000 cf 8e 99 3c 17 fb 98 3c 59 b3 90 bc 5c 06 68 bc
       0.018744854 0.018674416 -0.017663645 -0.014161672
000010 60 4f 8b bc 5c 96 86 bc 02 f3 8a bc 4c d7 84 bc
       -0.017005622 -0.016429119 -0.016961578 -0.016215943
000020 30 41 59 b9 72 d2 86 bc fa 36 8b bc 45 a6 90 bc
       -0.00020719017 -0.01645777 -0.016993988 -0.017657408
000030 be f6 99 3c 15 59 84 bc 6a b5 99 3c dc 9b 63 bc
       0.018794414 -0.016155759 0.018763263 -0.01389214
000040 cf b2 90 3c 78 0b 9c 3c 5d ea 80 bc 66 35 96 3c
       0.017663388 0.019048437 -0.015736753 0.01833601
000050 a3 38 90 bc 98 75 93 bc 81 d1 9c 3c 16 d4 8b bc
       -0.017605131 -0.018000409 0.019142868 -0.017068904
000060 68 ba 7c bc 98 ed 82 bc a7 2e 9e 3c 44 a2 94 bc
       -0.015425302 -0.015982434 0.019309355 -0.01814378
000070 58 e9 99 3c 1e 70 5c bc de 57 8a 3c 59 11 72 bc
       0.018788025 -0.013454465 0.016887601 -0.014774644
000080 25 94 97 3c 5f db 97 3c 67 5b 8f 3c b9 f2 91 bc
       0.018503258 0.018537221 0.017499639 -0.017815934
000090 70 9a 93 bc 7a 09 78 bc 9d ce 83 bc 3a d4 95 3c
       -0.018017977 -0.015138978 -0.016089732 0.018289674
0000a0 01 04 99 3c fc 07 9b bc 7e bd 91 3c f5 d6 96 bc
       0.018678667 -0.018924706 0.017790552 -0.018413046
0000b0 f9 fe 98 3c c1 46 91 3c 31 94 8a bc 26 1c 87 bc
       0.018676268 0.017733933 -0.016916366 -0.016492914
0000c0 02 4d 97 3c 3b 90 79 bc b1 58 9a 3c d8 38 93 3c
       0.018469337 -0.015232141 0.01884112 0.017971441
0000d0 72 d3 92 3c f3 36 93 3c 18 fb 99 3c 44 2d 8d bc
       0.01792309 0.017970538 0.018796489 -0.017233498
0000e0 3d e8 89 bc df 88 8d bc 38 d0 8c bc 42 de 45 bc
       -0.016834373 -0.01727718 -0.01718913 -0.012076916
0000f0 08 6d 91 bc 41 7c 8e 3c 0d e7 38 bc ec 01 7c 3c
       -0.017752185 0.017393233 -0.011285556 0.015381318
000100 63 7c 87 bc 5b f0 95 3c 6c 96 9c 3c b3 29 97 3c
       -0.016538804 0.018303087 0.019114695 0.0184525
000110 b8 11 71 bc fe a3 82 bc 94 0c b2 bb 18 4f 90 bc
       -0.014713697 -0.015947338 -0.0054336283 -0.01761584
000120 b2 47 81 bc 63 25 91 bc 21 20 95 3c e1 02 9d 3c
       -0.015781257 -0.017718023 0.018203797 0.019166412
000130 dc ef 8e bc a7 9f 99 3c 6b f7 8a bc 19 65 7d bc
       -0.017448358 0.018752886 -0.016963681 -0.015465998
000140 93 c8 5d bc e0 39 92 3c 3f 22 8f 3c 3c a4 97 3c
       -0.01353659 0.017849863 0.017472384 0.01851093
000150 7c dc 1c 3c ba 80 77 bc ed ed 96 3c 1d e7 91 3c
       0.009574052 -0.015106374 0.018423999 0.017810399
000160 0d e5 92 3c 5e 39 85 bc e3 de 66 bc 70 16 96 3c
       0.017931486 -0.016262706 -0.014091226 0.018321246
000170 c2 74 8d 3c da 2f 90 bc 0d fc c9 3b a8 f9 89 3c
       0.017267589 -0.017600942 0.00616408 0.016842678
000180 3d 3f 96 3c f1 d1 92 3c 8c c7 7c bc 29 06 95 bc
       0.018340701 0.017922373 -0.015428435 -0.018191414
000190 c0 b0 a3 3c 74 5c 88 bc a0 0f 83 bc 13 e0 8f bc
       0.019981742 -0.016645648 -0.015998662 -0.017562902
0001a0 44 36 8c bc 46 66 91 bc b1 f2 9d 3c 78 12 8b 3c
       -0.01711572 -0.017748963 0.019280763 0.01697658
0001b0 d5 a8 94 3c 8b d8 94 bc 0e 8f 88 bc a7 09 7b bc
       0.018146912 -0.018169662 -0.016669776 -0.0153221255
0001c0 54 e2 9e 3c 0e b4 8f bc 57 9c a2 3c a1 fe 9d 3c
       0.019395031 -0.017541911 0.01984994 0.019286456
0001d0 f9 3b 5d bc e6 bc 90 bc ba 3b 98 3c f6 29 8f bc
       -0.013503068 -0.017668199 0.018583167 -0.017476063
0001e0 14 fa 97 3c 45 22 8c bc 9e 4f 84 bc e2 38 90 3c
       0.018551864 -0.017106185 -0.016151246 0.017605249
0001f0 19 96 9b 3c 70 bd f8 b8 a9 bd 8b bc a5 5d 84 bc
       0.01899247 -0.00011860847 -0.01705821 -0.016157934

fc_layers.1.running_mean f4 [128]
000000 e1 e5 ad 3e 51 44 52 3d d0 7c c4 3d 05 28 ac be
       0.33964446 0.051334683 0.095941186 -0.33624282
000010 7c 69 ab 3e cb ed 08 bf 03 3b 13 bd 84 b1 6b be
       0.33478916 -0.53487843 -0.03594495 -0.23016936
000020 b7 67 cb be 13 76 b5 bd 5f 7d 0a bf 0e d5 0d 3f
       -0.39727566 -0.088604115 -0.5409755 0.5540322
000030 78 21 4c 3e 53 61 d8 3e dd d7 e4 bd 91 64 b8 3d
       0.19934642 0.42261752 -0.11173985 0.090035565
000040 4f 07 fe 3d d0 bf d2 bd 13 cb cc bd 55 1c 23 3e
       0.12403738 -0.102904916 -0.09999671 0.15928777
000050 4a 06 92 3e 08 14 55 3e 15 64 d5 3e 53 39 b1 bd
       0.28520423 0.20808423 0.4167792 -0.08653512
000060 56 d5 09 bf 23 29 0e bf af 15 df be 03 b3 84 be
       -0.5384115 -0.5553152 -0.4357123 -0.25917825
000070 25 e8 81 3a 18 b5 8b be e9 77 36 bf 69 1b 62 be
       0.0009911103 -0.272866 -0.7127672 -0.22080769
000080 63 43 98 be c2 ef 8f 3e df 82 ad 3e 31 9b 3a 3e
       -0.29738912 0.28112608 0.3388891 0.18223263
000090 e5 c1 b6 3e a1 18 20 be 88 9a ed bd 9c 59 0a 3e
       0.35694805 -0.15634395 -0.1160174 0.13510746
0000a0 41 22 25 be 40 5e 15 3c 62 bf 0f be 44 0c bf be
       -0.16126348 0.009116709 -0.1403785 -0.37314045
0000b0 86 4b 10 3e 70 df 9f 3e 9c f0 af 3d c4 63 55 3f
       0.1409131 0.31225157 0.085908145 0.83355355
0000c0 b5 bf 29 3e 4e b8 bf bd 6b b9 f5 3e 20 4d 90 be
       0.16577037 -0.09361325 0.47993025 -0.28183842
0000d0 c8 05 82 be ba 68 25 bf bd 3b f8 3e eb b2 bf 3d
       -0.25395036 -0.64612925 0.48483077 0.09360298
0000e0 db a1 01 3f 5f e0 fe 3e 66 6a 99 3e 3d fa 7c bc
       0.50637597 0.49780557 0.29963988 -0.015440521
0000f0 96 06 2f bf 05 ba 67 3e ea 91 9b bd dd 97 cd bd
       -0.68369424 0.22629555 -0.0759619 -0.10038731
000100 26 c8 06 bf 8e 89 0b bf 0f 24 86 bd 13 36 99 3e
       -0.5264915 -0.54506767 -0.065498464 0.29924068
000110 c2 c8 e0 bd 33 26 18 3e 03 ee 67 bd 5c 9e d7 be
       -0.109757915 0.14858322 -0.05662347 -0.42113006
000120 c4 3f d4 3e ac 41 21 bb 3d 39 8a be a4 e0 22 3e
       0.414549 -0.0024605794 -0.26996794 0.15906006
000130 f5 9e 27 be e2 60 2b bf 7e 90 08 bf d7 8c d5 be
       -0.16369231 -0.66944706 -0.5334548 -0.41709015
000140 35 da 9e bd 2f 47 67 be 1c 27 e4 bc a7 72 e1 3d
       -0.077564634 -0.22585748 -0.02785068 0.11008196
000150 6c bd 3d bf 4e 6c 11 bf 48 e3 c0 bd ff b9 01 3f
       -0.7411716 -0.56805885 -0.094183505 0.5067443
000160 ae 3a 5c bf 62 7f dd 3e 25 3c d9 be 93 32 12 be
       -0.8602704 0.43261248 -0.424287 -0.14277105
000170 fe d7 bd 3e f0 4f f6 bd 51 3c 6f 3e 8b c7 15 3d
       0.3707885 -0.120269656 0.23362853 0.036567252
000180 93 c5 89 3e 51 5b 0e bd ba 73 e1 be 73 57 94 bd
       0.2690855 -0.034755055 -0.44033605 -0.07243242
000190 17 33 c2 3e bc 45 29 3e 1d 3c cb 3e cf f6 43 be
       0.37929603 0.16530508 0.396943 -0.19137119
0001a0 26 e6 e8 be f7 b9 0f bf 84 81 0b 3e e8 41 ca 3e
       -0.4548809 -0.56143135 0.13623625 0.39503407
0001b0 bf 74 22 be 76 68 d9 be 67 f2 a5 be 4e 61 ba 3e
       -0.15864848 -0.4246251 -0.324115 0.36402363
0001c0 a3 d1 1a bf ff 0e 3c 3e be b1 9b 3e e8 a6 99 3e
       -0.6047613 0.18365096 0.30409044 0.30010152
0001d0 48 0e 84 bd 17 0a 4d be 64 46 53 3e 92 2a a3 bd
       -0.064480364 -0.2002338 0.2063232 -0.07967104
0001e0 07 d8 40 3e 11 ad d3 bd 83 c8 87 3e 78 35 4d 3e
       0.18832408 -0.10335744 0.26520166 0.20039928
0001f0 e2 c0 1b be 10 6a 89 3e fa 8b ba 3e 83 ae d0 3e
       -0.15210298 0.26838732 0.3643492 0.40758142

fc_layers.1.running_var f4 [128]
000000 a1 9a 77 3e f6 2c 6e 3e 33 28 d0 3e 7b 3b aa 3e
       0.2418008 0.23259339 0.4065567 0.33248505
000010 19 aa 98 3e bf cc 74 3e 98 43 a9 3e 14 04 63 3e
       0.29817274 0.2390623 0.33059382 0.22169524
000020 fe f8 34 3e 30 20 dc 3e d3 f0 48 3e ee 4e 7e 3e
       0.17673108 0.42993307 0.19623117 0.24834797
000030 1d f1 1e 3e e8 58 b7 3e 0f f6 89 3e 10 eb 49 3e
       0.15521665 0.35810018 0.2694554 0.19718575
000040 0e 76 56 3e 68 4d 86 3e aa 52 86 3e fb f0 dd 3e
       0.20943472 0.2623093 0.26234943 0.43347916
000050 fb ba da 3e 1f 59 95 3e b6 ff 85 3e 5f a9 b4 3e
       0.4272078 0.29169556 0.26171654 0.3528547
000060 00 94 8a 3e 9d 06 51 3e e2 cc 8b 3e 2a b2 80 3e
       0.2706604 0.20412679 0.2730475 0.25135928
000070 9a 30 bc 3e 2e bc 7d 3e 52 65 fc 3e c4 46 9a 3e
       0.3675583 0.24778816 0.4929605 0.30132115
000080 39 c6 0d 3e 10 ed 61 3e 25 0c 55 3e ca 63 58 3e
       0.13845147 0.22063088 0.20805414 0.21131817
000090 f7 58 9a 3e 5f c3 8b 3e ed f0 33 3e d3 0f 8c 3e
       0.30146 0.27297494 0.17572375 0.27355823
0000a0 b9 ad 1f 3f 35 ef 5c 3e 51 8a 8a 3e 05 9c 92 3e
       0.62374455 0.21575625 0.27058652 0.28634658
0000b0 ba 49 4c 3e 11 fd 18 3e 66 3c 89 3e 26 8a 59 3e
       0.1995 0.14940287 0.26803893 0.21244106
0000c0 92 8f 59 3e 28 b8 6c 3e 90 99 ea 3e ed 22 4e 3e
       0.21246174 0.23117125 0.45820284 0.2013051
0000d0 65 db 8d 3e 45 3b 2d 3e fc b8 69 3e e8 f7 6b 3e
       0.27706447 0.16917141 0.22824472 0.23043787
0000e0 d2 39 a1 3e 1c a1 d5 3e 7f 9f 7c 3e 7b e8 83 3e
       0.31489426 0.4172448 0.24670218 0.25763306
0000f0 82 de ca 3e a8 c4 c5 3e fd 82 84 3e 91 d3 5d 3e
       0.39622885 0.386266 0.25881186 0.21662737
000100 7c 8b 6e 3e 69 22 1d 3e c8 ee a0 3e b7 23 8a 3e
       0.23295397 0.15345158 0.31432176 0.26980373
000110 c6 26 4b 3e d9 62 90 3e 10 d2 80 3e 6e 5b 4f 3e
       0.1983901 0.28200415 0.25160265 0.20249721
000120 66 95 ca 3e ec f1 8a 3e fa c0 9c 3e 63 0a 67 3e
       0.39567107 0.27137697 0.3061598 0.22562556
000130 cd 91 49 3e 96 7d 36 3e da 4a 8c 3e e3 d9 a9 3e
       0.19684525 0.17821345 0.27400857 0.33174047
000140 39 8e 93 3e 6e 97 67 3e d8 a2 3e 3e 36 01 9c 3e
       0.28819445 0.2261636 0.18616807 0.30469674
000150 1e 79 95 3e d7 b0 7f 3e bf 08 b4 3e ad e1 ee 3e
       0.29193968 0.24969803 0.35162923 0.46656552
000160 b6 15 68 3e 8f 0f b2 3e f8 ab bd 3e 80 60 1d 3e
       0.22664532 0.34777495 0.37045264 0.15368843
000170 5b e3 82 3e 01 c1 87 3e 6f 93 8b 3e 5c 96 73 3e
       0.25564083 0.26514438 0.2726092 0.23787826
000180 17 0e a3 3e f1 7a ed 3e 29 ce 7f 3e 4c e4 74 3e
       0.31846687 0.4638286 0.24980988 0.23915213
000190 7d 68 8c 3e b4 31 97 3e 11 f8 50 3e cd c4 b3 3e
       0.27423468 0.29530108 0.2040713 0.35111085
0001a0 03 a7 50 3e 1b b2 13 3f c8 5d a8 3e 14 85 01 3f
       0.2037621 0.5769364 0.3288405 0.50593686
0001b0 76 27 30 3e cf da 14 3f e1 5a bf 3e 0d 04 91 3e
       0.17202553 0.58146375 0.37374023 0.28323403
0001c0 52 c9 75 3e dc 66 a5 3e 35 41 b6 3e 32 5c cb 3e
       0.24002579 0.32305038 0.35596624 0.39718777
0001d0 13 a4 4d 3e 9d 4f 76 3e 27 89 89 3e c4 20 74 3e
       0.2008212 0.24053808 0.2686245 0.23840624
0001e0 2c cf 87 3e a6 d7 20 3e d6 fc 30 3e ee aa 70 3e
       0.26525247 0.15707263 0.1728395 0.23502705
0001f0 31 31 8e 3e c3 9f 21 3e 83 1f c3 3e d6 75 c2 3e
       0.27771905 0.157836 0.3810998 0.37980527

fc_layers.4.weight f4 [1, 128]
000000 6f 67 19 3d 09 2b 36 3d 3f 5a 42 bd 48 d9 ff bc
       0.037452158 0.044474635 -0.047449347 -0.031231537
000010 92 88 33 bd da 13 6b bc ee 80 58 bd e4 86 af b9
       -0.043831415 -0.014347995 -0.052857332 -0.00033479102
000020 f9 53 4f 3c 37 9c 34 bc 0d 33 56 bd a1 f5 1e bd
       0.012654298 -0.011023573 -0.05229478 -0.03880847
000030 53 a6 00 3d cd 35 15 bd e9 44 0c 3d a0 f8 7e b8
       0.03140862 -0.03642826 0.034245405 -6.078987e-05
000040 4b e3 ea 3c 99 e9 9d 3d 7c fd 47 bc d9 e4 5e 3d
       0.028672835 0.07710571 -0.0122064315 0.054417465
000050 76 e7 4d bd a5 f6 13 bd 84 c2 f7 3c b5 e8 e8 bb
       -0.050269566 -0.03612389 0.03024412 -0.007107819
000060 31 03 a1 bc 85 01 5a bc 43 b8 c3 3c c6 ab 47 bd
       -0.019654842 -0.013306026 0.023891574 -0.0487478
000070 20 af 5b 3d 0f 0b 06 bc 1a 03 89 3d da 1b fc ba
       0.05363381 -0.0081813475 0.06690045 -0.0019234375
000080 75 9d 70 3d 10 d6 5b 3d 3b 95 99 3d 32 c5 3f bd
       0.058743913 0.053670943 0.074991666 -0.04681892
000090 a1 9d 89 bd 4e 4d cc bb aa 3f ca bc 00 58 5c 3d
       -0.067195185 -0.0062348014 -0.02468856 0.05379486
0000a0 70 eb 92 3d a8 cb 39 bd cc ea a5 3d 26 e3 22 bd
       0.071738124 -0.045360237 0.081014246 -0.039767407
0000b0 44 6e 9a 3d 12 dc 8a 3d 8e ad 57 3a cb 8b 5c bd
       0.07540563 0.06780256 0.0008227461 -0.053844254
0000c0 9d ab 3d 3d 55 8c 80 bd ed 77 9b 3d 8a b7 ba 3d
       0.04630624 -0.06276766 0.075912334 0.091170385
0000d0 e7 c4 52 3d 8a e4 9e 3d 5b 7d d1 3c bb 1d 8c bd
       0.051457312 0.07758434 0.02557247 -0.06841608
0000e0 00 87 e2 bb 61 11 8a bd 10 b2 14 bc 4a 16 ad 3b
       -0.006913066 -0.06741596 -0.0090756565 0.005282198
0000f0 b6 35 5e bd ce 70 5b 3d f3 8f f2 3b 4d 74 87 3c
       -0.05425044 0.053574376 0.007402414 0.016534949
000100 95 24 84 bc d4 7b 9a 3d 3d d8 63 3d 4a 47 cb 3d
       -0.016130725 0.075431496 0.055626143 0.09925707
000110 ad 60 bf bc 0f 3e 03 bd 1d 1a 39 3c fa bc 6b bd
       -0.023361528 -0.032041606 0.01129773 -0.05755327
000120 b1 0e a3 bb a4 e8 4f bd 00 78 ae 3d ca 68 86 3d
       -0.0049761166 -0.050758973 0.08518982 0.06562956
000130 fa 46 85 bd 31 44 1d 3d dc 68 50 bc fb 08 14 bc
       -0.06507678 0.03839511 -0.012720313 -0.009035344
000140 c0 ca 42 bc 78 96 74 3d 8b 16 d4 3d ac 3f b1 3d
       -0.01188916 0.05971381 0.10355862 0.086547226
000150 85 11 75 3c 2a 41 0c 3b 53 2f 6e 3d 23 21 c6 3d
       0.01495779 0.0021401145 0.0581506 0.09674289
000160 1e 23 3f 3d c0 44 4e bd 70 13 49 39 52 71 88 3d
       0.04666435 -0.050358534 0.00019176095 0.06662239
000170 27 db 71 3d b8 96 be bc d9 8e 6f 3c 7b 09 be 3d
       0.05904689 -0.023265228 0.01462146 0.09279152
000180 9f 4c 71 3d d6 b8 cd 3d 66 f6 24 bb 4c e2 2a bd
       0.058910962 0.1004502 -0.002517128 -0.04171972
000190 f1 92 cb 3c a8 14 07 bd 68 fd e9 bb 77 82 88 bd
       0.02485034 -0.032978684 -0.007140804 -0.06665509
0001a0 92 c2 7a bd 1c 15 2b bd 00 0f 4c 3d 01 58 c0 3d
       -0.061220713 -0.04176818 0.049818993 0.093917854
0001b0 cd 82 80 3d e8 aa eb bc f4 b3 55 bd f4 0e cb bc
       0.06274948 -0.028768018 -0.05217357 -0.024787404
0001c0 d4 c7 ca 3c ac 7b 6e bd 32 16 ae 3c 0b d9 f7 3c
       0.024753489 -0.05822341 0.021250818 0.030254861
0001d0 cd 23 2e bd 65 93 90 bd 96 67 26 3d 4e 62 8b bd
       -0.04251461 -0.07059363 0.04062613 -0.068058595
0001e0 c4 a3 d2 3d ce 58 84 bd 55 31 61 bd d7 b8 82 3d
       0.10285142 -0.06462251 -0.054978687 0.06382912
0001f0 ef 41 87 3d 3c 6d 59 3c c2 dd 64 bd 0a 45 0d bc
       0.06604373 0.013270672 -0.055875547 -0.008622417
