ncf_model.pth (torch, 77532 bytes, 5 tensors)

user_embedding.weight f4 [4, 50]
1.3535458 1.9705094 0.5771061 0.23808978 -2.9025881 -0.4797762 -0.23974892 -1.0641664
1.7926252 0.16644292 0.6941962 1.2604564 -0.30976892 0.30550736 -0.36441225 0.43461773
1.6381902 0.6128916 0.41060036 -2.432326 -1.4589447 0.33324113 1.0592213 0.028923467
0.15449043 -1.6375278 -0.25938946 -1.6325594 -0.22944048 -0.31303802 0.12284176 -0.3953486
-0.514848 -1.2348849 0.695067 -0.22160009 1.4505231 -1.6183282 1.2938738 -0.9978162
-0.697655 -0.5691843 0.46015784 0.93824273 0.55003077 -2.2227075 1.2294964 0.6893355
-0.73603004 0.506628 -0.76078385 -0.47755364 -0.43890378 -0.71408916 -0.105054446 0.8574364
-0.7371369 0.7307792 1.715451 -2.559556 0.8501193 0.36904284 0.56825686 -1.3096136
0.512282 -0.39547348 -0.23047403 -0.52463394 -1.8115412 -0.17789012 1.7859658 0.5008119
0.3694223 -0.6054404 0.5266011 -0.9423415 -1.0176022 0.6455321 1.5111692 0.5775593
-0.5568832 0.54463613 0.5059864 0.72542423 -1.7424256 -0.3710697 0.13874638 0.68586576
-0.12255102 2.3089275 0.035371635 1.5319082 -1.0646518 -0.68177587 -2.4830654 1.8193938
-1.7194178 1.810421 -2.5193837 -1.3279022 0.15060982 0.01746739 -0.107379176 1.0368474
-0.70708054 -0.5278071 -0.037861854 -0.60369956 -0.6677679 0.81591743 -1.0609555 0.8235985
-0.35177478 0.3678975 -0.8496778 0.8364736 0.23158975 0.9449232 -0.39753518 0.8363564
1.4008863 -0.7884791 1.4183233 -1.8475497 -0.71556103 -0.87792253 -1.4093354 0.9301238
1.1737795 0.8666398 0.19680777 0.0984008 -1.0596104 -0.04485838 -0.1944973 -0.65428424
-0.14864302 0.40494737 -0.66408294 -1.7435508 0.38521948 0.24302652 0.003966921 -0.2909798
-0.33756974 -0.87098294 0.44999486 0.8492294 -1.011021 0.930919 1.5376874 -0.8320543
-1.7034243 0.75155187 0.36440152 1.1109034 2.0316937 0.36457303 0.2792153 0.844131
0.29062578 1.1422415 -0.21954055 0.681032 -0.7162941 -0.27252683 0.24225053 0.3061919
-0.8031976 -1.4949198 -0.2559288 0.29273093 0.84807366 -1.4470614 1.6035732 -0.13614339
-1.304097 0.91495353 1.8927886 2.0192034 -1.1908326 -0.21787758 0.7968132 0.43510404
0.6345262 -0.81312233 0.68289536 -0.66945666 0.22151683 0.17590906 0.23493873 -0.17060976
0.47792155 0.31992948 0.34834537 0.4310055 0.88411826 0.7482783 -1.058062 0.8337644
00000000: fd40 ad3f a739 fc3f 3abd 133f cfcd 733e
00000010: 01c4 39c0 3aa5 f5be be80 75be 9b36 88bf
00000020: be74 e53f 0370 2a3e d8b6 313f a356 a13f
00000030: 089a 9ebe 766b 9c3e 3e94 babe 3786 de3e
00000040: 37b0 d13f 77e6 1c3f 363a d23e 3bab 1bc0
00000050: b3be babf 959e aa3e 9094 873f e8f0 ec3c
00000060: bd32 1e3e 839a d1bf b2ce 84be b5f7 d0bf
00000070: 72f2 6abe 8546 a0be 7694 fb3d 226b cabe
00000080: 14cd 03bf b510 9ebf e9ef 313f 22eb 62be
00000090: beaa b93f 6125 cfbf a89d a53f e270 7fbf
000000a0: 8599 32bf 10b6 11bf cf99 eb3e ad30 703f
000000b0: d1ce 0c3f d740 0ec0 2360 9d3f 4b78 303f
000000c0: 776c 3cbf 5fb2 013f bbc2 42bf e981 f4be
000000d0: ffb7 e0be 8cce 36bf c926 d7bd f480 5b3f
000000e0: 01b5 3cbf 5814 3b3f e693 db3f c4cf 23c0
000000f0: 6ba1 593f 2ff3 bc3e 4879 113f 6ba1 a7bf
00000100: ea24 033f 807b cabe 6201 6cbe 694e 06bf
00000110: 95e0 e7bf d428 36be 879a e43f 3535 003f
00000120: eb24 bd3e 24fe 1abf 54cf 063f 4b3d 71bf
00000130: ca40 82bf 9741 253f fe6d c13f edda 133f
00000140: e68f 0ebf 466d 0b3f 5388 013f 67b5 393f
00000150: cd07 dfbf d9fc bdbe 8813 0e3e e694 2f3f
00000160: 07fc fabd 78c5 1340 d9e1 103d 9115 c43f
00000170: 8346 88bf dd88 2ebf 8bea 1ec0 e5e1 e83f
00000180: e215 dcbf e0bb e73f 953d 21c0 b3f8 a9bf
00000190: 7639 1a3e c617 8f3c 9de9 dbbd 6ab7 843f
000001a0: 3b03 35bf 5e1e 07bf 0815 1bbd 0e8c 1abf
000001b0: d6f2 2abf f7df 503f 64cd 87bf 5ad7 523f
000001c0: d31b b4be 105d bc3e 7c84 59bf 2223 563f
000001d0: dd25 6d3e 7de6 713f bb89 cbbe 741b 563f
000001e0: 3e50 b33f c4d9 49bf 9e8b b53f 827c ecbf
000001f0: 022f 37bf 88bf 60bf 1a65 b4bf 981c 6e3f
00000200: 683e 963f 1bdc 5d3f fa87 493e 5c86 c93d
00000210: 50a1 87bf 6cbd 37bd 4d2a 47be 2c7f 27bf
00000220: e035 18be 4355 cf3e 5701 2abf ac2c dfbf
00000230: 7d3b c53e f2db 783e f2fc 813b 4efb 94be
00000240: f1d5 acbe bdf8 5ebf ba65 e63e 1967 593f
00000250: 2369 81bf b550 6e3f f1d2 c43f 8301 55bf
00000260: cf09 dabf b465 403f d692 ba3e 1532 8e3f
00000270: 4507 0240 51a9 ba3e 4ff5 8e3e f818 583f
00000280: e7cc 943e f834 923f 3dcf 60be 1d58 2e3f
00000290: 0d5f 37bf a388 8bbe 8610 783e 2fc5 9c3e
000002a0: 5c9e 4dbf 8859 bfbf 1a09 83be d4e0 953e
000002b0: 5b1b 593f 4f39 b9bf e341 cd3f 2c69 0bbe
000002c0: a7ec a6bf 653a 6a3f e646 f23f a13a 0140
000002d0: 346d 98bf 4d1b 5fbe f3fb 4b3f f5c5 de3e
000002e0: 4f70 223f c928 50bf 3bd2 2e3f 8361 2bbf
000002f0: 4fd5 623e 8121 343e c793 703e 53b4 2ebe
00000300: 22b2 f43e cccd a33e 535a b23e c1ac dc3e
00000310: 9355 623f 2b8f 3f3f 936e 87bf 9571 553f

item_embedding.weight f4 [109, 50]
-0.31345034 0.19325694 -0.08481073 -0.1205141 -0.058553543 -1.0086865 -1.1038313 -0.88582927
0.4945001 1.0332726 -0.785609 0.74654716 -0.7801552 0.09909487 -0.5573466 -2.389505
0.1970802 -0.4927705 -2.0133758 0.55709636 1.4352722 1.0928788 1.8823901 1.4057621
-0.1078307 -0.54945284 -0.2692052 -0.6006241 -1.2456838 -0.06270852 -0.45745352 1.7748008
-0.71591324 -2.0248547 0.89330095 -1.3723879 -0.091051534 -0.19752686 0.42197648 -0.3167075
-0.6739944 -0.37425998 -0.75190985 0.3054396 0.16024199 1.0298526 -0.5782341 -1.5190303
0.929253 -0.15321803 0.37522516 -0.79397583 -0.22483067 0.45780036 0.22204883 0.011362149
0.5209316 0.64192027 1.1142327 -0.15469398 -0.33159527 -0.17927596 0.88932616 -0.1651326
-0.69383246 0.14478688 -1.2379915 1.4903418 -1.584046 -1.1198916 1.5353246 1.1553168
-2.582939 -1.1130136 0.48471886 -0.6441608 0.5407355 -0.33150548 0.3808968 -0.20440444
-0.55984354 -0.6325474 -0.12481938 -0.055246208 0.026539445 -0.7835157 -0.05710686 -0.37791723
-0.013020523 1.720808 -0.5124548 -0.7499054 0.826615 -0.05777782 -0.4670977 0.5130763
1.2419927 -0.05564225 -0.018964535 -1.3437136 -0.22564304 1.4490604 -1.3782138 -0.68372643
0.19712262 -1.1766948 -0.6844897 1.7641556 0.5911598 1.165856 -0.12991056 0.33536413
0.2695807 -2.6927881 -0.23326844 -0.77483606 -1.168579 2.0831146 1.0461807 0.22608188
-0.71069413 1.3425494 -1.5560124 1.7841619 0.47961417 -0.1378408 0.092862286 -0.052871794
-0.3642583 -0.66742665 0.30649024 0.38744268 0.06972734 0.47728512 -0.9076764 0.6708423
-0.710505 -0.70567846 -1.0131234 -1.9055489 0.5414413 1.6136161 -0.6937483 0.7307767
-0.59085256 -1.1855735 -0.4570361 -0.9241853 -0.8428708 -1.609269 1.1043189 0.15057093
0.29528806 0.41260985 0.9162528 1.2372183 -0.66505027 -0.3685663 0.32843947 0.42364284
0.18892172 -2.0560036 -0.6727341 -0.19556727 0.25962782 1.1663617 -0.06495741 -0.81869566
-0.4304655 -0.1285906 0.2624872 -1.7949288 -0.5187052 0.6374978 1.2076699 0.28607008
1.0558099 -0.1290735 -0.19206116 -0.9155225 1.2337351 -1.1934625 0.59464806 -0.03459416
1.2461492 -1.2726715 -0.47355592 -1.7390256 -0.5383209 -0.5462926 -1.0641606 -0.20838375
0.30289602 1.0364771 0.8659268 -1.8659248 0.6561734 -0.6539655 0.8094854 -0.13876407
-0.07825957 -0.37876138 1.3761393 1.8656168 0.38958147 -1.5616784 -1.0618 1.009246
0.20648035 -0.25119543 0.49732095 -0.43854734 -2.4877605 -1.8877974 0.32593173 0.054955978
-0.96090233 -0.344233 -0.877169 2.5046859 -0.18734384 0.97653663 -0.55577856 1.0404433
1.2119621 0.6752085 -0.88749003 -1.2315794 0.8834113 0.13946047 0.97997063 -1.2344575
1.2766391 -0.24014589 1.0500244 1.3589965 -1.8019141 0.8953642 1.6025323 0.29787388
-0.25220063 0.39941427 -1.3312495 -0.771689 -0.3348406 1.3682462 1.9474435 -0.08914692
0.587436 -0.30193073 0.076784916 1.1691581 -0.37412256 -0.19518705 -0.34803665 1.6443431
00000000: 907c a0be 26e5 453e 3fb1 adbd 19d0 f6bd
00000010: d7d5 6fbd a41c 81bf 584a 8dbf b5c5 62bf
00000020: 1e2f fd3e 4742 843f ac1d 49bf b71d 3f3f
00000030: 40b8 47bf 40f2 ca3d 44ae 0ebf a6ed 18c0
00000040: 64cf 493e 6a4c fcbe 26db 00c0 de9d 0e3f
00000050: 00b7 b73f 74e3 8b3f 29f2 f03f 03f0 b33f
00000060: 58d6 dcbd f1a8 0cbf 44d5 89be 80c2 19bf
00000070: 9172 9fbf 536d 80bd 5937 eabe ac2c e33f
00000080: 1746 37bf 3897 01c0 5faf 643f 68aa afbf
00000090: 3a79 babd 7b44 4abe 4d0d d83e 7c27 a2be
000000a0: e68a 2cbf 019f bfbe 2a7d 40bf 9462 9c3e
000000b0: 7a16 243e 36d2 833f 2607 14bf 966f c2bf
000000c0: 86e3 6d3f 30e5 1cbe 831d c03e 0042 4bbf
000000d0: 033a 66be cf64 ea3e c560 633e 4f28 3a3c
000000e0: c65b 053f e354 243f 2d9f 8e3f 1968 1ebe
000000f0: dbc6 a9be 1e94 37be e1aa 633f 8518 29be
00000100: 019f 31bf 0343 143e 8176 9ebf 85c3 be3f
00000110: 05c2 cabf 9c58 8fbf 8485 c43f 6ce1 933f
00000120: df4e 25c0 3b77 8ebf 122d f83e b9e7 24bf
00000130: a46d 0a3f 16bb a9be e804 c33e 664f 51be
00000140: e851 0fbf a0ee 21bf 4ea1 ffbd d949 62bd
00000150: 4069 d93c 7c94 48bf e2e8 69bd 5e7e c1be
00000160: 0854 55bc 7043 dc3f 3d30 03bf cdf9 3fbf
00000170: 0a9d 533f 6fa8 6cbd 6e27 efbe f858 033f
00000180: 9ef9 9e3f 21e9 63bd 835b 9bbc cffe abbf
00000190: f80e 67be d07a b93f 4f69 b0bf b208 2fbf
000001a0: 83da 493e ef9d 96bf b83a 2fbf dacf e13f
000001b0: 4056 173f c53a 953f 4607 05be d9b4 ab3e
000001c0: 7b06 8a3e a456 2cc0 ecdd 6ebe a85b 46bf
000001d0: ff93 95bf c051 0540 40e9 853f 0282 673e
000001e0: 0df0 35bf a9d8 ab3f 6a2b c7bf 6b5f e43f
000001f0: fd8f f53e 2426 0dbe 952e be3d 1890 58bd
00000200: 1080 babe 79dc 2abf 4aec 9c3e e35e c63e
00000210: 35cd 8e3d b75e f43e 7b5d 68bf 52bc 2b3f
00000220: a8e3 35bf 58a7 34bf 07ae 81bf 07e9 f3bf
00000230: e69b 0a3f f98a ce3f 7d99 31bf 2f14 3b3f
00000240: 1d42 17bf dfc0 97bf a300 eabe 6897 6cbf
00000250: 61c6 57bf 87fc cdbf 525a 8d3f 442f 1a3e
00000260: ff2f 973e 9941 d33e 8b8f 6a3f 2b5d 9e3f
00000270: bc40 2abf b9b4 bcbe 3829 a83e b7e7 d83e
00000280: b274 413e 9095 03c0 4d38 2cbf c942 48be
00000290: f0ed 843e 574b 953f 6408 85bd 0a96 51bf
000002a0: f965 dcbe 41ad 03be b964 863e 3ac0 e5bf
000002b0: ddc9 04bf 0e33 233f ed94 9a3f c777 923e
000002c0: c724 873f d82b 04be aeab 44be af5f 6abf
000002d0: 08eb 9d3f 61c3 98bf db3a 183f 9bb2 0dbd
000002e0: d181 9f3f e6e6 a2bf ec75 f2be 6498 debf
000002f0: 66cf 09bf d5d9 0bbf 6a36 88bf 8d62 55be
00000300: 3015 9b3e 48ab 843f 61ad 5d3f a0d6 eebf
00000310: fbfa 273f 486a 27bf 6f3a 4f3f 2b18 0ebe
00000320: 8e46 a0bd 03ed c1be 5525 b03f 88cc ee3f
00000330: 3977 c73e 14e5 c7bf 10e9 87bf f92e 813f
00000340: 966f 533e b09c 80be daa0 fe3e 4789 e0be
00000350: 7837 1fc0 58a3 f1bf 86e0 a63e 8519 613d
00000360: b2fd 75bf 4f3f b0be 268e 60bf c64c 2040
00000370: 10d7 3fbe 4efe 793f 8147 0ebf 3f2d 853f
00000380: 9321 9b3f 77da 2c3f 8c32 63bf 65a4 9dbf
00000390: 3e27 623f bace 0e3e 5bdf 7a3f b402 9ebf
000003a0: e968 a33f cee8 75be 3367 863f 99f3 ad3f
000003b0: 1fa5 e6bf 9736 653f c71f cd3f ed82 983e
000003c0: 7120 81be 0780 cc3e 6266 aabf 698d 45bf
000003d0: 3a70 abbe b122 af3f d445 f93f a992 b6bd
000003e0: 3562 163f aa96 9abe 6941 9d3d f9a6 953f
000003f0: fe8c bfbe 1ddf 47be dc31 b2be d679 d23f

fc_layers.0.weight f4 [128, 100]
0.0060352003 0.099631794 0.08059025 -0.02359211 -0.03772652 -0.012637266 0.023108145 -0.034704473
0.004706087 0.037743192 0.057969723 -0.040245764 0.020507751 -0.040915817 -0.025854278 0.055176847
0.09148916 -0.07975486 -0.020604845 -0.051714264 -0.098635174 -0.028734243 0.06307414 0.05871903
-0.07710493 -0.03726349 -0.012953643 0.039118554 0.094623365 -0.06015917 0.05302777 0.07519003
0.021908259 0.07681147 -0.013799779 -0.114026785 0.0060926373 0.05161044 0.08142221 0.0667534
-0.0029990228 0.06051603 0.039575364 -0.04417061 -0.009372925 -0.084136106 0.07060414 0.024214534
-0.051393557 0.07245448 0.07144948 -0.06258375 0.08054194 0.07360489 0.0824293 -0.064131424
-0.017455604 -0.049591187 -0.09712363 0.109569535 -0.010279653 -0.035637368 0.07914428 0.015353097
0.052827604 0.08206295 -0.087668635 -0.011989393 -0.11293259 0.09332534 -0.08247497 -0.02870657
-0.017298356 0.11690805 -0.04960223 0.05856567 0.096469015 -0.05483089 0.045207772 -0.09798624
0.05417645 -0.079764396 0.053984206 0.11173867 -0.030519696 -0.079491444 -0.108489834 0.045450497
0.10578091 -0.07458255 -0.029381398 -0.007928969 -0.03869713 -0.118000194 0.021488905 -0.00300504
-0.006060945 0.00302702 0.07644138 0.03600892 0.02413917 0.0031323005 -0.065963276 0.069162846
-0.07793198 0.069244325 0.10062507 0.04459044 -0.016933478 0.059793778 -0.006598192 -0.035357542
0.10872856 -0.09454578 0.0343525 -0.023185156 0.06534481 0.039482165 0.061449118 -0.037303388
0.037201043 -0.084016144 -0.09682435 -0.018841948 0.063239776 0.020312265 0.010002363 0.056867577
-0.024130609 0.055218693 0.045669064 0.09918639 -0.042853825 -0.040576868 -0.031784028 0.089776486
0.03394369 7.383281e-05 -0.0070864223 0.06808493 0.019629277 -0.06623107 0.08186149 -0.011022614
0.011724604 0.106509656 -0.018951189 0.02606005 0.09718854 -0.065702446 0.048425175 -0.027291639
0.08193162 0.08166545 -0.012635641 0.06068561 0.11487191 0.04763592 -0.041398607 0.06786059
0.030686378 0.04594415 0.089546785 0.022565 0.057666272 0.022678101 0.016160421 -0.04563574
0.07521319 0.0024681496 -0.014904182 0.054229703 0.084673725 0.03629738 0.046537057 0.0657639
0.04829646 -0.07662337 0.05718813 -0.035904974 0.018024078 0.025330624 0.06911687 -0.051055998
-0.036383502 -0.06894675 0.020627405 -0.007426043 0.021906137 0.041947946 -0.111288466 -0.03802349
0.008779495 0.08011044 0.04796056 0.10922712 0.044417545 -0.014332336 -0.070344664 0.07442831
-0.05826136 -0.038804226 -0.06708146 0.01644743 -0.033016015 -0.086257026 -0.06278739 0.07431471
0.018093415 0.047595847 0.015253252 -0.0024245472 0.06928632 -0.03659249 -0.076272845 -0.042479035
-0.02792703 0.07451272 0.056270808 -0.05443033 0.03397863 -0.09043689 0.015354025 0.0020331
-0.063727126 -0.021130657 0.014585942 -0.009925133 -0.08445486 -0.09796263 0.0021700745 -0.08440993
-0.011383936 0.098718755 0.054295994 0.09534423 0.05032256 -0.025391197 0.0074749743 0.00070851034
-0.05541779 -0.02967049 -0.09011736 -0.07901824 -0.059650008 0.03312343 -0.10927819 -0.013494312
0.042882815 0.08327418 0.046370145 -0.0494807 -0.017983366 -0.0023834875 -0.0052238153 -0.0088945925
00000000: eec2 c53b c10b cc3d 800c a53d 3e44 c1bc
00000010: 2087 1abd 890c 4fbc 4b4d bd3c 4726 0ebd
00000020: 8535 9a3b 9b98 1a3d a971 6d3d bed8 24bd
00000030: dfff a73c 5897 27bd 5acc d3bc 1e01 623d
00000040: ab5e bb3d 8456 a3bd 7ecb a8bc 56d2 53bd
00000050: 3d01 cabd 1364 ebbc 042d 813d 5e83 703d
00000060: 31e9 9dbd 9aa1 18bd 843b 54bc c73a 203d
00000070: e5c9 c13d 7669 76bd a633 593d 3bfd 993d
00000080: f378 b33c 554f 9d3d 7818 62bc e086 e9bd
00000090: bfa4 c73b 7865 533d b0c0 a63d 02b6 883d
000000a0: 418b 44bb a8df 773d c719 223d 3eec 34bd
000000b0: e690 19bc 8d4f acbd e798 903d 8f5d c63c
000000c0: 0d82 52bd 0463 943d 1b54 923d e92b 80bd
000000d0: 2cf3 a43d 29be 963d b1d0 a83d 5657 83bd
000000e0: 0eff 8ebc 2120 4bbd c1e8 c6bd fe65 e03d
000000f0: fd6b 28bc 7df8 11bd 6516 a23d 8e8b 7b3c
00000100: c261 583d 9f10 a83d 9d8b b3bd 296f 44bc
00000110: 3449 e7bd 5b21 bf3d a3e8 a8bd 0a2a ebbc
00000120: 48b5 8dbc 7d6d ef3d b52b 4bbd 8ee2 6f3d
00000130: 8c91 c53d 5b96 60bd c92b 393d 03ad c8bd
00000140: 20e8 5d3d 845b a3bd 8b1e 5d3d 3ed7 e43d
00000150: 7104 fabc 69cc a2bd eb2f debd 4d2a 3a3d
00000160: a9a3 d83d bcbe 98bd 42b1 f0bc 82e8 01bc
00000170: e280 1ebd 16aa f1bd 8009 b03c 35f0 44bb
00000180: e49a c6bb f860 463b 4c8d 9c3d 177e 133d
00000190: 82bf c53c 4847 4d3b c117 87bd 40a5 8d3d
000001a0: cd9a 9fbd f8cf 8d3d 8414 ce3d 77a4 363d
000001b0: 14b8 8abc 52ea 743d a535 d8bb 12d3 10bd
000001c0: 14ad de3d 38a1 c1bd 35b5 0c3d ccee bdbc
000001d0: 80d3 853d 0db8 213d 12b2 7b3d 70cb 18bd
000001e0: 1f60 183d a810 acbd d84b c6bd 6e5a 9abc
000001f0: db83 813d e865 a63c f3e0 233c faed 683d
00000200: 8ead c5bc ff2c 623d 7c0f 3b3d 3c22 cb3d
00000210: 7e87 2fbd ee33 26bd f82f 02bd bcdc b73d
00000220: 8a08 0b3d b0d6 9a38 3835 e8bb 1d70 8b3d
00000230: 94cd a03c 28a4 87bd ffa6 a73d 3298 34bc
00000240: 8e18 403c bc21 da3d 863f 9bbc e37b d53c
00000250: c90a c73d 018f 86bd 7a59 463d b792 dfbc
00000260: c4cb a73d 3740 a73d b805 4fbc 7991 783d
00000270: f741 eb3d e21d 433d 9691 29bd 7efa 8a3d
00000280: 0062 fb3c ef2f 3c3d 4e64 b73d 3cda b83c
00000290: 7833 6c3d 6dc7 b93c dc62 843c 8bec 3abd
000002a0: 5f09 9a3d aec0 213b ac30 74bc f71f 5e3d
000002b0: 6b69 ad3d 90ac 143d a49d 3e3d 39af 863d
000002c0: 82d2 453d b7ec 9cbd 1a3e 6a3d 1811 13bd
000002d0: 3ba7 933c 2b82 cf3c 258d 8d3d 1820 51bd
000002e0: de06 15bd f433 8dbd cefa a83c 2a56 f3bb
000002f0: 8074 b33c 9cd1 2b3d 35eb e3bd 85be 1bbd
00000300: dfd7 0f3c f110 a43d 4b72 443d 78b2 df3d
00000310: 2cef 353d 2dd2 6abc dd10 90bd df6d 983d
00000320: 77a3 6ebd 2ef1 1ebd 0162 89bd c3bc 863c
00000330: cd3b 07bd 86a7 b0bd ad96 80bd 5032 983d
00000340: a438 943c ddf3 423d c7e8 793c 27e5 1ebb
00000350: fce5 8d3d 02e2 15bd f034 9cbd 7ffe 2dbd
00000360: 3ac7 e4bc 209a 983d 387c 663d 56f2 5ebd
00000370: 2d2d 0b3d fa36 b9bd 738f 7b3c c23d 053b
00000380: 5e83 82bd 331a adbc e0f9 6e3c 069d 22bc
00000390: abf6 acbd a2a0 c8bd cf37 0e3b 1ddf acbd
000003a0: b083 3abc 0f2d ca3d 7a65 5e3d d643 c33d
000003b0: 071f 4e3d 3301 d0bc a1f0 f43b 53bb 393a
000003c0: c4fd 62bd 870f f3bc 738f b8bd 51d4 a1bd
000003d0: 9153 74bd 6fac 073d 3ecd dfbd 3f17 5dbc
000003e0: e4a5 2f3d a78b aa3d 9fee 3d3d 46ac 4abd
000003f0: da51 93bc 4934 1cbb 8a2c abbb a0ba 11bc

fc_layers.0.bias f4 [128]
0.107034124 0.031423107 -0.07774857 -0.0043218075 0.00018219012 -0.039382365 0.045621272 -0.040057264
0.0047643357 -0.04183001 -0.062849164 0.07047534 -0.0046297177 0.0106382705 -0.06973496 0.023980943
-0.059143063 0.05313517 -0.030238084 -0.027858343 -0.07604719 0.00934724 -0.106034584 0.09097004
0.045577545 -0.07376074 0.040660884 0.04039209 -0.015593385 -0.045350943 0.032143623 -0.06661481
0.01159245 -0.09962364 -0.033346597 -0.014395527 -0.045684423 0.11779347 0.009368027 0.04362889
0.051111393 -0.014977389 0.028602215 -0.06973867 0.115443796 -0.031579345 -0.012422142 0.08961206
-0.05877353 0.036820617 0.08306227 0.071493894 -0.07900272 0.09199787 -0.0741315 -0.00073019526
-0.041349012 -0.0541176 -0.002613982 0.0078282505 0.023921018 -0.030936643 0.049788408 0.06920772
-0.07079378 -0.076975875 0.088183224 -0.07292198 0.028416079 -0.03680438 -0.05465752 0.06421734
0.095760904 -0.08206355 0.11925683 -0.07965552 0.027896052 -0.07008887 0.069254585 0.08316848
0.036785565 -0.0013621114 0.068128616 -0.01776709 0.100781046 0.027074322 -0.05486231 0.0440949
0.041886836 0.003007515 -0.0667943 -0.008848656 0.006926167 -0.07802637 0.118647404 -0.0598555
-0.02760611 0.046833213 -0.10306084 0.029274596 0.016054448 0.02269575 -0.044652306 0.11267237
0.05727491 0.074919485 0.0838214 -0.0034243693 0.02546918 0.04829649 0.029350819 -0.0119721955
0.059409168 0.08463608 0.0069320803 -0.002672219 0.026695332 -0.05326054 -0.01006759 -0.04948338
0.020692706 -0.049348213 -0.040461425 -0.05793884 0.07444124 0.08236017 0.059729546 -0.044578146
00000000: b534 db3d 84b5 003d a43a 9fbd f39d 8dbb
00000010: 4a0a 3f39 674f 21bd 5fdd 3a3d 1613 24bd
00000020: 251e 9c3b f255 2bbd 10b7 80bd 6055 903d
00000030: e3b4 97bb 244c 2e3c 34d1 8ebd af73 c43c
00000040: ff3f 72bd 44a4 593d dcb5 f7bc 2e37 e4bc
00000050: a1be 9bbd 2b25 193c a928 d9bd 804e ba3d
00000060: 85af 3a3d df0f 97bd 078c 263d 2d72 253d
00000070: 667b 7fbc e9c1 39bd 08a9 033d 586d 88bd
00000080: 42ee 3d3c 7b07 ccbd 7196 08bd 37db 6bbc
00000090: 971f 3bbd b43d f13d 5a7c 193c 35b4 323d
000000a0: 2e5a 513d b963 75bc 314f ea3c 26d3 8ebd
000000b0: cc6d ec3d 5859 01bd 3d86 4bbc 8786 b73d
000000c0: 83bc 70bd 37d1 163d 8d1c aa3d 646b 923d
000000d0: 2ecc a1bd 6169 bc3d 42d2 97bd 936a 3fba
000000e0: 955d 29bd 6baa 5dbd 574f 2bbb 1042 003c
000000f0: 03f6 c33c d86e fdbc eeee 4b3d c7bc 8d3d
00000100: 54fc 90bd 87a5 9dbd 6899 b43d 1e58 95bd
00000110: d6c8 e83c 31c0 16bd 90e0 5fbd 6184 833d
00000120: 4b1e c43d ef10 a8bd ed3c f43d 6f22 a3bd
00000130: 4386 e43c c18a 8fbd 59d5 8d3d 3c54 aa3d
00000140: 76ac 163d e088 b2ba 0487 8b3d 4a8c 91bc
00000150: 4b66 ce3d f8ca dd3c 4db7 60bd db9c 343d
00000160: 8891 2b3d bb19 453b 73cb 88bd f4f9 10bc
00000170: e6f4 e23b 4acc 9fbd 69fd f23d 0a2b 75bd
00000180: 3526 e2bc 2fd4 3f3d 9011 d3bd 47d1 ef3c
00000190: 9e84 833c 70ec b93c 56e5 36bd c6c0 e63d
000001a0: 1999 6a3d 636f 993d 8eaa ab3d 626b 60bb
000001b0: bea4 d03c 8ad2 453d 2171 f03c 0727 44bc
000001c0: 0757 733d ae55 ad3d 8126 e33b 6520 2fbb
000001d0: 2bb0 da3c b927 5abd 88f2 24bc 16af 4abd
000001e0: c083 a93c 5a21 4abd e1ba 25bd 4751 6dbd
000001f0: a674 983d 73ac a83d f8a6 743d 9397 36bd

fc_layers.2.weight f4 [1, 128]
0.06693405 -0.03464035 -0.025651349 -0.06814353 -0.002986814 0.034898724 -0.04125846 -0.026147969
0.07658942 -0.07028552 0.012583276 0.050875768 -0.070317894 0.022182554 -0.030857954 0.04396357
0.09600589 -0.07249628 0.016287446 -0.028192267 -0.03434084 0.011129375 -0.0041429675 0.08854421
0.04985871 -0.010952693 -0.0694457 -0.033612307 0.080437385 0.06305892 -0.055538394 -0.046122327
-0.029020904 -0.030159304 -0.048746042 0.04716146 -0.04696329 0.06605459 -0.027200826 -0.055177785
-0.072700225 0.008505177 0.0010604437 0.08109221 0.03931451 0.024451096 0.07294725 0.020624878
0.07693552 -0.040353097 -0.03161713 0.10112704 -0.003146277 0.04827371 0.015703302 0.09382311
-0.04190159 0.03654507 0.07780298 -0.008832555 0.05297717 0.017654387 -0.067711085 -0.0112182535
-0.039201833 0.06555917 0.008274804 -0.04870408 -0.038868625 0.06997764 -0.022994746 -0.019118708
0.090331905 -0.07200784 0.096481726 0.094976746 0.05185695 0.056870498 -0.0011839941 -0.0012750761
0.0591679 0.084265426 0.10766532 -0.021816498 0.03314202 0.09312628 -0.006754059 -0.033860646
0.018627236 -0.029528286 -0.06305433 0.04799241 0.009888489 -0.047007147 0.066164464 -0.059928704
-0.033016622 8.161063e-05 -0.0067598512 -0.011835546 -0.06618114 0.06611623 0.08120718 0.07176715
0.093514286 0.047392208 0.08006468 -0.019748295 -0.05563038 -0.035964373 -0.011667506 -0.070305355
0.08505152 0.036396045 -0.02889755 0.008297594 -0.02793218 -0.034450732 0.056005497 0.074607305
0.073695295 -0.039539047 0.006645003 0.023679527 0.025377514 0.0054873424 0.025351608 0.08977984
00000000: b814 893d 0ae3 0dbd c722 d2bc d68e 8bbd
00000010: 6cbe 43bb f7f1 0e3d a2fe 28bd 4434 d6bc
00000020: eada 9c3d dbf1 8fbd 162a 4e3c 1c63 503d
00000030: d402 90bd 30b8 b53c d2c9 fcbc 2513 343d
00000040: bc9e c43d ee78 94bd 406d 853c 78f3 e6bc
00000050: fba8 0cbd fb57 363c bbc1 87bb ab56 b53d
00000060: a638 4c3d ed72 33bc 8c39 8ebd 0fad 09bd
00000070: 5bbc a43d 0925 813d 3a7c 63bd c4ea 3cbd
00000080: 3fbd edbc a510 f7bc eea9 47bd 602c 413d
00000090: 945c 40bd a147 873d 44d4 debc 1a02 62bd
000000a0: dbe3 94bd 4c59 0b3c 96fe 8a3a ac13 a63d
000000b0: 4008 213d aa4d c83c 5e65 953d 81f5 a83c
000000c0: 5f90 9d3d 4a49 25bd f780 01bd b21b cf3d
000000d0: c531 4ebb a7ba 453d 36a4 803c 5526 c03d
000000e0: 00a1 2bbd 49b0 153d 2b57 9f3d 6cb6 10bc
000000f0: 97fe 583d ef9f 903c 1cac 8abd c4cc 37bc
00000100: 1a92 20bd e343 863d 0b93 073c ee7d 47bd
00000110: b534 1fbd 7050 8f3d 7a5f bcbc d69e 9cbc
00000120: efff b83d d978 93bd 3698 c53d 2b83 c23d
00000130: f467 543d 0af1 683d 4030 9bba 7420 a7ba
00000140: 0a5a 723d 5a93 ac3d a37f dc3d 83b8 b2bc
00000150: edbf 073d feb8 be3d 2751 ddbb 76b1 0abd
00000160: 2598 983c 4ee5 f1bc a122 81bd b093 443d
00000170: 5403 223c 918a 40bd 3c81 873d cd77 75bd
00000180: 703c 07bd 6026 ab38 be81 ddbb e1e9 41bc
00000190: fa89 87bd f267 873d f34f a63d a8fa 923d
000001a0: 6b84 bf3d 551e 423d f3f8 a33d 2dc7 a1bc
000001b0: aedc 63bd 614f 13bd 1129 3fbc 41fc 8fbd
000001c0: 7e2f ae3d 0514 153d 8eba ecbc a2f2 073c
000001d0: 07d2 e4bc 361c 0dbd 0566 653d b7cb 983d
000001e0: 8fed 963d b2f3 21bd 53be d93b 91fb c13c
000001f0: 81e4 cf3c 2acf b33b 2dae cf3c 7ede b73d
