ncf_model.pth (torch, 55580 bytes, 5 tensors)

user_embedding.weight f4 [1, 50]
00000000: fa8f 423f 1f89 1c3f a2a7 893f 5b62 a2bf
00000010: add4 6bbe e730 99bf 658e 9d3f 0a88 5b3f
00000020: 0085 bd3e 5a7c 883f cbe7 80be eaa3 b2bf
00000030: 1423 1fbf 0f62 83bf a809 69bf c22c e73f
00000040: 806a 413e f1d2 913f 8df9 c13f fa5b cdbe
00000050: a30b e73f 7c74 e3bc d365 63be 3a73 29be
00000060: ae34 33bf 3769 243f a276 5dbf 940c 943f
00000070: 24ee 69bf 59de a33f e1e4 513e 0f83 38bf
00000080: 91d8 c8be 6d44 e2bf 34b9 4d3d 1df7 583f
00000090: 2635 4dbf 2134 7a3e 084f d63f 6ead 073e
000000a0: 6000 413e 75e4 973f 67ed 0bbe 59c5 923f
000000b0: 759d 73be 8e79 fb3d f610 473e 85e6 07bf
000000c0: 7723 7dbf 8953 d1bf
0.7600094 0.6114673 1.0754282 -1.2686266 -0.23030348 -1.1968049 1.230908 0.85754454
0.37015533 1.0662949 -0.25176844 -1.3956273 -0.621629 -1.02643 -0.9103036 1.8060534
0.18888283 1.1392499 1.5154282 -0.40109235 1.8050426 -0.027765505 -0.22206812 -0.16547862
-0.7000226 0.64223045 -0.86509144 1.1566339 -0.91379 1.280223 0.20497467 -0.7207498
-0.39227727 -1.7677132 0.05022545 0.84752065 -0.80159223 0.24433948 1.6742868 0.13249752
0.188478 1.1866595 -0.1366478 1.1466476 -0.23790534 0.12279044 0.19440064 -0.5308612
-0.9888224 -1.6353618

item_embedding.weight f4 [2, 50]
00000000: 2336 093e bb10 07bf 8cb8 12bf 9f35 413f
00000010: d958 a1bf dd70 f2be f9e6 d03f 1d24 ee3e
00000020: c191 09bf c14a 0abe 90b3 2abf 9bb4 4e3e
00000030: a44f e3bf 5f0d 9d3f 34ac 0440 1e7b c7be
00000040: 88a7 c93f dfa6 50bf ba29 e2bd aa43 c23f
00000050: 9d53 b5be 3652 303f 0d32 893f 20c1 543f
00000060: dd7b 003e b2a5 e93f 0c34 b13f 9cf4 e43d
00000070: 4b0c ffbe 1879 d2bf ebd8 343e 52ca 17c0
00000080: 4486 47bc bb23 da3e 3de4 a1bf 43d9 013c
00000090: b501 42bf 3e28 bc3f 847d 28bf a2a4 b93e
000000a0: 2044 23c0 7f38 363f c906 36bf 4795 bbbe
000000b0: 59d6 af3e e692 91bf 2a78 77be 5a93 783f
000000c0: 33cc 22bf d58a 713f 109e bc3f c211 cdbf
000000d0: a4e6 d23f 3762 f63d efa4 cb3f 2ff7 543e
000000e0: 5c6e 8c3e a67e b43f ad40 babe aa7e 3e3f
000000f0: bf90 b03f e2fe c63d 6e56 3fbf 9d6b f63e
00000100: 7856 4a3e 9c20 0dbd 903c 683f f86f 78bd
00000110: ac2b 0540 985a cabd eb75 47be 8c7c 003e
00000120: cfd5 1bbf bb46 1fbe 79af 0a3f 1c92 b03e
00000130: fda3 993f fd57 8bbf f669 b9bf a2b7 adbe
00000140: ba8e 84be 6c7a 55bc 9fa0 6b3f 8824 c53f
00000150: 303a 09bf 692c c6bf 05f5 0bbf e1ee 62be
00000160: 6f25 0b3f 82f5 153f dd45 a5be 649d 1e3f
00000170: 6b4d 2d3d 10fc 443f 3d28 063e 1f85 903f
00000180: 43ed a4bf 7bd1 d23e d003 d73f ab9b 5c3f
0.13399558 -0.52759904 -0.57312846 0.75472444 -1.2605239 -0.47351733 1.6320487 0.46511927
-0.5373803 -0.13505079 -0.6668024 0.20186083 -1.7758679 1.2269706 2.0730104 -0.38961118
1.5754251 -0.81504625 -0.11043115 1.51769 -0.35415354 0.68875444 1.0718399 0.83107185
0.1254725 1.8253691 1.3844008 0.11179468 -0.49814066 -1.6443205 0.17660873 -2.3717237
-0.0121780075 0.42605385 -1.2647778 0.007925334 -0.75783855 1.4699781 -0.6581652 0.36258417
-2.551033 0.71179956 -0.71104103 -0.36637327 0.34343222 -1.1372955 -0.24166933 0.9709984
-0.63592833 0.94352466 1.4735737 -1.6021044 1.6476636 0.12030452 1.5909709 0.20797418
0.27427948 1.410115 -0.3637747 0.74412024 1.3794173 0.09716584 -0.74741256 0.48128977
0.19759548 -0.034454927 0.9071741 -0.060653657 2.0807905 -0.09880561 -0.19478576 0.12547511
-0.6087312 -0.15554325 0.54174 0.34486473 1.200317 -1.0886227 -1.4485462 -0.33929163
-0.25890142 -0.013029676 0.92041963 1.5401773 -0.5360441 -1.5482303 -0.54670745 -0.22161438
0.54353994 0.5857774 -0.32279864 0.6195891 0.04231016 0.76947117 0.13101287 1.1290625
-1.2884907 0.41175446 1.6798038 0.8617503

fc_layers.0.weight f4 [128, 100]
00000000: 4799 fbbc fdb4 c2bd 8d1e 2bbc 025a bc3d
00000010: 5d4c 5c3d 5348 543d ede1 223d 4d55 8a3b
00000020: e7c8 d53c 82ec b1bd 678a 723d 93c2 5bbd
00000030: 7506 92bd 6370 383d 98f0 97bd dd89 073d
00000040: 131b c33c fa63 f43c f3ef bbbd 6aae 8a3d
00000050: cd84 cabd 3d9a 25bd d3d1 b83d bdf7 0abd
00000060: db54 9e3d 8fd8 a4bd 009b 5a3c f375 b9bc
00000070: 95dd 92bd a32c 58bd 7ab5 febc 7ad1 863d
00000080: 40a9 0e3d e0c1 1f3d ea3a 41bd 8aff 80bd
00000090: d335 8dbc b70a 4abd 138a 9f3c 806f e63c
000000a0: 0037 b63c 6359 3bbd 70c4 05bd ad8b a43c
000000b0: 4d05 94bc 7d3b 833d 90f3 5e3d 00ea ca3d
000000c0: 3b7a c63d 07be e5bc e550 a7bd 1a30 eebb
000000d0: 7a46 25bd 334d f13c 9ac1 9eb9 ad83 37bd
000000e0: b3f2 fb3c 3360 98bc 8b43 8fbd a0ff 82bd
000000f0: 9a2a d13b c767 c3bd cd14 573a fa38 a13c
00000100: 27a6 b83c 7732 343d 40b4 bc3d 7302 b2bc
00000110: eb4f a13d 8fc0 a43d b041 4d3d c36e be3d
00000120: ca11 ae3d 1a03 d3bc 3ac9 d5bc 7283 ab3d
00000130: 608c 1c3d 5789 9cbd eab6 77bd e764 f53c
00000140: d775 353d 07f5 e1bc 8793 b83d ffbb cbbd
00000150: 3351 b73d 406d 4bbd e886 a23d 2754 923d
00000160: f314 0f3d 1343 843c 80b5 1b3d 4dbf ee3c
00000170: 5dc5 7dbd 0084 303d 42b8 a4bd 9314 10bd
00000180: 8def 443d e731 a5bc d545 bebd 6d62 89bc
00000190: 2900 efbc 6ead 7b3d fd52 acbd 80f4 823d
000001a0: 6638 9d3d 4bbb dc3d 9b65 fd3a c9b8 c2bc
000001b0: b4d8 833d f5c2 ecbd 819f 93ba 28e6 8abc
000001c0: 1bda 78bc 211c 8cbd 6e73 35bd f8e6 b53c
000001d0: bace afbd 604f 173d d780 503c e164 ee3d
000001e0: c87c 963d 707b 56bd 0100 7abd e017 97bd
000001f0: 8aa8 03bd 8b81 a0bd a7b3 32bc e721 703d
00000200: ce02 2bbd 7323 de3c 89d2 a3bc cc6b c23c
00000210: bc4d 1ebb 54ae 56bd 6173 3dbd 2380 8c3d
00000220: 8e1e a2bd cd8d f9bb c79e 573d f1e0 c8bb
00000230: 0658 b4bd 4586 723c c037 be3d b41f 18bd
00000240: 4884 e33d 0fe3 823c bdac e33c 2e06 8fbd
00000250: 4c12 8c3d 9bf6 e3bc 4f9a 54bd 9128 ee3c
00000260: b3a3 21bd 6987 533d efc7 893d c7cd 19bb
00000270: d8e3 913b ec4c edbc fc46 89bc 497e b0bd
00000280: 0f89 2cbd 48de a43d 2e8f b33b 9994 cabc
00000290: ef72 12bd fc6c 323d 15ee ce3c 6992 783d
000002a0: 9257 5dbd ce44 6f3b 498b a2bd e873 723c
000002b0: aaab 89bd 84d7 27bb 06dd b1bd ef27 843d
000002c0: 85fa eb3c 5927 4abd 3488 b13b a9b1 d43d
000002d0: 5a95 36bd 07ad a1bd 7c22 19bd 6caa cabd
000002e0: e685 c03d accd a6bb 793c 87bd 7288 9bbd
000002f0: 2f23 83bc ee51 cabd 8f0b b13d 751b 16bd
00000300: c8d0 303c 343f 33bd 324b 813c 171d cfbc
00000310: 00ac 9e35 2bce a6bd 89bf 94bb 7738 92bd
00000320: 53f5 953d ca85 4cbd bf77 c33d 5204 89bd
00000330: da58 583d ea92 7b3d 80d3 0b3d cdda f33a
00000340: 9aab ceba 73e9 70bd 7a5d ba3c 9a9d fc3c
00000350: baeb d0bc f00f 113d ada4 9bbc 173c 0fbd
00000360: 731f 46bc f04c b3bd a802 943d cfc4 b3bd
00000370: 4d80 a9bd 43ef 07bd 10d5 75bd 6763 d53c
00000380: 7d5b 2cbd 2a10 a3bd ca16 163d 00ff 12bd
00000390: d3ca c23c 7d07 473d 6003 633d 053c 993d
000003a0: 8d71 37bc 4d73 8e3c dff9 ad3d f702 803d
000003b0: 40dc 763d 4b07 bcbd f3a5 12bc 9aaa 39bb
000003c0: 4086 93bd a30a 69bd 8873 93bd ad8b 71bd
000003d0: 1a67 9a3b 27a2 56bc 72fa aa3d 0add 773d
000003e0: 5806 8fbd e737 893c 7ad6 3a3d 8f3f 93bd
000003f0: 00e6 cb3c 478c 3ebd c821 a3bd 7a25 fbbc
-0.030712737 -0.09507177 -0.010444296 0.09196855 0.053783763 0.051826786 0.03976624 0.0042215944
0.026096774 -0.086876884 0.059214022 -0.053652357 -0.07130138 0.045029055 -0.074189365 0.03309046
0.02381662 0.029832829 -0.09176626 0.06771548 -0.09888611 -0.040430296 0.09024396 -0.033927668
0.07731029 -0.08049118 0.013342619 -0.02263925 -0.0717117 -0.052776944 -0.031092394 0.06582923
0.034829378 0.039003253 -0.047175325 -0.0629874 -0.01723758 -0.049326625 0.019475019 0.02812934
0.022243023 -0.045739543 -0.03265804 0.020086134 -0.018068934 0.06407831 0.054431498 0.09907913
0.09691282 -0.028044714 -0.08169726 -0.0072689177 -0.040350415 0.029455757 -0.00030280353 -0.04480331
0.030755376 -0.018600559 -0.06995305 -0.06396413 0.0063832523 -0.09541278 0.00082046987 0.019680489
0.022540165 0.04399344 0.092140675 -0.021729684 0.07876571 0.0804454 0.050111473 0.0929847
0.08499487 -0.025758315 -0.026096929 0.083746806 0.03821981 -0.07643383 -0.060477175 0.02995534
0.044301834 -0.027582658 0.090125136 -0.09947967 0.089510344 -0.049664736 0.079358876 0.07144957
0.034932088 0.016145265 0.03801489 0.029143954 -0.0619558 0.043094635 -0.08042957 -0.03517587
0.048080016 -0.020165397 -0.09290663 -0.016770566 -0.029174881 0.061444692 -0.08414266 0.06394291
0.07676773 0.10777911 0.0019332649 -0.023769753 0.06437817 -0.115606226 -0.0011262746 -0.01695545
-0.015188719 -0.06841303 -0.044299535 0.022204861 -0.08584352 0.036940932 0.01272603 0.11640335
0.07348019 -0.052363813 -0.06103516 -0.07377601 -0.032143153 -0.07837208 -0.01090709 0.05862608
-0.04175072 0.027116513 -0.019997852 0.023733042 -0.002415522 -0.052412346 -0.046252612 0.06860378
-0.07915984 -0.007615781 0.052641656 -0.0061303307 -0.08805852 0.01480252 0.09287977 -0.03713961
0.11109215 0.01597741 0.027792329 -0.069836006 0.06839427 -0.027827552 -0.051904973 0.029072078
-0.039462756 0.05164281 0.067275874 -0.00234686 0.00445221 -0.028967343 -0.01675748 -0.08617837
-0.042122897 0.08050209 0.005479715 -0.02472906 -0.03575414 0.043560967 0.02526001 0.060686503
-0.05403859 0.0036509517 -0.07936723 0.014798142 -0.067221954 -0.0025610635 -0.08684735 0.06452929
0.02880598 -0.04935393 0.005417848 0.103854485 -0.044576026 -0.078943305 -0.037386402 -0.09895787
0.09400539 -0.005090436 -0.06603331 -0.07594384 -0.016007988 -0.09878908 0.08644783 -0.03664728
0.010791965 -0.043761447 0.015782926 -0.025282426 1.1821976e-06 -0.08144792 -0.0045394343 -0.07139676
0.073221825 -0.04993228 0.09544324 -0.06690277 0.05281911 0.061419405 0.03413725 0.0018604636
-0.0015767694 -0.058816385 0.022749651 0.030836869 -0.025503028 0.03541559 -0.018999422 -0.034969416
-0.012092459 -0.08754909 0.07227069 -0.08777773 -0.082764246 -0.033187162 -0.060017645 0.026048375
-0.042079438 -0.079620674 0.036642827 -0.03588772 0.023778355 0.048591126 0.05542314 0.07482151
-0.011196506 0.017388964 0.08494925 0.062505655 0.06026864 -0.091810785 -0.008950698 -0.0028330446
-0.072033405 -0.05689491 -0.0719977 -0.058971096 0.0047119977 -0.013100184 0.0834855 0.060513534
-0.06983632 0.01675029 0.045614697 -0.07189857 0.024889946 -0.046520498 -0.07965428 -0.030657519

fc_layers.0.bias f4 [128]
00000000: c0fa 46bc 3f66 983d adf0 173d 3f44 a3bd
00000010: 00e8 8e3d cf88 b9bd 688a 3fbc 0bc6 9dbd
00000020: 9550 9bbd 1033 0b3d 09ed acbd 53b3 7f3d
00000030: 13bd 68bd ed58 a03d 21d1 84bd 0c44 ae3d
00000040: 35ad 08bd 87fb cf3c 44d7 61bd 67b8 883b
00000050: 9570 99bd 5fe4 963d 9bd8 693c 9a4e 373d
00000060: 6a66 a1bd ac7a 673d 008b 63bd 72bd 2abc
00000070: 9717 c0bc ad70 b3bd f038 243d 3458 98bd
00000080: dec8 6e3d 33fe e53c 05a0 48bd 02a0 563d
00000090: 0608 113d db2b 61bd c172 06bd 4df7 233d
000000a0: a025 82bd fc0c b93c 474f dabc f3ff 7cbc
000000b0: a5dd c33d 8747 a53d 2053 07bd c097 03bd
000000c0: ee7b 81bd 8044 843d 369c a5bb a794 3d3d
000000d0: e1e4 93bc 1934 dc3c f684 b53d 57ba 8cbd
000000e0: 449c d1bc a646 44bd cbb9 4bbd 9c7f 2e3d
000000f0: dc41 7abd 7378 d23c 0be6 b6bd 3d8a 2dbd
00000100: 0a9a 5f3d 4f49 e23d 3f08 93bd 92fe a8bd
00000110: b317 3cbc ac18 123d 7005 f5bc e3af b5bd
00000120: 43b5 333d 19ba 01bd dd44 32bd ad37 393d
00000130: f596 0cbd 001a de3c ba8e b73d b283 7cba
00000140: ccca afbb 844e 97bd 93bd 70bd eb95 bbbd
00000150: 9a05 4ebd c419 983c 4e4d a4bc d103 31bc
00000160: 6d41 633d 4f5e 31bd 1d42 bfbd b89c b1bd
00000170: bbaa 963d adcc a8bd 6d62 41bd 2c9e acbd
00000180: 83f3 23bd 9328 c33d 6a0b 14bd 0a4c 19bc
00000190: 2033 913c 2dec 613d ce6d aabd cc55 a23c
000001a0: f0b4 c73d f343 913c 7c1f 033d 6df8 843c
000001b0: cae2 253d 0d46 c43c 64ae de3c 5896 923d
000001c0: 464e 8c3d 334e 4ebd 6d53 aa3d 668c 843d
000001d0: 436f 92bd 8e1a 3fbd ce05 46bd 6e9c a23d
000001e0: 87c9 bdbd 9af1 91bd fd69 663d a60c 29bd
000001f0: c59b a23d 0957 313c c6d3 963d 375a 10bc
-0.012144744 0.07441377 0.03709476 -0.07972001 0.06977844 -0.09059297 -0.011690713 -0.07703789
-0.07583729 0.033984244 -0.08443648 0.062426876 -0.05682094 0.07829461 -0.06485201 0.08509073
-0.033368308 0.025388492 -0.055136934 0.004172373 -0.074921764 0.07367777 0.014272834 0.044752695
-0.07880862 0.056513473 -0.055552483 -0.010421144 -0.023448749 -0.087617256 0.040093362 -0.074386984
0.05829703 0.028075313 -0.04898073 0.05239869 0.035408042 -0.054973464 -0.03282428 0.040030766
-0.06354833 0.0225892 -0.02664913 -0.015441882 0.0956376 0.080702834 -0.03303826 -0.032127142
-0.06322466 0.06458378 -0.005054022 0.046284344 -0.018053474 0.02688031 0.08863251 -0.06871479
-0.025587209 -0.047918938 -0.049737733 0.042602167 -0.061097965 0.0256922 -0.08930596 -0.042368162
0.054590262 0.11049139 -0.07179307 -0.082516804 -0.01148026 0.03566806 -0.02990982 -0.08871438
0.043874037 -0.031671617 -0.043522704 0.045219112 -0.03432365 0.027112007 0.0896277 -0.0009632661
-0.0053647514 -0.073880225 -0.058774542 -0.09159454 -0.05029831 0.018566974 -0.020056393 -0.010804133
0.055482317 -0.04330283 -0.09338782 -0.0867247 0.07356783 -0.08242164 -0.047213007 -0.084286064
-0.040027153 0.09529223 -0.036143698 -0.009356508 0.017724574 0.055156875 -0.08321725 0.019816302
0.09751308 0.017732596 0.032012448 0.01623174 0.040499486 0.023959184 0.027182765 0.07157582
0.06850867 -0.050367545 0.083166935 0.064720914 -0.07150128 -0.046656184 -0.04834538 0.07939993
-0.09266954 -0.0712616 0.056253422 -0.041271828 0.07939867 0.010823973 0.07364611 -0.008810571

fc_layers.2.weight f4 [1, 128]
00000000: 5746 73bd 52cc 84bd f4b7 9fbd 95a4 9e3d
00000010: 788d 2bbd d25f af3d e641 aa3d 9ad1 11bd
00000020: 80f7 1bbd 6231 5b3d 820a 15bd f55d 95bd
00000030: 12d8 91bd 9915 12bb 4ad1 bd3c 6c68 153d
00000040: 5f5c 103c 863e 8d3d f604 8ebd cfaa 57bd
00000050: a052 d63d 0a0f 913c a1f8 30bd c14f fd3b
00000060: b495 cdbc 93b4 d53d 44a0 7d3d 77ad d23d
00000070: 6664 ca3b 9737 b1bd a45e 86bd 26a9 a9bc
00000080: 1664 a93c ae3b a5bd 5954 823d 99df c03b
00000090: 62ac 4bbc 5bad 173d c82e c13d b7b5 9a3c
000000a0: 7fe0 4cbc 53f4 08bd b90c 1fbd 34b4 17bc
000000b0: 5efc 1a3d 8205 77bd a882 94ba 26b8 98bd
000000c0: fdf3 193d ec7a ba3c 2573 8c3d f1ec c83d
000000d0: 4de5 8e3b 9b66 463d 00ee 903d 8ab7 a73d
000000e0: ee1d 6cbd e211 383d 56b5 7f3d 8eb3 2dbd
000000f0: 7286 b83d b39d d8bc e15a 6b3d 76c9 fcbc
00000100: 71b4 4f3d 0a99 213d 78a2 58bc 60a2 92bc
00000110: 1a65 4d3d 38e4 ae3b a914 a03d 71ea 93bd
00000120: 8032 973d 7e0c 983d e329 613d 5126 72bd
00000130: 9480 b83d 432c a13d 24e5 f13b 58b6 a23c
00000140: ba3f 72bd 0129 a9bc 19dc 59bd af5f 6b3d
00000150: 9b76 22bb 129c 8bbd 15e5 47bd 7f2f 30bd
00000160: 755e 0cba 8d8c 8b3c ed51 83bd 8e00 523d
00000170: 1487 8ebd c905 573d 9c9a 40bd aa28 87bd
00000180: 9e36 54bd e575 bcba 5829 cebc 95c3 bb3c
00000190: 6d60 e4bc 5230 8c3d dbca c3bc f169 43bd
000001a0: ce45 bb3d e42a dbbb c126 6c3d 6198 87bd
000001b0: 5b36 d43d 8d62 fd3c a4f1 45bc 9fd8 203d
000001c0: 6266 983d 4847 db3c 3336 a23d e703 e33c
000001d0: de03 0fba a7ff a3bc fb94 47bd c6f6 c63d
000001e0: 4c64 2dbd 889e 963d aebd 0bbd ad32 123d
000001f0: 20af 2ebd 9d33 a33b 8d68 223d 4757 5bbd
-0.059393253 -0.064842835 -0.07798758 0.07746235 -0.041882962 0.08563198 0.083133504 -0.035600282
-0.03807783 0.053513892 -0.036386974 -0.072933115 -0.0712129 -0.0022290705 0.023171086 0.036476538
0.0088110855 0.06896691 -0.0693454 -0.05265313 0.10464978 0.017707366 -0.04320586 0.0077304547
-0.025095798 0.104348324 0.06192042 0.10286992 0.006176519 -0.08653181 -0.0656102 -0.02071054
0.020677608 -0.080680236 0.06363744 0.00588603 -0.012431236 0.03703056 0.09432751 0.018885477
-0.012504696 -0.03343613 -0.038830493 -0.009259272 0.037838332 -0.060307987 -0.0011330443 -0.074569985
0.0375862 0.022763692 0.068578996 0.09810818 0.004360831 0.048437696 0.07076645 0.08189304
-0.05764573 0.04493893 0.062428795 -0.042407565 0.090100184 -0.026442384 0.057459716 -0.030857783
0.05070919 0.03945259 -0.013222329 -0.017899692 0.050145246 0.0053372644 0.078164406 -0.072224505
0.07382679 0.07424258 0.054971587 -0.059118573 0.09008899 0.078697704 0.007382052 0.019862339
-0.059142806 -0.020649435 -0.053188417 0.057464298 -0.0024789933 -0.068168774 -0.048802454 -0.043014046
-0.00053546514 0.017034793 -0.064121105 0.05127006 -0.06959358 0.05249575 -0.047022447 -0.06599553
-0.0518099 -0.0014378397 -0.025166199 0.02292041 -0.02787801 0.06845154 -0.02390044 -0.047708455
0.091441736 -0.0066884626 0.057654146 -0.06620861 0.1036193 0.030930782 -0.012081537 0.039269086
0.07441403 0.026767388 0.07920494 0.027711822 -0.00054555933 -0.020019365 -0.048726063 0.09715037
-0.04233198 0.07354456 -0.03411644 0.03569286 -0.04264748 0.004980518 0.03965049 -0.05355003
