ncf_model.pth (torch, 55964 bytes, 5 tensors)

user_embedding.weight f4 [1, 50]
000000 2f 96 2d c0 ca 02 d0 3f 98 66 b9 be 27 d8 0a 3e
       -2.7122915 1.6250851 -0.36211085 0.13559018
000010 c6 ed 4e be 4f 6f 0d bf e4 ca ff be ad fd 68 bd
       -0.20207891 -0.5524797 -0.4995948 -0.05688255
000020 93 fe 2c bf 8e 4b ce 3e f0 36 84 3f 2a fe c2 3f
       -0.6757595 0.4029202 1.0329266 1.5233815
000030 fe 5e 09 3d 9d 29 5e bf cf ac b5 bf 80 98 f1 be
       0.033537857 -0.86782247 -1.4193362 -0.4718666
000040 a9 ec 8d be 27 fa 68 3f 67 cc 81 be 6e f4 58 be
       -0.2771962 0.910067 -0.2535126 -0.21186993
000050 1e ca 7e 3f 44 b8 9e bf 6d 95 da be 41 be b6 3e
       0.99527156 -1.2399983 -0.42692128 0.35692027
000060 09 0d 6c 3f 16 ab 71 bf 4f a3 3b 3f 7d 94 6d bf
       0.9220739 -0.9440168 0.73296064 -0.928047
000070 a0 74 b2 3f 05 a0 83 3f c8 c4 a7 3f b6 bc 26 3f
       1.3941841 1.0283209 1.3106928 0.651317
000080 f3 69 33 bf ac f4 1d 3e 44 3f 03 40 37 5f ea be
       -0.7008354 0.15425366 2.0507364 -0.45775768
000090 b1 19 80 bf f0 50 a3 3f df 09 16 c0 9b 9d 80 be
       -1.000784 1.2759075 -2.3443525 -0.25120243
0000a0 10 1f cd 3d 31 4d 7a bf c5 c1 2e 3f 1a ac 1a be
       0.1001569 -0.97774035 0.6826442 -0.15104714
0000b0 61 e4 cf bf a1 7b 12 bf e4 e3 e1 3e 5f 4a b2 bd
       -1.6241571 -0.5721989 0.4411918 -0.087055914
0000c0 07 7d 14 3f ff 78 0c c0
       0.58003277 -2.194885

item_embedding.weight f4 [4, 50]
000000 ea ad b0 bf 5f 97 6b be 44 04 b6 bf c3 7f 7a bf
       -1.3803074 -0.23006962 -1.4220052 -0.978512
000010 59 5d 5a 3f 57 60 36 3f 88 03 5f bf 8b 8c 4a 3f
       0.8529869 0.7124075 -0.87114763 0.791207
000020 17 d9 ca 3f c6 25 21 bf da 9d 08 bd 44 23 5d be
       1.58475 -0.6294826 -0.033353664 -0.21595484
000030 fa 64 92 3f 47 c1 1b bf ee bf da be 64 53 42 3f
       1.1437066 -0.6084179 -0.42724556 0.75908494
000040 01 00 40 be 84 7a 52 bf d7 03 19 3f fb ec c4 be
       -0.18750001 -0.82218194 0.59771484 -0.38462052
000050 85 65 e1 be 8f 95 63 bd d6 46 ce bf 93 ea 27 c0
       -0.44022766 -0.055562552 -1.6115367 -2.6236923
000060 28 1b c4 3e ef 44 f2 3e c7 95 3b bf c3 6a 1c bf
       0.3830197 0.47318217 -0.7327542 -0.61100405
000070 34 b9 87 bf 92 29 a2 bf a3 7f 42 3d c6 2e 83 3f
       -1.0603395 -1.2668936 0.047485005 1.0248649
000080 a7 db 2d 3f 10 b9 73 be 53 be 2a 3f 96 dc 04 bf
       0.6791329 -0.23801064 0.6669666 -0.5189909
000090 c7 94 00 bf 6e 88 a7 be 04 af c0 bf d1 47 e3 3e
       -0.50227016 -0.32721275 -1.505341 0.4439073
0000a0 81 b7 8b bf 8a 0b cf 3b a8 1c 4f 3f 5b 81 c4 bf
       -1.0915376 0.0063185142 0.809031 -1.5351976
0000b0 48 5c 92 3e 59 9b b2 bf 4f ae 8b 3f 4a 0e 75 bf
       0.2858603 -1.3953658 1.091257 -0.9572493
0000c0 2d c4 89 3d 1d 4c 31 bf d8 27 6d 3f f9 bc aa 3f
       0.06726871 -0.69256765 0.9263892 1.333892
0000d0 f8 b9 05 bf c0 07 b9 3e de d9 f1 be af cd a1 bf
       -0.5223689 0.36138725 -0.47236532 -1.2640895
0000e0 8c 24 09 c0 4b 64 1a 3f 1a 38 21 3f 58 af 70 bf
       -2.1428556 0.60309285 0.6297623 -0.94017553
0000f0 f9 28 20 3e c2 33 6b be 9a 27 1e 3f 0a f9 9a bf
       0.1564063 -0.22968963 0.6177918 -1.2107251
000100 14 ca 06 3f 9a 64 4a 3e 28 5b f1 bf 10 fa bc 3e
       0.52652097 0.19764939 -1.8855944 0.36909533
000110 85 33 dd bf 20 c5 5d bf 68 b6 4e 3f de ab 15 3f
       -1.7281348 -0.86628914 0.8074708 0.58465374
000120 a7 23 46 bf 76 5d 95 3b 1b 33 c8 bf 55 e9 a9 bf
       -0.7739815 0.0045582606 -1.5640596 -1.3274332
000130 ff 98 c5 3e 54 70 e4 be 8f e1 35 bf ed 9f 00 be
       0.3859329 -0.4461695 -0.710473 -0.12561007
000140 5b b8 8c bd 12 14 d6 3e 2c 6b a6 bf 4b 12 3d 40
       -0.068711005 0.41812187 -1.3001456 2.9542415
000150 bb 35 18 40 4f 21 ee 3f ff 80 0f bf 34 43 ed bf
       2.3782794 1.8603915 -0.5605621 -1.8536134
000160 35 8a b5 bd 03 b7 6e 3e f7 c4 9f 3f fa b3 c1 be
       -0.088642515 0.23312001 1.2481984 -0.37832624
000170 9e 8b 27 3f 1e bc 73 3d dd b2 81 bf 3e 99 ef 3f
       0.65447414 0.059505574 -1.013271 1.8718641
000180 11 3a ff 3e 0e 85 e7 3f 4f 49 0c 3f 24 de b9 3e
       0.4984899 1.808748 0.5479936 0.36302292
000190 05 98 ec be 4d f7 bd 3c a4 cd a6 3f 26 10 c2 bf
       -0.46209732 0.023189211 1.3031507 -1.5161178
0001a0 a1 ab 39 bf 95 9c 1d 3f 2d aa 56 be 6d da 10 3f
       -0.7252751 0.6156705 -0.20963354 0.5658329
0001b0 2f fa d6 3f 1c 97 18 3f e5 02 a2 bc e3 c1 1f bf
       1.67951 0.59605575 -0.01977677 -0.6240522
0001c0 13 e0 e5 3f 6e db 66 3e f4 58 a8 3e 98 7c ef bf
       1.7959007 0.22544643 0.32880366 -1.8709898
0001d0 10 2b 9d 3f c7 38 d0 3f 6d fc a7 bf 30 11 ad bf
       1.2278767 1.6267327 -1.3123909 -1.352087
0001e0 10 af 9f 3f 6e af 0f 3f 8f 35 07 3f 86 b2 06 40
       1.24753 0.5612706 0.528161 2.1046462
0001f0 dd d5 0b 3f 25 d7 46 bf af c5 d7 3e 04 84 18 bf
       0.54623204 -0.77672035 0.42143008 -0.5957644
000200 ac 7a 67 bf 46 dd 88 bf d9 ae ee 3f 5d 5d 77 3f
       -0.9042156 -1.0692527 1.8647109 0.96626836
000210 98 28 98 3e 36 2a 31 bf 67 3f 35 bd 0b cf 0a c0
       0.2971847 -0.69205034 -0.04424992 -2.168887
000220 e1 b6 c2 3f e3 5e 8a 3f 12 5f 15 bf c2 66 ca 3f
       1.521206 1.0810207 -0.5834819 1.5812609
000230 0d ba 03 3f ff ce ce bf 5f 49 8e bf 92 a9 53 3f
       0.51455766 -1.615692 -1.1116141 0.8268062
000240 41 a8 cf 3e f1 53 de be d3 be ae 3f 3e 82 80 3e
       0.40558055 -0.43423417 1.3651985 0.25099367
000250 52 26 b0 3e 6d e5 59 be 75 8e e1 bf 11 97 a1 be
       0.34404236 -0.21278925 -1.76216 -0.31560567
000260 f9 7d 42 40 74 3a 58 3f 94 43 50 bf 93 8f 38 bf
       3.0389388 0.8446419 -0.81353116 -0.72094077
000270 48 6b 9b be c5 4e 3f 3e 29 d1 e5 be 71 e7 6f 3e
       -0.30355287 0.18682392 -0.4488614 0.23428132
000280 ed f3 62 3e 73 29 0d bf 2a 5a be be 0e 67 cc bf
       0.22163363 -0.5514137 -0.37178165 -1.596895
000290 be c4 f0 3e 14 3f e2 be 49 f1 0e 3f ba 6a 8c 3f
       0.47025102 -0.4418875 0.5583692 1.097007
0002a0 12 bf 61 bf 5d b3 78 bf 84 52 a1 3f 3e bc 04 3f
       -0.88182175 -0.97148687 1.2603307 0.51849735
0002b0 b8 15 8c bf da ff 2d bf 62 b3 89 3f 4c f3 3d bc
       -1.0944128 -0.67968524 1.0757868 -0.011593651
0002c0 3b 74 ee 3e bc c5 1d 3f 95 1e 19 bf dd b8 0e 3e
       0.46573052 0.61629844 -0.5981229 0.13937707
0002d0 39 4e a3 3f 23 4b c0 3e bb ee 8d 3f 69 84 db be
       1.2758247 0.37557325 1.108848 -0.42874458
0002e0 89 11 35 40 29 89 84 bf 9c f2 18 3f d0 51 97 bf
       2.8291953 -1.0354358 0.5974519 -1.1821842
0002f0 a8 74 c1 be b9 3f 59 3e c9 28 8a bf b7 a6 ca be
       -0.37784314 0.21215715 -1.0793697 -0.39580318
000300 b5 bb be bf c0 78 e2 bf 62 33 0a 40 03 66 b2 bf
       -1.4901034 -1.76931 2.1593862 -1.3937382
000310 ad e4 1c bf 25 ee a8 be 0a ba 74 be 22 70 03 40
       -0.6128643 -0.3299419 -0.23899093 2.053719

fc_layers.0.weight f4 [128, 100]
000000 de 6b d2 bd 0d f0 d0 3d d5 2b 29 bd 83 98 c3 3d
       -0.1027448 0.10202036 -0.041301567 0.09550574
000010 dc 99 73 bd 33 56 6b 3d 5c 12 50 bd 48 e4 8f 3b
       -0.059472904 0.057455253 -0.05079876 0.004391227
000020 b6 5a 99 bc cb 45 6d bc ac cb f1 bc 3b b1 c1 3d
       -0.018720012 -0.014481972 -0.029516064 0.09457632
000030 be b5 da 3d 6a fc 25 bd ba d8 28 bd a3 a1 24 bd
       0.10679196 -0.040523924 -0.04122231 -0.04019321
000040 3c 7a 26 bb 4d 53 a1 3d ac a3 a4 3c 10 7a c3 bc
       -0.0025402447 0.078772165 0.020097576 -0.023861915
000050 00 58 c9 3c 52 a8 42 bd b4 50 96 bd 7d 8e 00 3c
       0.024578094 -0.047523804 -0.07339612 0.007846472
000060 4a d7 ca 3d 71 7d c2 3c 2c b6 48 3d 0b 55 a6 3d
       0.099043444 0.023741456 0.049001858 0.081216894
000070 0a 5e 80 bd 3d a6 cd 3d fa 75 8e bb 87 2b c6 bc
       -0.062679365 0.10041473 -0.00434756 -0.024190677
000080 f8 61 1c bd 30 68 a7 3d 7b 2a d6 3d 4f 3b d0 bd
       -0.038179368 0.08174169 0.10457321 -0.10167562
000090 39 14 95 3d df e1 e3 3d ca cc 97 3d 6c a5 54 3d
       0.07279248 0.11127066 0.07412107 0.05191557
0000a0 4c c3 15 3d 00 18 02 3d 49 54 ef 3c c8 47 ec 3c
       0.036563203 0.03176117 0.029214995 0.028842822
0000b0 09 c6 c7 bd d0 00 33 bd 49 2f 0c bd 22 4c ec 3c
       -0.09754569 -0.043701947 -0.034224782 0.028844897
0000c0 33 3c a4 3d 9d 2a f4 3c ef f5 ec bb d3 18 41 bd
       0.080192946 0.029805476 -0.007231466 -0.047142815
0000d0 f7 e4 d1 3c 76 2f a3 3d 8b 4d 5b 3d 9b e9 aa bd
       0.025621874 0.07968037 0.053540748 -0.08345338
0000e0 ba 2f 8e bd 87 43 30 3b 8e f0 9c bb 2d 2c 61 3d
       -0.06942697 0.0026895718 -0.0047894185 0.05497377
0000f0 5a 01 ac bb 7f 8b e3 bd 4e 43 d2 bb 09 0b c7 bd
       -0.0052491846 -0.11110591 -0.0064167148 -0.09718902
000100 0f 3a e4 3d f6 60 93 3d ba ce bb 3b ce ab 8d bd
       0.11143886 0.07196228 0.005731431 -0.06917535
000110 c9 f4 2c 3d 0f 40 bf bd 1e dc 13 3d fe 93 95 bd
       0.042225633 -0.0933839 0.036098592 -0.07303618
000120 81 de e2 bd f8 69 b0 3c 0f 34 ae 3d 0e 22 80 3d
       -0.110775955 0.021534905 0.08506023 0.062564954
000130 b6 ed aa bd f6 25 81 3c b7 33 6c bd 29 45 9a bd
       -0.08346121 0.015765171 -0.057666507 -0.075327225
000140 82 c3 cb 3d 83 16 8c 3d d0 7b 67 3d 9e 69 80 3a
       0.099493995 0.06840231 0.05651456 0.0009797101
000150 05 ea a1 3d 30 1d cc 3b 49 11 93 3d 95 31 4d bd
       0.07905964 0.0062290654 0.07181031 -0.050096113
000160 b7 88 ad 3d 47 40 88 bd 68 1f 3b bc 7e 4b 51 bd
       0.08473342 -0.06652885 -0.011421062 -0.051097386
000170 40 e8 93 bd 6c 50 a4 bd 92 4d eb 3c a4 fa 10 bd
       -0.072220325 -0.08023152 0.028723512 -0.03539528
000180 8e 18 0e bd f5 bf db 3d 42 99 2f 3d 1a 29 5f 3d
       -0.034691386 0.10729972 0.042870767 0.054482557
000190 3e a5 e3 bd 19 02 0a 3d 81 f9 03 bd 12 b5 06 bd
       -0.11115502 0.033693407 -0.032220367 -0.032887526
0001a0 2d a4 54 bd 66 a5 98 bd 04 98 77 3d 4d 56 8d bc
       -0.051914383 -0.07453422 0.060447708 -0.017253065
0001b0 ac ba 91 bd 10 68 a8 3c de 4c db 3d b8 63 34 3d
       -0.07115683 0.020557433 0.10708021 0.04404041
0001c0 f2 14 dd bc fe 1f ef bd 59 8e c3 bd ea 14 94 3d
       -0.026987527 -0.11676024 -0.09548635 0.072305515
0001d0 94 d2 91 3b fd 20 81 3d 40 fc f0 bc fc 9a 9f bd
       0.0044501517 0.0630512 -0.029417157 -0.07793233
0001e0 c1 45 0b bd ec 38 d1 bc a4 3d 0c 3d 97 fc b9 bc
       -0.03400207 -0.025539838 0.034238473 -0.022703452
0001f0 ed 8b 1d bc 26 16 99 bc 7d d3 b8 3d 93 93 78 bd
       -0.00961588 -0.018687319 0.09024713 -0.060687613
000200 15 05 5e 3d 9e 56 4d bd 71 5f 36 3d 60 a0 b3 3d
       0.054204065 -0.050131433 0.044524614 0.087708235
000210 6c 68 00 3d 10 68 61 3d fc 34 58 bd 1a cb 58 3d
       0.031349584 0.055030882 -0.052784905 0.052928068
000220 bf ac 94 3d 46 e0 b3 3d 22 c0 b3 bd a7 26 cb bd
       0.07259511 0.08783011 -0.08776881 -0.09919482
000230 c2 de 9e 3c ed 8e 52 bd 9a fd be 3d 1b 79 ee bd
       0.019393329 -0.051405836 0.093257144 -0.11644193
000240 10 b7 ce 3c 73 44 55 3d b5 99 4b 3d 50 3e 09 3c
       0.025233775 0.05206723 0.049707133 0.008376673
000250 5a 6d 8f 3c 6e 25 c1 3c 54 5b a6 3c 29 52 ed 3d
       0.017508198 0.023577418 0.02030722 0.115879364
000260 3f 01 aa 3d 3f 95 15 3c 1a 6a ce bd de c2 5e 3c
       0.08301019 0.009129821 -0.10078831 0.013596265
000270 6e fc da bd e2 3a 42 3d be 92 eb bb f2 8e 8c 3d
       -0.106926784 0.047419436 -0.007189124 0.06863202
000280 00 70 44 3d 31 d8 cb bd 0c 6b cf bc 5f df 7c bd
       0.047958374 -0.099533446 -0.025319599 -0.06173646
000290 67 fe 18 3d 03 12 c2 bd 81 1f 3e bd a0 22 0e 39
       0.037351992 -0.09476092 -0.046416763 0.00013555074
0002a0 e7 c6 99 3b 60 19 71 3d aa ea ee 3d 14 b4 62 bc
       0.0046929005 0.05886209 0.11665852 -0.013836879
0002b0 8f 8c ce bd e0 54 db 3c 45 e8 59 bd 09 d2 f2 bd
       -0.10085403 0.02677387 -0.053200025 -0.11856467
0002c0 c1 b9 ac 3d 56 7b 6b bd ff fe f1 3c 9e 3b e2 bd
       0.08433867 -0.05749067 0.029540537 -0.11046527
0002d0 b0 c9 d0 b8 08 05 91 3d 6e 56 e5 3d e6 a8 f1 bc
       -9.95578e-05 0.07081038 0.11198126 -0.029499482
0002e0 1f 14 83 bc d6 4b 46 bb 7d 00 d2 3d 22 19 0f bd
       -0.016000805 -0.0030257604 0.102539994 -0.034936078
0002f0 db dd 5c 3d 1c 80 97 bd a0 93 12 bd 83 85 64 bd
       0.053922515 -0.07397482 -0.035785317 -0.05579139
000300 bc b4 93 bd 40 1a 08 bd b0 f2 87 bb b8 19 8b bd
       -0.07212207 -0.03322816 -0.0041488037 -0.06792015
000310 12 75 38 3c 85 42 fc 3c cb 3a 68 3d c9 52 73 3d
       0.0112583805 0.030793438 0.056696694 0.059405122
000320 10 fc 77 bd 88 45 8b bd d3 48 b8 3c d7 2c 64 3d
       -0.06054312 -0.068003714 0.022495663 0.055706825
000330 da e7 18 bc 33 72 86 bd 00 5f 34 3b 73 8c 2e bd
       -0.0093326215 -0.065647505 0.0027522445 -0.04261441
000340 22 f8 c9 3d 8d 49 3a bd 80 01 83 3b 60 fe 46 3d
       0.09861781 -0.0454803 0.0039979815 0.048582435
000350 f0 ce 0a 3d 4d 5f a4 bb f3 2f 5d 3d 6d 8e 34 bd
       0.033888757 -0.0050162436 0.054000806 -0.04408114
000360 47 58 98 bd 9a 9a a4 bb 67 c4 04 bd 4d eb 9e bb
       -0.074387126 -0.0050233128 -0.032413866 -0.0048498274
000370 32 6b 82 3d 5d 03 ac bd cf 5b 8c 3d 6d fd 5f bd
       0.06368102 -0.08399079 0.068534486 -0.054685045
000380 da 85 cb bc 7a 8e f7 3c b3 2d 23 3c 0d 87 8f 3c
       -0.024844099 0.030219305 0.009959626 0.017520452
000390 40 dd 8f 3c f5 d2 92 bd a3 d2 6f bd 7a 00 f0 3c
       0.017561555 -0.07169143 -0.05855049 0.029297102
0003a0 3d 42 ae bd 6f 2a 90 3d cd f6 f5 bb 7d f3 39 bd
       -0.08508728 0.070393436 -0.0075062276 -0.045398224
0003b0 fa e5 5e bd 47 88 cd 3c 9a e2 26 bb bd 40 8b 3d
       -0.05441854 0.025089396 -0.0025464655 0.06799457
0003c0 e7 71 f6 bb c8 b4 a9 3d 00 7f 35 bd 4a 46 34 bd
       -0.0075209024 0.082864344 -0.04431057 -0.044012345
0003d0 4d 5b ce bc e5 4e 9a bd 45 11 ca bd 3a be 80 bd
       -0.02519002 -0.07534579 -0.09866575 -0.06286283
0003e0 df 77 c0 bd cd 7c 1b 3d e7 2e 06 3d ad 3c e4 bc
       -0.093978636 0.037960816 0.032759573 -0.027860964
0003f0 f5 30 a4 bd 8d fa cb 3d 13 b8 8b 3d 1a 1b 33 3d
       -0.0801715 0.09959898 0.06822219 0.043727018

fc_layers.0.bias f4 [128]
000000 e7 62 66 3d b3 58 da 3d b3 49 9a bd e2 44 93 bd
       0.056246664 0.10661449 -0.07533588 -0.07190873
000010 b2 70 41 bd f3 f7 4f bc 8f 9a da 3d 61 c1 39 bc
       -0.047226615 -0.012693393 0.10674011 -0.011337609
000020 b8 6d a3 3d 1a 1f 89 3d 3d 5c 24 bd ab a0 94 3d
       0.079799116 0.06695385 -0.040127028 0.072572075
000030 4b 8b 06 3d 83 c3 83 3d 85 a7 97 b8 8a 82 7a bd
       0.032847684 0.06433775 -7.231444e-05 -0.061159648
000040 be e1 01 bd 03 5c 2d bd 30 91 8f bd ad 52 97 3d
       -0.031709425 -0.042324077 -0.07010114 0.07388816
000050 55 80 8c 3c 9c 07 d5 3d 13 65 6c bd 5a 32 b2 3d
       0.017151037 0.10401842 -0.05771358 0.0870101
000060 49 24 b2 bd 1c 4b 4b bd 47 39 8d bd 0d 65 e2 bc
       -0.08698327 -0.049632177 -0.068956904 -0.027636075
000070 35 ef 79 bd f0 55 96 3d 68 b8 6f bc e7 0c 50 bc
       -0.06101914 0.0734061 -0.014631368 -0.012698389
000080 d3 14 b2 bc da 72 8e 3d de 08 f1 3d 40 d0 80 3d
       -0.021738445 0.069555 0.117692694 0.062897205
000090 ec 2a 62 3d 97 cf 8b 3d 62 cd 36 3d ee 90 4f 3c
       0.055216715 0.06826704 0.044629462 0.012668831
0000a0 a5 63 29 bd ac e6 d7 bd 8b 57 e4 3c ca 51 a1 3d
       -0.041354794 -0.10542044 0.027873775 0.07876928
0000b0 5c 3d 5e bd 3a 50 81 bd 87 1a 05 3d d4 f6 a7 bd
       -0.054257736 -0.0631413 0.032496 -0.082013756
0000c0 e7 7f 6e bc 98 f0 1b 3d 38 74 ad 3d 6a cc 42 3d
       -0.0145568615 0.038071245 0.084694326 0.047558226
0000d0 3d b0 29 bc 2a d1 55 bd 5a 8e 63 bd b8 66 c4 3c
       -0.01035696 -0.052201428 -0.05555568 0.023974761
0000e0 0b 90 30 bd e3 80 96 bb d0 0e d4 3c ad 2f 55 bd
       -0.04310612 -0.004593001 0.02588597 -0.05204742
0000f0 33 2d 0f bd 4a 4c 80 bd a9 3a 8d 3d 35 b1 2d bd
       -0.034955215 -0.06264551 0.06895954 -0.042405326
000100 d3 c2 97 bd 09 21 31 3d 45 d1 97 3c e0 e2 04 3c
       -0.07410207 0.043244395 0.018532405 0.008110732
000110 14 d4 d3 bc 80 f8 8e 3d 07 b4 80 3d a0 08 b2 3d
       -0.025857963 0.06980991 0.062843375 0.08693051
000120 85 71 a1 3d 14 84 c0 bc bc 9f 23 bc 8c 7a 9d 3d
       0.0788298 -0.02350048 -0.009986814 0.076893896
000130 56 9b 67 3d cc 4c f2 bc 27 e3 d5 3c c6 ab af 3d
       0.056544624 -0.029577635 0.026109291 0.08577685
000140 23 50 8c bd b1 4c 21 3d ef 52 8e bd 65 f8 9c 3d
       -0.06851222 0.03937978 -0.06949412 0.07664565
000150 5a b1 bb bd 70 3b 8d 3d ec a0 d2 bd c7 df d2 bd
       -0.091646865 0.068961024 -0.102846 -0.102965884
000160 cc 95 cc 3d 47 90 9d 3d 1d 24 81 3d 4a f7 c3 bd
       0.09989509 0.07693534 0.06305716 -0.09568651
000170 20 9a aa 3d 9d c6 5d 3d ec 90 4c 3d e7 10 9b bd
       0.08330178 0.05414449 0.049942896 -0.07571583
000180 2a b2 a0 bb 25 b9 92 bd 87 a7 13 bd 25 f7 d1 bd
       -0.0049040513 -0.0716422 -0.03604844 -0.10252217
000190 62 94 a0 bd 3d f1 b5 bc ed 8b d5 3c b6 a4 99 bc
       -0.07840802 -0.022209758 0.026067698 -0.018755298
0001a0 8e f7 e2 bd 79 c9 c4 3b c7 9c 74 bd 8f 9f 30 3d
       -0.110823736 0.0060054627 -0.059719827 0.043120917
0001b0 bc 07 31 bb a5 32 59 3d 93 39 fd bc 2c 91 db bd
       -0.0027012667 0.053026814 -0.030911243 -0.10721049
0001c0 26 21 b2 bc d8 24 da 3d ff 0b c3 bd 1e 0a 8d 3b
       -0.021744322 0.10651559 -0.095237724 0.0043041846
0001d0 be 84 33 bd de 70 28 3d e2 ed 31 bd cb 2a 62 bd
       -0.043827765 0.041123264 -0.043439753 -0.05521659
0001e0 13 8f cc 3c 72 ca f0 3d 76 2c a6 bc d7 a3 99 bd
       0.024970567 0.117573634 -0.020284873 -0.07501953
0001f0 88 19 85 bd 57 52 80 3d 8b 88 bb 3d 99 ad 6d 3d
       -0.0649901 0.06265705 0.09156903 0.058026884

fc_layers.2.weight f4 [1, 128]
000000 54 e7 8f 3c fc 16 1c 3d 2e d0 83 3d e2 5b 85 3d
       0.01756636 0.038107857 0.064361915 0.06511666
000010 d4 60 b0 3d b9 15 63 bd cd 46 9f 3d 67 e7 3b bd
       0.086122185 -0.05544064 0.07777176 -0.04587498
000020 3f ec 68 bd fb 4c 88 bc a9 47 0d 3d 8f 57 67 bd
       -0.056865927 -0.01663827 0.03449217 -0.056479987
000030 9c be ce 3c 11 95 7f bd 22 f8 aa 3b 88 6b a8 bd
       0.025237374 -0.06239802 0.005217568 -0.08223635
000040 91 97 62 3d 50 0a a1 bd a8 e4 59 3d cb dc 91 bc
       0.055320326 -0.07863295 0.05319658 -0.017805478
000050 7b a9 83 3d 6e 24 2b 3d ef ff 51 3d db 9c 3a bd
       0.0642881 0.04178279 0.051269468 -0.045559745
000060 a9 92 91 bc 84 03 6e 3c bb 59 4d bd bd c5 88 3d
       -0.017770128 0.014527205 -0.0501344 0.066783406
000070 a8 97 c3 3d bd c6 be 3c 4d 2b 7a bd 3c ec c7 3c
       0.095504105 0.023288125 -0.06107645 0.024404638
000080 d5 e4 9f 3d c9 84 f5 bb c8 c1 6e 3d 87 16 aa 3d
       0.07807318 -0.007492636 0.058290273 0.08305078
000090 4d 4c 78 bd 98 09 8a 3d 06 75 ca 3d 59 da b0 3b
       -0.06061964 0.06740111 0.09885602 0.005397123
0000a0 a0 18 68 bd f8 10 65 bd 71 99 7d bd e4 fa 91 bd
       -0.05666411 -0.055924386 -0.06191391 -0.07127932
0000b0 69 fd bc bc db da 52 3d a0 3f b1 3d 6a 87 97 bd
       -0.023070054 0.051478248 0.08654714 -0.07398875
0000c0 2b 79 72 bd 4e 50 af 3d ad 7a ab 3d 0e 6f 11 bd
       -0.059197586 0.08560239 0.08373008 -0.0355063
0000d0 48 4b d6 bb cf 04 97 bd 0d b4 6f 3c 42 7e 9d bc
       -0.006539736 -0.07373964 0.01463033 -0.019225243
0000e0 60 c6 63 bd 4a b6 d3 3d 3e d1 da bc 60 57 45 3d
       -0.055609107 0.10337503 -0.026711103 0.04817903
0000f0 10 65 78 bd cc aa 86 bd cd a8 d3 3c 29 0e 4b bd
       -0.060643256 -0.06575546 0.025837326 -0.04957405
000100 45 98 e5 3c 77 1d ac 3d cf 13 f8 bc 57 12 b9 3d
       0.02802671 0.084040575 -0.030282883 0.09036701
000110 52 24 e7 3a bd 9a 91 bd 14 94 9d 3c 84 3c 54 bd
       0.0017634726 -0.07109592 0.019235648 -0.051815525
000120 05 fe c7 3d ad 35 8f bd 2c 10 7b 3d 78 b3 21 3d
       0.09765247 -0.0699266 0.06129472 0.039477795
000130 0f 9f 71 bc ba 09 d8 bc 83 67 48 3d 13 f3 a8 3d
       -0.014747395 -0.026371825 0.04892684 0.08249488
000140 44 e9 b3 3d be ce c9 3d 9f ae 87 bb 84 64 77 bd
       0.08784726 0.09853886 -0.0041406895 -0.060398594
000150 1f f8 58 bd d2 1d c5 3d 7d 0f 88 bd 13 e2 30 bd
       -0.052971 0.096248284 -0.06643579 -0.04318435
000160 c0 c2 99 3d 6c 75 4f 3c 78 9a a1 bc 3b d1 0c bd
       0.07507849 0.012662273 -0.019726977 -0.034379225
000170 e0 70 2d 3d d0 c3 a5 bd 04 f8 05 bd e0 4c b9 bc
       0.042343974 -0.08093989 -0.03270723 -0.022619665
000180 21 3b 8f 3b 57 b0 45 3d 11 2d 72 bd 60 18 83 bd
       0.0043710624 0.048263874 -0.05912501 -0.064011335
000190 45 09 00 bb ba c5 df 3d 02 32 58 bd 00 e5 7c bd
       -0.0019536775 0.10926385 -0.052782066 -0.06174183
0001a0 8d ec 8c bd d0 f5 6f bd 1c 41 4e bd 66 c3 1c 3c
       -0.06881056 -0.058584034 -0.050355062 0.009568071
0001b0 f5 a2 d4 3d 6b 11 8d bd 74 de 1b bd 3f aa 31 bd
       0.10382644 -0.06888088 -0.038053945 -0.04337525
0001c0 81 39 93 ba a8 3d 0f 3d 0d d3 ac 3b c5 69 0e bc
       -0.0011232347 0.03497091 0.0052741827 -0.00869221
0001d0 5a dd 91 3d 16 f3 ea 3c f7 41 34 3d 9c 60 ed 3c
       0.071222976 0.028680366 0.04400822 0.028976731
0001e0 2e 67 48 bd 94 d6 87 3d 8e 17 41 bd 03 d8 91 bd
       -0.048926525 0.066327244 -0.047141604 -0.07121279
0001f0 00 fb 3b 3d 72 94 3a bc 4c 64 8c 3d 75 65 bd 3c
       0.04589367 -0.011387931 0.068550676 0.023119668
