ncf_model.pth (torch, 65564 bytes, 5 tensors)

user_embedding.weight f4 [4, 50]
000000 8d e7 84 be b1 10 c2 3f 3e bb 32 bf a0 eb de be
       -0.2595791 1.5161344 -0.6981696 -0.43539143
000010 d0 d4 0d bf ba 4c aa bf e1 f8 bb bf cd 99 d6 3e
       -0.5540285 -1.3304665 -1.4685327 0.41914216
000020 a8 61 99 3f c5 f7 1e 3f c4 f2 3f 3f 0e 2c 83 3c
       1.1982927 0.62096816 0.74979806 0.016012218
000030 62 e1 01 c0 de 1f 80 3f 89 86 8a 3f 15 13 df 3d
       -2.0293813 1.0009725 1.0822307 0.108923115
000040 50 3c 10 3f 19 b2 32 bf 91 1a db be b6 ba 97 bf
       0.5634203 -0.69803005 -0.42793706 -1.1853855
000050 d8 e3 39 3f c9 97 c4 3d 35 da 60 bc ab 3f 37 3d
       0.72613287 0.09599263 -0.0137239 0.044738453
000060 e2 a0 fb be 7a c3 3e c0 65 5c d4 3d 8a 85 aa 3f
       -0.4914618 -2.980681 0.10369185 1.3322003
000070 69 70 e3 3f 61 de 77 3f 97 90 81 bf 76 81 a6 3e
       1.776868 0.968237 -1.012225 0.32520646
000080 b0 62 66 3f 88 0d 23 3f 6a f9 0f bf bc f4 8c 3f
       0.89994335 0.6369252 -0.5623995 1.1012187
000090 79 fa 7f 3d f8 b8 e4 3f 6c c6 92 3f 09 4b b8 3f
       0.06249473 1.7868948 1.1466804 1.4397899
0000a0 7b 80 d1 3e 78 81 58 3e a4 fc b2 be 87 94 e8 3f
       0.40918335 0.21143138 -0.34958375 1.8170327
0000b0 4a 3e c8 3e 87 1e dd be 98 8c 5e bf d5 68 d4 bd
       0.39110023 -0.43187353 -0.8693328 -0.103715576
0000c0 70 6a 0f 40 a4 34 ad bf d7 2a 5b bf 00 62 b3 3f
       2.2408714 -1.353169 -0.85612243 1.4014282
0000d0 d8 ee b3 3f 3f a5 f3 bf 65 ea 86 3f c0 a3 ec be
       1.4057264 -1.9034804 1.0540282 -0.4621868
0000e0 1f de ad 3f c0 92 a9 3f 7b 53 82 bf 6f db 03 bf
       1.3583411 1.324791 -1.0181726 -0.51506704
0000f0 b8 f7 c9 bc 69 ef ae 3f 5c 7c 84 3f 24 ee 38 3f
       -0.024654254 1.3666812 1.0350451 0.72238374
000100 db 1c cb be 12 bd a0 bf 79 6b 22 3f 2d a9 ff bd
       -0.39670452 -1.25577 0.6344524 -0.124834396
000110 c0 ea 91 3f f0 b1 88 3d af 9a 1c 3f 6a ab 81 3f
       1.1399765 0.06674564 0.6117353 1.0130436
000120 5b b3 db 3f 84 93 99 bf 47 ab a3 bf fb cb 3a bf
       1.716411 -1.1998143 -1.2786645 -0.729675
000130 ec f4 87 bf 3c fe de bd eb dc 04 40 fb 8b 10 3f
       -1.0621619 -0.10888335 2.0759838 0.56463593
000140 bb 9e 23 bf 58 e3 16 3f 5e ac 76 bf c9 4b c8 3d
       -0.6391408 0.5894065 -0.9635676 0.0978008
000150 5a ea a0 3f 22 9e 90 be 88 8f b2 3f fb 51 8f bf
       1.2571518 -0.28245646 1.3950052 -1.1196893
000160 32 0c 89 3f 05 c3 1b 3f 7c cf 29 bf c5 3d ae 3e
       1.0706847 0.6084445 -0.6633222 0.340315
000170 7e 36 fd be 5e 82 c6 bf 84 8d 9c be 22 8d 26 3f
       -0.49455637 -1.5508535 -0.30576718 0.650591
000180 b5 96 65 3e c0 c3 46 bf 4a b3 68 be d8 78 1e c0
       0.22420771 -0.7764244 -0.22724643 -2.4761257
000190 06 3b 16 bf f3 66 b0 3f da 03 02 bf 8a d6 50 3f
       -0.5868381 1.3781418 -0.50787127 0.8157736
0001a0 04 fc 06 bd 53 72 77 3e c0 eb e5 3e ef b7 99 bf
       -0.032955185 0.24164705 0.44906425 -1.2009257
0001b0 ba ad 8b 3f 13 63 a9 be 6b 19 95 be c5 30 09 3f
       1.0912392 -0.330834 -0.29120955 0.5359004
0001c0 f3 0e 24 3f 3a 24 04 bd 10 0a fe be 48 b5 a0 3f
       0.6408531 -0.03226111 -0.49617052 1.2555323
0001d0 bf 16 6a bf c2 eb 55 3e 0c 79 67 bf a3 3a 8c 3f
       -0.9144096 0.20890716 -0.9041908 1.0955395
0001e0 ec 13 9e 3f d4 4d b4 3f 93 f5 54 3f 1d ad 07 3f
       1.234983 1.4086251 0.83187217 0.52998525
0001f0 4c e8 17 bf 85 6d 0d bf 80 b6 43 b9 c8 52 08 3e
       -0.5933883 -0.5524524 -0.00018664636 0.13312829
000200 db 4b 97 3e 18 fb a6 bf 70 f9 94 3e bc f9 bc 3e
       0.2955006 -1.3045378 0.29096556 0.36909282
000210 cb 59 01 40 db 31 b2 3f b6 f0 8a be 7e a4 17 3f
       2.0211055 1.3921465 -0.27136773 0.5923537
000220 56 2d 2d 3f 37 45 19 3f be 52 aa 3e 17 a9 82 bf
       0.676473 0.5987124 0.33266252 -1.0207852
000230 5f 4f 94 3e 08 3e 03 bf 24 ab 9a bf 1d d6 7f bf
       0.28966805 -0.5126653 -1.2083478 -0.99936086
000240 0b 88 0c bf 2a 48 ae 3d c9 40 ee 3e 4f 3e a6 3f
       -0.54895085 0.08509858 0.46533802 1.2987765
000250 c6 55 ae bf a6 b6 a3 bf b9 10 4d bf 46 b2 51 3c
       -1.3619926 -1.2790115 -0.8010364 0.012798851
000260 35 13 08 bf f3 c1 3d 3f dd c3 29 bf 4a fe 4d be
       -0.5315431 0.7412407 -0.6631449 -0.20116535
000270 e2 c3 0a 3d 74 f0 f3 be fd dd 2e bf 61 e3 cc 3e
       0.033878215 -0.4764439 -0.6830748 0.40017226
000280 7d 00 66 bf 48 b7 6d 3f ad aa d7 bf 5d c9 a7 3e
       -0.89844495 0.9285779 -1.6848961 0.32770815
000290 e1 f9 e5 3e c0 05 af bf aa 68 4c 3f 10 db a9 3f
       0.44917205 -1.367363 0.79847205 1.3269978
0002a0 6c e6 d2 be 94 2f 80 3f ac ca ee bd 54 7d bd be
       -0.41191423 1.001452 -0.1165975 -0.3700968
0002b0 5c 8c ea bf 2d c1 01 3e 6a 57 55 3f 78 68 11 bf
       -1.8324084 0.12671347 0.8333651 -0.5680003
0002c0 8a 0f 2d 3f 23 87 1d bf e9 df 97 3e cf b2 65 bf
       0.67601836 -0.6153433 0.29663017 -0.89725965
0002d0 68 f1 67 3d 1c 9d 54 3e 0b 1c 13 3f 19 1c 1b 3e
       0.056626707 0.20763057 0.57464665 0.15147437
0002e0 06 90 39 3e 99 e3 43 bc ad b2 4d bf 05 ea 9a 3f
       0.18121347 -0.011956119 -0.8035076 1.2102667
0002f0 b5 de 92 3f 6c e2 62 be 38 44 b5 be 3c 61 98 3f
       1.1474215 -0.22156686 -0.3540361 1.1904674
000300 a3 16 8a 3f db c8 26 bf 40 5b 4c bf ae 4a 60 3e
       1.0788158 -0.6515023 -0.79826736 0.21903488
000310 6e a3 d7 3b 42 c0 95 3e a1 bc 89 3e b0 5e bd 3e
       0.0065807616 0.29248244 0.26901725 0.36986303

item_embedding.weight f4 [49, 50]
000000 b9 5a e0 3f 5d 0e c3 3d 2f 1b b7 3d 91 e2 31 bf
       1.7527686 0.09524224 0.08940732 -0.6948634
000010 f4 55 fa 3e ed dc 8d 3f c6 bc 34 be 45 a8 1c 3f
       0.48893702 1.1083046 -0.17650136 0.6119426
000020 ea c9 9e 3f fa 04 d1 bf ca a1 5e be fa 1b 33 3f
       1.2405369 -1.6329644 -0.21741405 0.69964564
000030 c4 14 d5 3e d8 2f 11 c0 9c ce 5b bf ed 90 9d 3f
       0.41617405 -2.2685452 -0.85862136 1.2309853
000040 77 c7 88 3e d8 b7 27 be c9 95 89 3d 7a e3 93 3e
       0.2671468 -0.16378725 0.067180224 0.28884488
000050 11 bb 1c bf 63 6c 8c 3e 59 4c 5c 3f cd 54 27 bf
       -0.6122294 0.27426443 0.86054 -0.6536377
000060 b3 82 98 3e ad 55 86 3f 50 6d 45 bf 26 cd ef 3f
       0.29787216 1.0494896 -0.7711992 1.8734481
000070 27 bc a2 bf 91 9e 3c 40 d5 1a e0 3e df 66 48 3f
       -1.271367 2.9471781 0.4377047 0.7828197
000080 ba 6a ee 3e 30 9c 9e 3f 81 14 33 3d 44 e7 6f 3f
       0.465658 1.2391415 0.043720726 0.9371226
000090 6b 57 94 be 0e a6 3f 3f 5a a7 3b bf a7 f6 72 3f
       -0.28972945 0.74862754 -0.73302233 0.9490761
0000a0 b2 09 51 3f 3f 66 d0 3f 67 a8 96 3d 29 a5 88 3f
       0.8165542 1.6281203 0.07356339 1.0675403
0000b0 c8 68 3e be 0a bb a0 bd c3 89 f8 bf 04 73 4b bf
       -0.18594658 -0.07848175 -1.9417042 -0.79472375
0000c0 18 6d b5 bf 98 6f b2 be 8a 31 5b 3f f7 be 7c 3f
       -1.4173918 -0.34850764 0.85622466 0.9872889
0000d0 da 69 d5 3f 45 69 1b c0 bf 56 e4 be a6 b7 33 bf
       1.6672928 -2.4283001 -0.44597432 -0.702021
0000e0 4f f8 12 3f 8d 2b b9 3f 86 09 7c bf 47 06 e3 3f
       0.5741014 1.4466416 -0.9845203 1.7736291
0000f0 31 d1 1a c0 3f cc e2 3e 6c 86 52 3e 28 96 34 3f
       -2.419018 0.44296452 0.2055909 0.7054162
000100 a3 cc 4f bd 45 88 ff bf ab 2a e5 3d f4 f6 b5 bf
       -0.050732266 -1.9963461 0.11189779 -1.4215989
000110 42 30 56 3f fd 95 9a 3f ac 01 8a be ea 0b c3 3e
       0.83667386 1.2077023 -0.269544 0.38095027
000120 23 c1 ab 3f 80 68 21 be 04 60 fa bf 50 5a 0b bf
       1.3418316 -0.1576252 -1.9560552 -0.5443468
000130 93 4a d1 bf 94 7b 8d 3e 38 f8 ea be a2 e4 40 3f
       -1.6350883 0.27633345 -0.458925 0.75348866
000140 4d bf 18 be e8 31 38 bf 2b d7 40 3f 32 d5 88 3f
       -0.14916725 -0.7195115 0.7532832 1.0690062
000150 f0 e7 2c bf 6a d5 c2 3e 12 8d 37 3f 03 c7 dc 3f
       -0.6754141 0.38053447 0.7169963 1.7248234
000160 82 9d db bf b6 bf 72 3f 68 a1 f3 3f c4 13 b0 3e
       -1.7157443 0.9482378 1.9033632 0.3439008
000170 cf 6f 5e be 8e 0d 4d be 67 fd a5 3f 3c ff 55 3f
       -0.21722339 -0.20024702 1.2967957 0.8359258
000180 2d d9 29 3f 6f 72 08 3f e3 0b e6 be 51 3b ef 3f
       0.6634701 0.5329961 -0.44930944 1.8689977
000190 d3 4f b6 3f e8 98 07 bd c9 a9 77 bf 34 0f 84 3e
       1.424311 -0.033104807 -0.96743447 0.2579285
0001a0 24 2a 01 c0 df 33 a5 3e 65 78 8b 3f ab e9 c6 bf
       -2.018197 0.32266137 1.0896116 -1.554006
0001b0 d3 af 32 3f 74 39 36 bf c3 ed 4f bf 8e af 64 bf
       0.69799536 -0.71181417 -0.8122217 -0.89330375
0001c0 0f 65 2a bf b4 2d 01 bf cb 1a 3f be 75 4b ef be
       -0.66560453 -0.5046036 -0.18662564 -0.46737257
0001d0 45 b5 2e bf 14 94 24 c0 42 94 c7 3d 3f ef e7 be
       -0.68245345 -2.571538 0.09745075 -0.45299718
0001e0 2e 9d bc 3f 1f 23 81 bf fe 1b 1c 3f 35 88 df 3e
       1.4735467 -1.0088843 0.6098021 0.43658605
0001f0 96 1a 60 3f 64 e6 a3 bf ce 7a 83 3e 50 bf 29 bf
       0.87540567 -1.2804685 0.2567963 -0.66307545
000200 2a 4d 9d 3f 98 94 11 3e 8c 5c 30 3f 15 18 20 3d
       1.2289174 0.1421684 0.68891215 0.039085466
000210 58 68 95 3e d2 a3 ba 3f 16 4a c3 3f b9 ba 63 bf
       0.2918117 1.4581244 1.5256984 -0.8895679
000220 f7 83 80 be 08 95 76 bf 2e 41 8c 3e 34 0c 75 3f
       -0.2510068 -0.96321154 0.27393478 0.95721745
000230 fe 06 1e 3c 0f c4 63 3f 32 94 f7 3e 4a da b1 bf
       0.009645222 0.88971037 0.48355252 -1.3894742
000240 0a 5f 6b bf 9c 20 f4 bf 45 9a e7 3e 29 a8 cc 3f
       -0.91941893 -1.9072452 0.45234886 1.5988818
000250 71 22 8b bf cd c7 8f 3b 3d 56 c8 3e 02 e7 a1 be
       -1.0869886 0.004387832 0.39128295 -0.31621557
000260 01 0c 06 be 64 09 e5 3e 44 11 b1 bd f8 0d 95 3f
       -0.13090517 0.44733727 -0.08645871 1.1644888
000270 0b 11 87 3f a8 4f dc bd 6e 9b 5f 3f c7 0b 50 bf
       1.0552076 -0.10757381 0.8734654 -0.8126797
000280 ce 63 7d bf 7c a8 8c 3d db 4f 41 3f 8e 52 62 3f
       -0.98980415 0.06868073 0.75512475 0.8840722
000290 79 7a 7f bf 88 b0 4e 3f 79 4f 52 40 f5 0e 68 bf
       -0.99796253 0.80738115 3.2861006 -0.9064782
0002a0 4e cf 16 bf 77 a0 80 bf 43 af 87 bf 78 11 b4 3f
       -0.5891007 -1.004897 -1.0600361 1.4067831
0002b0 86 9c 7b 3f 9e ff 9e 3e 1d 6f 3d 3f b4 36 81 3f
       0.9828571 0.31054395 0.7399767 1.0094819
0002c0 e6 82 e3 bf b3 64 93 bf b0 11 2f bf f4 47 a8 be
       -1.7774322 -1.1515106 -0.68386364 -0.32867396
0002d0 99 dd c8 bf ff e5 27 3f 46 a5 d2 bf 4d 31 cc bf
       -1.5692626 0.6558532 -1.6456687 -1.5952545
0002e0 65 7f bf 3e e3 ba fc be c7 68 86 3f 10 b4 8d be
       0.37401882 -0.49361333 1.0500726 -0.2767644
0002f0 a1 05 a2 3f ef b8 b0 bf 62 d5 0a bf 6d 11 22 3f
       1.2657968 -1.3806437 -0.54231846 0.6330784
000300 0d ab 04 be 76 5c 01 bf c8 af 1f bf 62 a1 8c 3e
       -0.12955876 -0.5053171 -0.62377596 0.27466875
000310 cd 7a cb 3f 1c 03 e9 bf ad 0e f9 3e fa e7 96 bf
       1.5896851 -1.8204074 0.4864401 -1.1789544
000320 aa a1 f6 3f f9 21 1a 3d 99 4b 85 be 89 87 4e bf
       1.9268086 0.037630055 -0.2603424 -0.8067556
000330 b0 e0 89 bf 53 85 13 3f a2 19 8c be ff de 3f bf
       -1.0771694 0.5762531 -0.27363306 -0.7494964
000340 05 30 b7 3e ad ab 40 3f 3c fc 55 3f 21 cd 3d bf
       0.35778823 0.75261956 0.83588004 -0.74141127
000350 07 b8 c2 be 1f 34 fc 3e 05 8c 8f 3f e3 ea 04 be
       -0.38031027 0.49258515 1.1214606 -0.12980227
000360 c5 0c 1a 3f 12 83 cc bf ac 46 10 be 66 a8 86 bf
       0.60175735 -1.59775 -0.14089459 -1.0520141
000370 43 f6 f4 bf 3c 9b 94 bf c4 5f 9d bf 00 11 a8 3f
       -1.9137653 -1.1609874 -1.229485 1.3130188
000380 4a a2 8a 3f f5 60 d2 3a 73 cd c3 be ba f9 9a 3f
       1.0830777 0.0016050624 -0.38242683 1.210746
000390 8d 5d ae 3e aa a6 88 3e 6e 56 18 bf 7a dd 34 3f
       0.3405575 0.26689655 -0.5950688 0.70650446
0003a0 52 c3 f8 3c 86 27 77 3f d3 20 5c bf af 6d 14 bf
       0.030366573 0.9654468 -0.85987586 -0.57979864
0003b0 0e 82 64 bf ee c8 9e 3d 71 cb b5 3f 13 7c a9 be
       -0.8926095 0.07753168 1.420271 -0.33102474
0003c0 a1 17 9d 3f e3 75 76 bf e2 73 00 c0 42 ca 0d 3e
       1.2272836 -0.9627363 -2.007073 0.13846686
0003d0 b0 6b 08 3f 09 b9 0c 3d e3 5e a5 be fa 06 d4 bf
       0.5328932 0.03435615 -0.32298955 -1.6564629
0003e0 da c1 a2 3d f4 3f 11 40 03 22 8e 3f 25 30 2b 3f
       0.079471305 2.2695284 1.110413 0.6687034
0003f0 67 0b 0b c0 28 67 81 bf f9 22 91 3f 2b 71 8d 3f
       -2.172571 -1.0109606 1.1338798 1.1050161

fc_layers.0.weight f4 [128, 100]
000000 1d 8e 68 bd b9 2d b1 3d 04 68 d5 bd 25 df e7 3c
       -0.056776155 0.08651299 -0.1042023 0.028304646
000010 db 26 8c bc ed 7a 6d bd d2 c9 7c bd 7f 1e 42 bc
       -0.017108371 -0.05797856 -0.06171591 -0.011848091
000020 ee 7d bc bb e4 74 8a 3d 26 f3 5b bc d7 a4 77 3d
       -0.0057523167 0.06760576 -0.01342467 0.060459938
000030 21 e7 d3 bc 1b 5b 6c 3d 01 00 46 3d a8 ac 64 bc
       -0.025867047 0.057704072 0.048339847 -0.01395718
000040 eb 4c 33 3d 3d 08 9e bd 95 ad e0 bd 7f 5d 1a bd
       0.043774527 -0.07716415 -0.10970608 -0.03768682
000050 b4 13 24 3d 3a 4f 38 3d 68 8f 5b bd 4d bf 1a bd
       0.040057853 0.04499743 -0.05360356 -0.037780095
000060 7d 67 03 3d 5a 67 91 bd b2 f4 98 bd e3 85 1e 3d
       0.032081116 -0.07099791 -0.07468547 0.038701903
000070 f9 63 1f bd 5d 90 88 3d e8 3d f5 bc d6 2d 12 bd
       -0.0389137 0.0666816 -0.029936746 -0.035688244
000080 9c 99 9f bd d0 62 83 bd 5f 61 63 bd da 6a a8 3d
       -0.077929705 -0.06415331 -0.055512782 0.08223505
000090 e0 8e 79 3d 86 08 2d bd 15 31 3b bc cf 54 3a bc
       0.06092727 -0.042244457 -0.011425276 -0.011372759
0000a0 ca ef ab 3d 50 58 c4 3b 2e e0 e9 bc 37 d8 a7 bc
       0.083953455 0.005991973 -0.02854928 -0.020488841
0000b0 9d 27 d7 3d 93 3f 89 3d 4c 2b e1 bd 53 32 d4 bd
       0.105056025 0.06701579 -0.10994586 -0.10361161
0000c0 8f 44 a0 bc 83 0a da 3c 17 6f bd bc 79 a2 c4 3d
       -0.019563941 0.02661634 -0.02312426 0.09601302
0000d0 dc 63 ef 3c 2c f9 a4 bd f1 13 8d bd fd c7 d6 3d
       0.029222421 -0.08055338 -0.06888569 0.104873635
0000e0 54 91 51 3d 2a 49 91 3d 5e 9d 90 bd 22 f0 a1 bc
       0.051163986 0.07094033 -0.070612654 -0.019767825
0000f0 d0 d3 79 bd af e8 04 3d 9d 99 a4 bc f6 99 73 bd
       -0.060993016 0.032448467 -0.02009278 -0.059473
000100 74 fc b9 bd bd ce 4f 3a b7 71 7e bd ca 1a 2f 3d
       -0.09081355 0.000792723 -0.062120166 0.042750157
000110 da e2 b5 bd f8 af d3 bd 7b 39 a9 3d 6a ba 50 bd
       -0.08881159 -0.10336298 0.08262917 -0.05095903
000120 d0 a7 16 3d 37 e4 95 bd ec 93 cd 3c 14 3a 75 bd
       0.036781132 -0.07318919 0.025094949 -0.05986984
000130 81 68 96 bd 57 2d 12 bd 10 9c 7b bd 2d 1f cd 3d
       -0.07344151 -0.03568777 -0.06142813 0.10015712
000140 51 a9 cd bd db 92 e0 bc fd ee ab bd 39 ef ac 3c
       -0.1004206 -0.027413776 -0.08395193 0.021110164
000150 c3 68 4f 3d d2 16 98 3d a1 74 64 bd f1 5a ec 3c
       0.050637018 0.07426228 -0.05577529 0.028851958
000160 8a 69 24 bd 82 b1 d9 3d ac a1 89 3d a1 9d 92 3d
       -0.040139712 0.1062956 0.067202896 0.071589716
000170 16 81 36 3d e2 d2 9e bd 97 79 c5 bd bb ba 85 3d
       0.0445567 -0.077550665 -0.09642332 0.06529757
000180 0d 8c 33 bd b5 d3 dc 3d e2 34 65 bd 1d 1c 3a 3d
       -0.043834735 0.107825674 -0.055958636 0.045436967
000190 07 08 87 bd 65 bf ab 3d 21 23 f4 bc cf a8 6b 3d
       -0.06593328 0.08386115 -0.029801907 0.057534035
0001a0 dc b0 fa bc cb 1f bb bc d2 97 90 bd a7 24 d1 bb
       -0.030601911 -0.022842309 -0.070602074 -0.006382543
0001b0 0f 0b 74 3d a6 b8 8a 3d b1 63 cb 3d a0 0f 33 bd
       0.05958086 0.067735 0.09931124 -0.043716073
0001c0 80 11 dd bd 5b 58 12 bc 73 30 d0 3d db d5 86 bd
       -0.107943535 -0.008932198 0.10165491 -0.065837584
0001d0 93 48 bc 3d cc d1 ad bd 22 12 2e bb 7d 1f d1 3c
       0.0919353 -0.08487281 -0.00265611 0.02552771
0001e0 a5 6a 99 bd 11 bd 38 bd 06 46 ba 3d 87 8a 9d 3d
       -0.07491044 -0.045102183 0.09095387 0.076924376
0001f0 4e 9c 89 3b 5e 63 e7 bd 89 f9 d7 3c 0b f4 8f 3d
       0.004199541 -0.1129825 0.026364105 0.070289694
000200 80 0b 81 3b c9 cc 97 bd d8 c4 1e bd e0 8c 87 bc
       0.0039381385 -0.074121065 -0.038761944 -0.016546667
000210 68 7f 58 3d c7 e4 84 3b 21 e6 71 bd 71 4d b4 3c
       0.05285588 0.0040555927 -0.05905736 0.022009583
000220 cb d2 e8 3d 1b 73 29 bd 2c f4 77 3c 12 e0 06 bc
       0.113683306 -0.04136954 0.015133899 -0.008232133
000230 d7 79 8b 3d be b7 a6 bc d4 a2 f5 3c cb 37 a0 3d
       0.068103485 -0.020351287 0.029984869 0.07823142
000240 36 1a 0c bc 45 6a 79 bd 60 4b 02 bc aa 06 32 3b
       -0.008551171 -0.060892362 -0.007952541 0.0027164617
000250 f8 08 45 bd 45 7c 1f bd 89 a7 65 3c 5a a4 ed 3b
       -0.048104256 -0.038936872 0.014016994 0.0072522582
000260 9a f8 8f 3b 47 6a 78 bd bd 1a 47 bd 7e 68 9a 3c
       0.0043936493 -0.06064823 -0.048609484 0.018848654
000270 e4 26 4c bd 0e 2f b2 bd 6d 7a 04 3d 1f 37 3b bd
       -0.049841776 -0.08700381 0.032343317 -0.045706864
000280 6a 17 a2 3b d4 c0 49 3d 61 d2 66 3d 24 bd aa bd
       0.004946639 0.04925616 0.056352977 -0.08336857
000290 4c 27 9f bd 03 e9 aa 3d 05 8b ea 3d ab 58 54 3d
       -0.07771167 0.08345225 0.11452297 0.051842373
0002a0 1a 17 75 3c 0f 35 29 bc 63 51 3f 3d f6 7c 81 bd
       0.014959121 -0.010327592 0.046708476 -0.063226625
0002b0 c8 82 97 bd 5e 82 b0 3c 37 6f d1 bd 4f 28 b8 3d
       -0.073979914 0.021546539 -0.10226291 0.08992063
0002c0 3f 3b 9a bd 2d d2 c0 3c 40 3f d0 bc c6 04 8d bd
       -0.075308315 0.02353772 -0.025420785 -0.06885676
0002d0 6b 65 ec bd 36 1b 67 3d 9e a7 31 3c 3b e7 ad 3d
       -0.115427814 0.056422435 0.010843186 0.08491369
0002e0 1b 67 ef bd 40 6f 16 bc 9a 02 be 3d 09 ce 23 3d
       -0.11689588 -0.0091817975 0.0927784 0.039991412
0002f0 49 a4 25 3d 98 9a ae bd 10 eb 8a 3d 53 38 e5 3d
       0.040439878 -0.0852558 0.06783116 0.111923836
000300 de 31 9a bb f8 49 ea bd ec d1 5e bc 3e d9 0b bd
       -0.0047056517 -0.1143989 -0.013599854 -0.034142725
000310 14 63 96 bd 76 e7 c3 bd 10 a1 cc bd 64 31 9a bc
       -0.073431164 -0.09565632 -0.09991658 -0.01882238
000320 e5 d2 92 3d ab 4f 36 bd 5c 9b 88 bd 9b 5d 4a bd
       0.07169131 -0.04450957 -0.066702574 -0.049405675
000330 4e 34 a4 bd b7 40 e5 bc d8 af 98 3d f2 8d ca 3c
       -0.08017789 -0.02798496 0.074554145 0.024725888
000340 5f d8 80 bd a8 39 74 3d 7b 9b 0e bc bc ad 4b bd
       -0.062912695 0.059625298 -0.008704062 -0.049726233
000350 f7 96 a4 3d 0b c7 3e bd 0e 61 10 bd e5 1f 93 bd
       0.08036607 -0.04657654 -0.03524881 -0.07183818
000360 b6 97 25 3d 68 95 a4 3d 97 42 ad bd 44 55 88 bd
       0.040427886 0.080363095 -0.08459967 -0.06656888
000370 eb e0 6e bd c3 25 a9 bc 5a 0f de 3c 46 51 2c ba
       -0.058319967 -0.020647889 0.02710693 -0.000657339
000380 78 9c ae bc d4 2b c3 bc 00 0c 98 3d c7 41 04 bc
       -0.021314844 -0.02382461 0.07424164 -0.008072323
000390 6e f6 de bd 32 3a 46 3d bb e8 44 3c 05 86 98 3c
       -0.108868465 0.048395343 0.012018378 0.018618593
0003a0 06 c4 b1 bc 98 1e ab bd ae 64 f8 3c 75 a8 9a 3d
       -0.021699917 -0.08355445 0.030321445 0.07551662
0003b0 23 5e 88 3b 56 15 a4 bc 3f 82 a2 bd 1b c6 a3 bb
       0.0041616126 -0.020029705 -0.07934999 -0.0049979812
0003c0 57 fe a8 ba 53 34 84 bd 5a 7c 6e bb f9 6b 35 bd
       -0.0012893182 -0.064552926 -0.0036390037 -0.044292424
0003d0 72 1e c9 3d 91 ce 7d bc 24 74 4d 3d 3d 5f b0 bb
       0.0982026 -0.015491144 0.05015959 -0.005382447
0003e0 c8 89 be bc 6d 1f 0f 3d 8c 53 81 bd 8b 2a 7c 3d
       -0.023259059 0.03494208 -0.063147634 0.06156401
0003f0 88 66 99 3b c7 d9 39 3d 0f 66 3f bd 98 46 29 3d
       0.004681412 0.045373704 -0.04672819 0.04132709

fc_layers.0.bias f4 [128]
000000 42 f8 f8 bc 00 2f e3 3c 0c 68 87 3d 48 46 a1 bd
       -0.030391816 0.027732372 0.06611642 -0.07874733
000010 51 0b e5 3a 4e fc c4 3d 6d 2d ba 3d 97 52 62 3d
       0.0017474686 0.09618436 0.090906955 0.055254545
000020 69 1f 6c bd 3a ba 23 3d 09 05 c9 bd 44 62 2b bd
       -0.057647143 0.03997252 -0.098154135 -0.04184176
000030 87 1a 8e bd 2e a2 8d bd 95 db c4 3c d6 38 e4 3c
       -0.069386534 -0.06915699 0.024030486 0.027859133
000040 64 9d 3b 3d 4c 39 dc 3c 6f 9c c9 3d e2 21 df bd
       0.045804396 0.02688279 0.098442905 -0.108951345
000050 2b 50 93 3d ca 3f ca bd dd cc 59 bd 8e 74 a3 3d
       0.07193025 -0.09875448 -0.05317389 0.079812154
000060 59 c3 da 3d 9e 05 2f bd fb 2d 8a bd ae c0 08 3d
       0.10681791 -0.042729966 -0.06747051 0.03338688
000070 fe 51 90 3d ab c8 41 3d 3d bf 0b bd f5 fd 29 bd
       0.07046889 0.047310513 -0.034117926 -0.041501958
000080 54 2e ec 3c d3 9f c4 bb 5c 19 8d bd 75 d1 dc 3c
       0.028830685 -0.006000498 -0.068896025 0.026955346
000090 92 33 09 3d a8 97 a2 3d 40 d5 39 bd 70 6a 6c bd
       0.033496447 0.079390824 -0.045369387 -0.057718694
0000a0 9a 90 4b bd ea 4b 1b bc aa 71 a0 3d 28 cd 31 bc
       -0.04969845 -0.009478549 0.0783418 -0.010852136
0000b0 d8 06 13 3d a9 63 90 3d 04 fe 9c 3d 15 0e 9f 3d
       0.0358952 0.07050259 0.07665637 0.07766358
0000c0 b3 20 23 bd a1 10 86 3c e2 5b f5 bc b6 7c 00 3c
       -0.039826106 0.016365351 -0.02995104 0.007842233
0000d0 0f 21 9e 3d ef fc ad bd 4d 1e 0d 3d 9c 99 4a 3d
       0.07721149 -0.08495509 0.034452725 0.0494629
0000e0 40 d9 b7 bc ed a7 01 3c 9a fa 83 3c 2b b8 d5 bd
       -0.02244246 0.007913572 0.016110707 -0.10435518
0000f0 c6 7d 5b bd 62 11 07 bd 8f 7e 9c 3d c9 38 3a bd
       -0.053586744 -0.032975562 0.07641327 -0.04546431
000100 e6 df 1f 3d c2 05 41 bc 50 d7 90 bd 64 9d 1c 3d
       0.039031886 -0.011781158 -0.070723176 0.038236037
000110 b7 c8 d3 bd 46 b8 8d 3d 7b 64 cc 3d 7b b0 8c bd
       -0.10341018 0.06919913 0.09980103 -0.068695985
000120 75 80 bc bd dd 78 6e 3c e5 1b 72 3d 88 bb 34 3d
       -0.09204189 0.014555183 0.059108634 0.044124156
000130 62 fe e5 bc 71 28 4f bd ba 0e 4e bd 07 5e 64 3d
       -0.0280754 -0.050575677 -0.050307013 0.055753734
000140 3b 7d 2f 3d 66 9c 8f bd 20 30 af 3d 06 5b 60 bd
       0.04284404 -0.070122525 0.08554101 -0.054774307
000150 26 91 98 bd 54 5b 8f bd eb d9 1a bb 27 50 84 bd
       -0.0744956 -0.06999841 -0.0023628424 -0.064606
000160 89 9d e5 3d 6d c9 ed bc ba b5 5c bd 1a c5 2c 3d
       0.11211688 -0.029026711 -0.053884245 0.04218016
000170 9e e1 22 3b db d6 21 3d ba 93 a8 3d d5 b6 67 3d
       0.0024853717 0.039511543 0.082313016 0.056570847
000180 36 f2 a0 3c a9 6d 09 bd 47 b4 aa 3d ad c5 84 bd
       0.019646745 -0.033551846 0.083351664 -0.06483016
000190 28 05 bd bd bb 4e 19 bd d7 d3 ba 3d 57 98 2f bd
       -0.09229499 -0.0374286 0.091224365 -0.042869892
0001a0 6b f3 ac bd c0 8f 0c 3c ec 31 51 bd e5 d5 88 bc
       -0.08444866 0.008579195 -0.051073 -0.016703555
0001b0 c7 40 a1 bd 5f b5 aa 3c d9 0d 10 3d ce b1 ad bd
       -0.078736834 0.020838438 0.035169456 -0.08481179
0001c0 7f e3 1f 3c ea f7 c8 3c f1 a7 61 bd d7 f8 10 3d
       0.009758829 0.024532277 -0.055091802 0.035393562
0001d0 08 ef fe bc 42 b7 25 3d e1 43 d0 3c 84 fb bf ba
       -0.031119838 0.04045797 0.025422992 -0.0014647101
0001e0 23 dc 98 3d d9 d7 c8 3d 15 e9 e2 bd 1f bf 1e bd
       0.07463863 0.09806795 -0.11079613 -0.038756486
0001f0 dc 15 21 bd ff c9 3b bd d7 75 e5 bd e7 c6 e3 3c
       -0.039327487 -0.045846935 -0.11204117 0.027804805

fc_layers.2.weight f4 [1, 128]
000000 ea 20 78 3d 13 aa a4 3d e8 ca 09 bb ed 29 1f bd
       0.060578264 0.080402516 -0.0021025483 -0.038858343
000010 9f 04 03 3d dd a1 aa 3d 02 84 ae 3d ad cc 97 3d
       0.03198683 0.08331654 0.08521272 0.07412086
000020 63 00 63 3d 10 cd c8 bb 49 c5 12 bd b8 5c 9f 3d
       0.05542029 -0.006127961 -0.035832677 0.077813566
000030 6c 1d ba 3c 14 15 d8 3d 65 b9 90 bd a2 aa 55 3d
       0.022719108 0.10550895 -0.07066611 0.05216468
000040 d2 44 b0 3c b4 74 8e 3c ac 6c 7c 3d 47 be 8f bd
       0.021517191 0.017389633 0.061627075 -0.070187144
000050 ba 20 91 3d d6 dc eb bc c8 94 3c bc 48 c6 96 bd
       0.0708632 -0.028791826 -0.011510082 -0.07362038
000060 6c 65 cd 3d fd 1f 5b bd 91 2c 57 3d 0e e3 40 bd
       0.1002911 -0.053497303 0.052532736 -0.047091536
000070 1c 48 87 3d cd 7b a8 3d 2a 10 bf 3c 62 83 ec 3c
       0.06605551 0.08226738 0.023323137 0.028871242
000080 b0 5e 60 bc bd 06 d8 3d 64 b9 d3 3d 60 7c da 3d
       -0.01369445 0.1054816 0.10338095 0.10668254
000090 29 f2 a1 3d d8 b0 24 bc fd 75 be 3d 17 ce 62 3c
       0.079075165 -0.010051928 0.09299848 0.013843081
0000a0 b9 db 37 bb e6 04 5a 3d 37 e7 c5 3d 10 13 76 3d
       -0.002805455 0.053227328 0.09663241 0.060076773
0000b0 97 75 82 bd 70 3f 7a 3d 50 31 fb 3b b1 23 c4 3d
       -0.06370085 0.061095655 0.0076657906 0.0957712
0000c0 47 65 2d bd 01 4c 89 bd 3a 6a b7 3d 34 15 d1 bc
       -0.042332914 -0.0670395 0.08955808 -0.025522806
0000d0 d5 4a e7 39 59 68 8c bd 47 fc 23 3c f1 fc c8 bc
       0.00044115508 -0.0685584 0.010008878 -0.024534674
0000e0 49 81 df 3c 4d 5e 91 3d 49 4c de 3a 42 b1 8a bd
       0.027283328 0.070980646 0.0016959991 -0.067720905
0000f0 db 87 ba 3d 66 e7 8d 3b 7e ab bd 3d a9 7e a6 3d
       0.091079436 0.0043305634 0.09261225 0.08129627
000100 64 02 14 bd b2 df 41 bd 5b 34 9c 3d 12 62 28 3d
       -0.036135092 -0.047332473 0.076271735 0.041109152
000110 c4 ea 5a bd 78 59 71 bd f3 fa d9 3c 42 09 bf bc
       -0.053446546 -0.058923215 0.02660892 -0.023319844
000120 65 87 2f bd 73 b4 26 bd ee 67 d1 3c c4 59 38 3d
       -0.04285373 -0.040699434 0.025562253 0.045007482
000130 64 c3 d5 3b f0 b6 6b bd 49 63 97 3d e4 d4 77 bd
       0.0065235365 -0.05754751 0.07391984 -0.060505763
000140 a6 34 8b bd db 0a 95 3d 32 ff d8 3d e9 cd 4d bd
       -0.06797151 0.07277461 0.1059555 -0.0502452
000150 f3 19 cd 3d 8c bc 45 3d 55 4c 83 3d 61 bb a4 3d
       0.10014715 0.048275515 0.064110436 0.08043552
000160 3d e6 cd 3c b6 75 e0 bc bf e7 fe 3c 01 17 4a bd
       0.0251342 -0.027399879 0.031116365 -0.049338344
000170 65 db 81 3d d1 72 13 bd 49 d3 cc 3b 1c c2 c5 3d
       0.06340674 -0.03599817 0.006250773 0.09656164
000180 f2 4c d7 3d 1f 05 8b bd 1a 3a b4 3d 45 b0 6b bc
       0.10512723 -0.06788086 0.088001445 -0.014385288
000190 1c b4 84 bc 76 39 65 bd 36 21 c6 3d 26 fd 3c 3d
       -0.016199164 -0.055963002 0.09674303 0.04613986
0001a0 65 71 7d bc 00 1b 04 bd cc 46 6f 3d 8b 64 59 3d
       -0.01546893 -0.03225231 0.058417127 0.0530744
0001b0 c5 c4 2b 3d 0f c1 34 3d 4c ba 0e bd 77 11 51 bd
       0.0419357 0.044129428 -0.034845635 -0.051042046
0001c0 5a 1f b6 3d ed ee af 3c 79 03 af 3d e7 24 b8 3d
       0.088926986 0.021476233 0.08545584 0.089914136
0001d0 cf 35 dd 3d 7a b4 25 bd 99 63 89 bd ce 8e 4c bd
       0.10801279 -0.04045532 -0.0670845 -0.049940877
0001e0 7f 4e 1a bd 48 97 5d 3d 3c bf 92 bd 99 22 0a bc
       -0.037672516 0.05409935 -0.07165381 -0.0084311
0001f0 3a 0e 6f bd f8 3b 65 bc b6 75 65 bd 71 76 a4 3d
       -0.058363177 -0.013991348 -0.05602046 0.080304034
