ncf_model.pth (torch, 58332 bytes, 5 tensors)

user_embedding.weight f4 [4, 50]
000000 ea a7 74 3e 44 be cc bf ae ff c3 3f c8 92 9e 3f
       0.23892179 -1.5995564 1.5312402 1.2388544
000010 e7 58 77 3f c8 db 56 3f 73 5b 0f 3f fd 47 fa 3e
       0.9662003 0.8392911 0.55998915 0.48883048
000020 e2 a7 77 3c 85 3b 98 3e 2b 93 fe 3f 52 2c af 3f
       0.01511571 0.2973291 1.9888662 1.36854
000030 46 c7 05 bf 41 df c1 be 2a cb 31 bf 4d 47 bb bf
       -0.5225719 -0.37865642 -0.6945063 -1.4631134
000040 9e 97 08 bf fe 49 cf 3f 56 34 97 3f d4 7f ce bd
       -0.5335635 1.6194456 1.1812847 -0.10082975
000050 73 a8 41 bf ba 80 e3 bf 42 85 44 bf 6f ea bd be
       -0.7564766 -1.7773659 -0.76765835 -0.3709292
000060 c3 7c 15 3f 62 aa 68 bf 80 8f 96 3e c1 51 6f bd
       0.58393496 -0.90884984 0.29406357 -0.058427576
000070 5a b5 db 3f 05 c6 fc 3e 9a 18 72 3e b5 45 4c be
       1.7164719 0.49369827 0.23642197 -0.19948466
000080 45 73 32 bf dc 14 5e 3f 66 cf 6a bf 96 5d de bf
       -0.6970714 0.8675058 -0.91722715 -1.737231
000090 67 ce cd 3f 53 87 63 3f e9 a7 cd bf b4 76 23 be
       1.6078614 0.88878363 -1.6066867 -0.1596325
0000a0 21 f4 a3 bf e6 71 c1 bf ff cd 97 bf e2 7a c0 be
       -1.2808877 -1.5112884 -1.185974 -0.37593752
0000b0 73 60 be 3e bf 3b a9 3f f6 83 c1 be 27 eb 29 bf
       0.3718296 1.3221358 -0.3779599 -0.6637444
0000c0 89 cc bf be ef bc 29 3f 46 53 a4 be 0c f4 00 3b
       -0.37460735 0.66303915 -0.32094783 0.0019676713
0000d0 4d a9 18 be a9 a1 22 bf 7e 13 be 3f 3c 8a 78 3d
       -0.14908333 -0.63527924 1.4849699 0.060678706
0000e0 ef ee 28 bf d3 7a be 3f e0 ae b8 bf 53 10 fb be
       -0.65989584 1.4881233 -1.4428368 -0.49035892
0000f0 5b 08 d0 3f 8a 4d 0e be 10 ad 75 bf 40 b2 60 3f
       1.625255 -0.13896766 -0.959672 0.8777199
000100 31 35 57 3f e1 ec 3b 3f 42 55 2b 3f 46 b9 14 40
       0.8406554 0.73408324 0.6692697 2.3238082
000110 0f c1 31 bf a0 5a 09 3f 8d c2 59 bf 80 20 9e be
       -0.6943521 0.5365391 -0.85062486 -0.3088417
000120 1d 34 8d bf 92 1c 0b 3f 1b 3d a7 3e 4f ea a5 bf
       -1.1031529 0.5434047 0.32663807 -1.296213
000130 a1 be 70 bd 0a 7a bd 3e 81 5e 6f bf f8 97 34 bf
       -0.058775548 0.3700717 -0.93503577 -0.70544386
000140 ed e5 68 3e 19 2c 45 bf c3 06 30 bf b7 91 f6 be
       0.2274396 -0.7702041 -0.6876032 -0.48158047
000150 4e 89 b9 3e 6f 25 a0 bf 2f 45 0d 3e ba f5 89 bf
       0.36237568 -1.2511424 0.13795923 -1.0778115
000160 2c ca 7e 3e a7 01 aa bf 63 93 b1 3f 1e cb 1c bf
       0.2488181 -1.3281754 1.3873104 -0.6124743
000170 b1 00 05 bf 4e 14 a8 3f d4 d5 9e 3f ee 3e 22 3f
       -0.5195418 1.3131196 1.2409005 0.63377273
000180 56 c8 ff be f8 7a c0 be 4f e7 33 3e 0e 08 53 be
       -0.49957532 -0.37593818 0.17568706 -0.20608541
000190 c3 8b d9 bf 5b 03 61 bd c5 cd 70 bd 2e dd 58 3f
       -1.6995777 -0.05493484 -0.058789987 0.84712493
0001a0 42 32 42 be e2 bb f4 be aa 95 17 3f d0 4e 33 3f
       -0.18964484 -0.47799593 0.59212744 0.70042133
0001b0 f1 41 99 3e cf 50 b8 bf 2d e0 9e be 9e f2 2f 40
       0.29933122 -1.4399661 -0.31030408 2.7491832
0001c0 ac 0e 44 3f 13 86 d9 bf 85 c6 b7 3e c2 0d 0d c0
       0.7658489 -1.6994041 0.35893646 -2.2039647
0001d0 fc 1d b5 be f8 52 a5 bc cd 07 0b bf 0e 28 bd 3f
       -0.3537444 -0.020181164 -0.5430878 1.4777849
0001e0 37 78 92 3d c2 47 9e 3f 6f 21 60 3e 93 d4 00 40
       0.071518354 1.2365649 0.21887754 2.0129745
0001f0 c1 c8 c4 3e f3 f4 ba 3f c3 9d ed be 4f 19 ec 3f
       0.38434413 1.4606003 -0.46409425 1.8445224
000200 e6 e6 de 3d 3c 51 59 3f 3f 5b 2f bf 15 3b a7 3e
       0.10883884 0.8488958 -0.68498605 0.32662264
000210 35 c8 2f bf b6 c7 97 bf 90 3f eb 38 b9 e3 64 3e
       -0.68664867 -1.1857822 0.00011217513 0.22352494
000220 02 83 e3 b9 be c6 67 bf 86 c8 b5 bd bb f0 4c 3f
       -0.00043394422 -0.9053763 -0.088761374 0.80054826
000230 88 82 56 3f 8d bb fd be 96 be 29 3f 14 e8 9e 3f
       0.83792925 -0.49557152 0.66306436 1.2414575
000240 a3 22 5b 3f 29 e8 c3 3f 73 3e 3e bf 9d 89 6a be
       0.85599726 1.5305225 -0.7431404 -0.22904058
000250 97 5d 97 bf 62 72 27 3f 9c b7 8d 3f df 52 46 bf
       -1.1825436 0.6540891 1.1071658 -0.774702
000260 25 3a a7 3e fb b7 88 be 73 ee c3 3f 2b 84 7b bf
       0.32661548 -0.26702866 1.5307144 -0.9824855
000270 71 3c 51 3f aa 33 d2 3f eb 44 e2 be 3a 7c 9d bf
       0.8173285 1.6422017 -0.44193205 -1.2303536
000280 ec 1b c5 be c5 f5 63 3f 72 5e 16 3f ee 6f df bf
       -0.38497865 0.8904689 0.5873786 -1.7456033
000290 9f 31 65 3f d7 de ac 3f 64 ef 61 bf 10 17 18 40
       0.8952884 1.3505505 -0.88255906 2.3764076
0002a0 7b 2f 81 3f 9a 21 fe bd 8a 7f 91 3f 1d 71 f7 bf
       1.0092615 -0.12408753 1.1367047 -1.9331394
0002b0 8f 94 4e 3e e1 a8 a5 be 18 97 ba be b6 69 e7 3f
       0.20173858 -0.32355407 -0.364434 1.8079135
0002c0 40 d8 a8 bf b0 d6 34 c0 64 ee fa 3e 16 1c ab be
       -1.3190994 -2.8256035 0.49010003 -0.33419865
0002d0 36 94 0c 40 eb ce ea bf 00 b6 34 3f e1 c7 e6 be
       2.196546 -1.8344396 0.7059021 -0.4507437
0002e0 0d b3 8d 3e 5f 1c fa be 2d 76 71 bf 45 47 19 bf
       0.27675667 -0.4884977 -0.94320947 -0.59874374
0002f0 2a 71 c2 3f ce e5 2c 3f 01 17 50 bf 07 fc d1 3e
       1.5190785 0.67538154 -0.812851 0.41012594
000300 9a d0 31 3e f0 94 86 3f a0 c2 a0 be 4e bb 59 be
       0.17364731 1.0514202 -0.31398487 -0.21262857
000310 ee d0 7c 3f c7 9c 96 3e 9d 7a 42 3e a3 6a b7 3e
       0.987563 0.29416487 0.18992086 0.35823545

item_embedding.weight f4 [13, 50]
000000 f4 13 f1 be e8 d3 ca bf 70 46 d3 bf 78 0a c2 3e
       -0.47085536 -1.5845919 -1.6505871 0.37898612
000010 ed bf 40 3e 74 2b 32 3f 69 61 8e bf f5 be 9b 3f
       0.18823214 0.69597554 -1.1123477 1.216765
000020 31 90 c3 3f 09 9f 1e bf dd cc 35 bf ca 51 99 3f
       1.5278379 -0.6196142 -0.7101572 1.1978085
000030 02 76 ca 3f c2 99 e9 3f 20 c9 bf 3f e7 46 71 3f
       1.5817263 1.8250048 1.4983253 0.94248813
000040 76 2f b2 be 60 02 e2 3e 3e 78 73 3c 16 eb 15 c0
       -0.34801835 0.44142437 0.014860211 -2.3424735
000050 cc d6 5c 3f d3 9a d7 3d 72 65 a6 3f 07 5f 65 be
       0.86265254 0.10527577 1.2999709 -0.22399531
000060 a9 b6 5f be 7e de 37 bf f8 5c 11 3e 01 ad eb 3e
       -0.21847023 -0.7182387 0.14195621 0.4603043
000070 6a c9 a4 3f e8 cf 41 3e 31 56 2a 3f dd 2c c3 bf
       1.2873967 0.18926966 0.6653777 -1.5248066
000080 ec 01 6a 3f 08 fa c7 3c 79 c5 bd 3f e8 34 19 c0
       0.9140918 0.024411216 1.4825889 -2.3938541
000090 04 2c 6f 3f 5f d8 f1 be 7f 8d 82 3d 3d 8e af bf
       0.9342654 -0.4723539 0.063746445 -1.3715283
0000a0 2c a8 91 3f 8f 5b 6b 3f 04 37 ff 3e 8d d6 f8 3e
       1.1379447 0.9193658 0.4984666 0.4860119
0000b0 1d c1 53 be e1 76 3a be 90 9b 62 3f bf 8b b3 3f
       -0.20679136 -0.18209411 0.8851862 1.4027022
0000c0 21 25 2d bf 5f 1b a5 bd 69 1d 49 3c f9 3f 71 3e
       -0.6763478 -0.08061861 0.012275078 0.2355956
0000d0 1a 92 a1 3e d1 5c 76 3e 5e 2c 35 3f 2f 3a b9 3c
       0.3155678 0.24058844 0.70770824 0.022610752
0000e0 b2 23 f1 bf 04 6a 34 be 97 0d 12 bf 4b d4 36 3f
       -1.8839018 -0.17618567 -0.57051986 0.71417683
0000f0 9d cd fb bf 91 d1 84 3f 23 18 d2 bf 3f 56 08 3e
       -1.9672123 1.0376455 -1.6413616 0.1331415
000100 80 76 62 3e 1b 56 03 40 05 96 39 3f 3d c4 42 bf
       0.22115517 2.0521305 0.72494537 -0.76080686
000110 fe 14 ba 3f c3 64 91 3f 9c 45 6e bf b7 d6 1a bf
       1.4537656 1.1358875 -0.93074965 -0.6048388
000120 3b 5e fd bc 5f ba 88 bf f9 36 8c 3f cc be 89 3f
       -0.030928722 -1.0681876 1.0954276 1.0761352
000130 f3 21 21 bf 42 f3 9f be 1d 7a 3d bf 18 4e 5e 3f
       -0.6294243 -0.31240278 -0.74014455 0.8683791
000140 8b 42 d1 3e dd 45 ee 3d 67 52 78 bf 0d 5e c2 3e
       0.4087108 0.11634419 -0.97000736 0.3796238
000150 35 50 62 3f e5 76 7c 3e c7 0e 08 3f f7 43 9e 3e
       0.88403636 0.2465473 0.5314755 0.30911228
000160 22 b0 c8 3e dd 20 b1 bf 33 53 b8 3e 5b 9f 94 bf
       0.3919688 -1.3838154 0.36000976 -1.1611131
000170 49 9b 26 3f 02 1c 52 bf c6 0c 7c 3e bf 89 34 3f
       0.65080696 -0.82073987 0.24614248 0.70522684
000180 82 82 0e 40 b8 7c c4 3e 75 72 9c 3e 3f 52 d5 be
       2.2267156 0.38376403 0.30556074 -0.4166431
000190 f8 fb 12 bf 86 c2 15 3f 08 56 cb 3f af d4 db 3f
       -0.57415724 0.58499944 1.588563 1.7174281
0001a0 73 5b 7a 3f 24 4f 16 bf 9d e0 d2 3f d7 b7 af 3e
       0.9779579 -0.5871451 1.6474797 0.34319946
0001b0 d2 fc f5 3e 30 98 e5 be 20 a8 31 3f be b4 76 3e
       0.4804445 -0.44842672 0.69397163 0.24092385
0001c0 c9 86 92 3e 7e 66 ae bf 0f e7 39 be d5 bc bb bd
       0.28618458 -1.3625028 -0.18154548 -0.09166876
0001d0 c3 a4 10 3f 9b 15 5d be e6 35 0e 3f 2f d7 40 bd
       0.56501406 -0.21590273 0.5555099 -0.047080215
0001e0 a9 a5 3a 3f 82 9e ad be 0e 16 38 bf 36 92 bc 3f
       0.7290903 -0.33909994 -0.7190865 1.473212
0001f0 c6 e1 59 3f 97 13 83 3f d7 15 36 3f 8c 94 58 3f
       0.8511013 1.0240353 0.71127075 0.84601665
000200 99 cf ac 3e e2 30 9d 3f a4 93 1f 3f f9 fd 3e 3f
       0.33752134 1.2280543 0.62334657 0.7460628
000210 e9 af c6 3f d0 d7 84 3f 69 e9 b3 bf 3a af 4e bf
       1.5522434 1.0378361 -1.4055606 -0.80736125
000220 1a 70 0d 3e e9 96 01 c0 c0 52 fd 3e 86 79 fd 3f
       0.13812295 -2.0248358 0.49477196 1.9802711
000230 a4 11 cf 3f 78 aa 86 3f e1 9a a9 3f 00 aa 0f bf
       1.6177258 1.0520773 1.325039 -0.56118774
000240 af 30 ae 3f a2 64 37 3f f5 6c 87 be 1c 31 c7 3f
       1.3608607 0.7163793 -0.26450315 1.5561862
000250 0a a6 86 3f 07 76 79 be d7 80 86 3f 16 c5 81 be
       1.0519421 -0.2436143 1.0508069 -0.25345677
000260 bd 73 a2 be bf 07 f1 3e 33 96 ac 3f 5e ae 1f 3f
       -0.31728926 0.47076222 1.3483337 0.6237544
000270 f8 cd 0b c0 bf 7b 75 be 2d dc 6f 3f d8 58 39 bf
       -2.1844463 -0.23972987 0.93695337 -0.7240119
000280 84 94 ac 3e 2f a4 40 bf 83 d1 3a 3f a1 f5 a7 3f
       0.33707058 -0.75250524 0.7297594 1.3121835
000290 2d a1 64 be 34 2a 86 3e d5 69 a2 bf 0e 7b 5c bf
       -0.22327109 0.26204073 -1.2688547 -0.86125267
0002a0 34 04 71 be 81 4c a8 3e 57 dc 3b be 71 26 2e 3f
       -0.2353676 0.32870868 -0.18345772 0.68027407
0002b0 e4 50 ea bd da 1e 8b 3f e2 a0 4f 3f 42 da da 3e
       -0.1144121 1.086879 0.8110486 0.42744642
0002c0 73 16 80 be 96 26 7b bf 32 ff bd 3f f8 c1 e7 3f
       -0.25017127 -0.9810575 1.4843504 1.810607
0002d0 82 5d 98 3c 41 3e 00 3e 26 5a 37 bf b7 c4 1e 3e
       0.018599275 0.12523748 -0.7162193 0.15504728
0002e0 e4 71 8e 3e 66 c8 4c bf 86 3c 6a bf 20 4c 52 3f
       0.27821267 -0.79993284 -0.914986 0.8214741
0002f0 86 7d 2f bf ba 82 6e 3f e7 8f 4a 3f 44 10 b3 3f
       -0.6855091 0.9316822 0.7912583 1.3989339
000300 51 f4 7b 3f 7d 9a 65 3e 68 45 26 3f 18 87 8f bf
       0.9841967 0.22422214 0.64949656 -1.1213102
000310 99 83 59 3f f5 1a d6 be 28 e2 83 3f ac d8 0d bf
       0.8496643 -0.41817442 1.0303392 -0.5540874
000320 68 21 7c be 16 e9 8c 3e b1 1f 8a be 45 c9 70 bf
       -0.24622118 0.2752158 -0.26977304 -0.9405711
000330 30 48 f3 be 85 e8 7b bf 12 13 4c bf 4f ec 0a 3e
       -0.47516012 -0.9840167 -0.797166 0.13566707
000340 cc b3 aa bf 84 2b a0 3e 79 97 2a 3f 05 34 a1 3f
       -1.333612 0.312832 0.6663738 1.2594
000350 9d 7c 65 bf e4 e0 82 bf e9 82 03 3f c7 72 96 3f
       -0.8964327 -1.0224881 0.5137163 1.1753777
000360 80 36 eb 3e ed f4 7c bf 46 96 1a bf 7f 57 cf 3f
       0.45940018 -0.9881123 -0.6038555 1.6198577
000370 46 7e a0 3f 97 dc b6 3e bb e7 d0 bf b5 5e 12 3f
       1.2538536 0.35715172 -1.6320719 0.5717576
000380 f7 bf 92 3e 13 da bb 3f 55 20 97 bf 63 fd 41 3e
       0.28662083 1.4675926 -1.1806742 0.18944316
000390 c0 22 1e be ee 46 b5 3f 20 66 ff be 00 c7 92 bd
       -0.15442944 1.4162271 -0.49882603 -0.071668625
0003a0 ea af c3 3f df 1f 4c bf ee 70 c9 3f 1d df 71 bf
       1.528806 -0.7973613 1.5737588 -0.9448107
0003b0 45 5d e3 3f 89 a1 a1 bf 08 16 c6 3f 17 f8 31 3f
       1.7762839 -1.2627422 1.5475473 0.6951918
0003c0 fb 20 85 3f 15 2f 6a be 9e e3 be 3f 0c 44 94 bf
       1.040069 -0.22869523 1.4913213 -1.1583266
0003d0 e7 01 b6 bf 2e a2 5b bf e2 92 3c be 6b fd 77 3f
       -1.421933 -0.8579434 -0.18415406 0.9687106
0003e0 60 b7 1a 3e f7 a7 87 3f 37 4c 08 3f d1 8c 8c bf
       0.15109015 1.0598134 0.53241295 -1.0980474
0003f0 14 fd b5 3e 8c 5b 01 3f d1 c3 aa 3f 02 2e 12 c0
       0.35544646 0.50530314 1.3341008 -2.284058

fc_layers.0.weight f4 [128, 100]
000000 e0 35 98 bd 0a 59 7f bb 55 20 0c 3d 2e d6 48 3d
       -0.07432151 -0.0038962984 0.03421052 0.049032383
000010 a3 6f 4c 3d ae bf 80 bc fc 28 f8 bc ba 2a 1b 3d
       0.049911153 -0.0157164 -0.03029298 0.037882544
000020 34 44 21 bd cc 5e 8d 3d 63 9b c1 3d e8 00 8b bd
       -0.039371684 0.06902847 0.09453466 -0.06787282
000030 1e 2a 0d 3c 12 c2 d3 bd 6f 17 e5 bd 78 57 65 bd
       0.008615999 -0.1033975 -0.1118611 -0.05599162
000040 38 f4 5e bc 07 8a 4d bd 20 ab 0b 3c bb 15 c2 3d
       -0.013608031 -0.05018046 0.008524686 0.09476801
000050 6a 0c 73 bd 37 46 88 3d 20 08 c0 bd 28 23 25 bd
       -0.05933801 0.066540174 -0.0937655 -0.04031673
000060 57 98 33 bd c9 5f 04 3d 28 42 94 bc f0 9a 7b 3d
       -0.043846454 0.03231791 -0.018097952 0.061427057
000070 f6 39 12 bd 90 a2 3a 38 34 bc 68 3b 76 0d c8 3c
       -0.035699807 4.4497254e-05 0.0035512568 0.024420481
000080 2c 55 de 3c 48 55 68 3d 29 8b d4 bd e4 c4 c3 bd
       0.027140222 0.056721956 -0.10378105 -0.09559038
000090 45 4b 38 3c 7b 6e 77 3d cb 87 02 3d 7e ea 84 bd
       0.011248414 0.060408097 0.031867784 -0.06490038
0000a0 bc 48 88 3c 74 24 05 3d 59 6b b6 bd 7f 3c 0e bd
       0.016636245 0.032505468 -0.08907194 -0.034725662
0000b0 54 23 bc 3d 28 bc 9e 3c da 6d 67 3c dd c9 85 bc
       0.09186426 0.01937683 0.014125312 -0.016331607
0000c0 de 5f 88 bc d4 12 7e bd 4c dd 81 bb 81 d9 c9 bd
       -0.016647276 -0.062029675 -0.003963148 -0.09855939
0000d0 36 51 05 bd 2f 22 58 bd 6c e0 d1 3d f7 56 a1 bd
       -0.032548152 -0.052766975 0.10247883 -0.07877915
0000e0 18 21 ee bd 4c 70 70 bd 10 29 35 bd f0 51 96 3c
       -0.11627406 -0.058700845 -0.044228613 0.018349618
0000f0 d4 2e 90 bd 8b d2 61 bd ff f2 fb 3c ab 0e 85 bd
       -0.07040182 -0.05513243 0.030755518 -0.06496938
000100 cd f5 f3 bc c9 cf 63 3d fe 46 98 bd ae d4 26 3d
       -0.029780293 0.05561808 -0.07435416 0.04073017
000110 f0 e7 db bc 93 16 ac bc 8c 59 e6 bb 6a 1a f1 3d
       -0.026843995 -0.021006858 -0.007029718 0.11772616
000120 05 32 bb 3d 96 81 c1 3d 65 55 e6 3d 16 f7 4e bd
       0.091404 0.09448545 0.112467565 -0.05052861
000130 c3 5e a5 bd 0c 10 77 3d fd 55 47 3d f0 f6 6c 3d
       -0.08074715 0.060318038 0.04866599 0.057852685
000140 cc 53 8c bd 2e fe 2a 3c 16 e5 ab bc 28 65 29 3b
       -0.068519205 0.010436578 -0.02098326 0.0025847647
000150 26 5d ea 3d 97 a1 cf 3b f7 69 99 bd c8 1c 06 3b
       0.11443548 0.0063364017 -0.07490914 0.0020463932
000160 b7 25 42 3d 9b 5a d2 3c 16 50 5a 3d 8c ec c7 3d
       0.04739925 0.02567797 0.053299032 0.097619146
000170 a7 a6 2f bd 56 d5 58 3d 26 79 25 bd 95 e9 c3 bd
       -0.04288354 0.052937828 -0.04039874 -0.095660366
000180 cc 8f 4e 3d c1 5a e2 3d 22 79 e0 bc 1c bc 88 bd
       0.050430104 0.11052466 -0.02740151 -0.06676504
000190 8e ec 9c bd 76 49 50 3d 5b 9e 1b bd 42 12 b4 bb
       -0.07662307 0.050851308 -0.037992816 -0.0054953406
0001a0 0c 91 1f 3c 82 17 47 3d cc f9 ab 3d 9d 9e e5 3d
       0.009739172 0.048606403 0.08397254 0.11211894
0001b0 0a 44 01 3d 75 61 88 bd b7 58 a3 bd e4 79 07 3d
       0.031559028 -0.066592135 -0.079759054 0.03307523
0001c0 30 4a 8b 3d 24 da a5 bd 6d a3 df bd 84 f1 9c bc
       0.068012595 -0.08098248 -0.10919843 -0.019158132
0001d0 c6 8e 3b bd 62 bc cc 3d 53 35 59 bd af ac b8 3d
       -0.045790456 0.09996869 -0.05302937 0.09017312
0001e0 63 e6 b1 bc 5a 47 87 bd d6 68 42 3c 46 24 e8 bd
       -0.021716302 -0.06605406 0.011865815 -0.113350436
0001f0 bf 25 d8 3d b9 45 f4 3c f0 db 9a 3d 00 9f 23 bd
       0.105540745 0.029818403 0.07561481 -0.039946556
000200 22 df 38 bd 09 13 5f bd e9 32 02 3d 13 3f 72 3d
       -0.04513467 -0.054461513 0.031786833 0.059142184
000210 03 a8 df bd 85 2c ee 3d 7f 05 a7 bd 81 6a 5d bd
       -0.109207176 0.11629585 -0.08155345 -0.05405665
000220 a7 76 23 3d 25 65 a5 3d 81 62 15 bd 13 52 d8 bd
       0.039908078 0.080759324 -0.036470894 -0.105625294
000230 63 ae 97 bd 82 ff 0a 3d 5e d6 74 3b 4d 9b e5 3b
       -0.074063085 0.033935077 0.0037359218 0.0070070387
000240 b0 93 8b 3d 78 56 27 bd b8 37 6e 3c ac 8b e3 bc
       0.068152785 -0.040853947 0.014539652 -0.027776562
000250 4f 07 fe 3c 96 ab 62 3c d5 00 73 bd 96 d0 ad bc
       0.031009344 0.013834855 -0.059326965 -0.021217626
000260 50 88 fe 3c 72 89 d1 bc 25 4f f3 3d b5 b7 70 bd
       0.031070858 -0.025578234 0.1188033 -0.058768947
000270 6c ad d1 bd f0 87 99 bc 9f 7d 91 bd b6 41 b6 bd
       -0.10238156 -0.018741578 -0.071040384 -0.08899252
000280 57 64 81 bb 5f 7b c1 3d a4 b7 b1 3d ae 64 2e bd
       -0.003948729 0.09447359 0.08677605 -0.042576484
000290 8b be 6d bd e2 f2 51 bc 56 2a e9 3d 4a 7a c3 bc
       -0.058043044 -0.012814255 0.11385028 -0.023862023
0002a0 4f 62 a5 3d c1 c2 be bc b4 96 21 3d e3 af 86 3c
       0.080753915 -0.023286225 0.039450362 0.016441291
0002b0 89 63 55 bd e8 ae 10 bd cd b1 a4 3d 62 ef cb 3d
       -0.052096877 -0.035323054 0.08041725 0.09957768
0002c0 4c b3 40 3b 70 99 11 3d 41 22 30 3d 46 81 ca 3c
       0.0029403744 0.03554672 0.043001417 0.024719846
0002d0 d5 6e 8c 3d 36 60 7f 3d c7 7e d0 3c 6f 23 de bb
       0.06857077 0.062347613 0.025451077 -0.0067791264
0002e0 9a 41 24 3d da a9 e1 bd bc e3 03 3d 1d c0 11 3c
       0.040101625 -0.11018725 0.032199606 0.008895901
0002f0 b5 81 cc bd 64 7f 8b bd 25 36 46 bd 3c eb ad 3d
       -0.09985677 -0.06811407 -0.04839148 0.08492133
000300 20 7c 57 3d 19 17 31 bb de bd d1 3c ca 7c 85 bd
       0.05260861 -0.0027021824 0.025603231 -0.06517942
000310 03 b4 4a 3c 1e b1 ed bc 8f 73 d8 3c 47 34 a9 bd
       0.01237202 -0.02901512 0.02642229 -0.08261924
000320 de 0e 16 3d 09 c0 e7 bd f8 3e 22 3d 3b d7 05 3d
       0.036635272 -0.11315925 0.039610833 0.032675963
000330 f0 79 82 bd 39 a4 cf 3d e8 64 9c bd de 17 c1 3d
       -0.06370914 0.10138745 -0.07636434 0.094283804
000340 ac 22 c7 bd 93 11 55 3c be 31 57 3d d7 04 c4 3d
       -0.0972341 0.013004678 0.052537672 0.095712356
000350 7a 2d ec bd c3 91 71 bd 7a cb 7a bd 52 ab 9a bd
       -0.115321115 -0.0589769 -0.061229207 -0.07552208
000360 26 9a 76 3d 13 8a 8c 3d 2b de ce 3c a0 2f b5 3d
       0.0602056 0.06862273 0.025252422 0.088469744
000370 72 b6 f4 bb fa e2 73 3d f5 3d 7b 3d 19 3e 47 bd
       -0.0074680382 0.059542634 0.061338384 -0.048643205
000380 dc 71 12 bd 7c d9 5d bd c2 e5 54 3d df 56 62 3d
       -0.035753116 -0.054162487 0.051976927 0.055258628
000390 7c 98 70 bd 80 00 9c 3d cd e9 e0 3d df ba 8c 3d
       -0.05873917 0.07617283 0.10982094 0.0687158
0003a0 d6 2a 3d bd 7d cc 74 3d 7d f1 74 3d c9 1c a9 bc
       -0.04618343 0.059765328 0.059800614 -0.020643609
0003b0 53 e2 99 3c 5e de e7 bc 55 b4 bc 3c 10 68 42 bd
       0.018784678 -0.028304275 0.023035208 -0.047462523
0003c0 82 d2 a0 3c 95 20 a0 bd db 9c 09 3d 5e a8 e1 bc
       0.019631628 -0.078187145 0.033596855 -0.027546104
0003d0 58 cf dd 3d 50 fe cc bc 3e 5c 8c 3d 8e 44 3f bc
       0.10830563 -0.02502361 0.06853531 -0.01167406
0003e0 bd 14 71 3c 65 2e 3c 3d ad 9d f9 3c 91 2c 7b 3d
       0.014714417 0.045942683 0.030470693 0.0613218
0003f0 00 bc 21 3c 2c fa cc 3d 7b 7f 79 3d b7 b1 9d 3d
       0.009871483 0.10008654 0.06091259 0.07699912

fc_layers.0.bias f4 [128]
000000 00 99 d8 3c 69 14 88 3d 68 93 23 3d 48 9d 86 bd
       0.026440144 0.06644518 0.0399355 -0.06572968
000010 fd e6 7c 3d ea 1b ab bd 96 b3 56 bc 76 c9 1b bd
       0.061743725 -0.083549336 -0.01310434 -0.038033925
000020 03 6e 4c bb d0 ad ae bd b4 e7 98 3d 5f 5f 29 3c
       -0.0031193502 -0.08529246 0.07466069 0.01033768
000030 f9 dc 8c 3b 1d 52 d4 3d 18 78 a7 bc bd 6e d8 3c
       0.004298803 0.10367224 -0.020443007 0.026419992
000040 04 2b a9 3d e2 ad 7e bd d6 ad db bc 0e 4f e8 bd
       0.08260158 -0.062177546 -0.02681629 -0.113432035
000050 7c 64 59 3c 09 71 7f bc 9f 3e bd 3d 83 af 91 3d
       0.013268586 -0.0155909145 0.0924046 0.07113554
000060 a7 80 85 3c 63 84 f6 3c c3 98 a8 3d 2a 9e fd 3c
       0.016296698 0.030092424 0.08232262 0.030959208
000070 92 16 bf 3c a6 85 e3 3b 95 f6 51 bd 00 75 db bc
       0.023326192 0.0069434224 -0.05126055 -0.026789188
000080 2e 52 90 3d ef 7b 88 3d c3 10 1b bd ed 5c a3 3d
       0.070469245 0.066642635 -0.037857782 0.079767086
000090 b4 28 b5 bd 81 67 3c bd 73 a6 ed 3c 44 de e7 3d
       -0.08845654 -0.045997147 0.029010033 0.11321691
0000a0 92 c5 29 3c c5 fd 85 3d 20 ae 61 3d 8a 98 4d 3d
       0.010362046 0.06542543 0.0550977 0.0501943
0000b0 ba a1 c1 bc 0f 61 a6 3d 23 5c d5 3d bc 1b 46 bd
       -0.023636688 0.08123981 0.10417964 -0.048366293
0000c0 11 f7 c4 bc ae 5f 0f 3d a8 2c 5b 3d 90 4c 04 bc
       -0.024043592 0.035003357 0.053509384 -0.008074895
0000d0 69 71 af 3c 4c 4b b2 bc 40 99 de bb 10 4c a8 bd
       0.021416383 -0.02176442 -0.006793171 -0.08217633
0000e0 8e f6 35 bb 4e 3c 1c 3d 25 e0 c1 bc 3f 88 0c 3c
       -0.0027765366 0.03814345 -0.02366645 0.0085774055
0000f0 9e 48 de bd 06 28 ae bc 30 b5 83 bd fa b7 e2 bc
       -0.108536944 -0.021259319 -0.06431043 -0.027675617
000100 1f 89 1e 3c 95 5f ab bc a6 ec 91 bd 67 ea 68 3d
       0.009676247 -0.0209196 -0.07125215 0.05686417
000110 81 07 3b bd 82 8c 0e bd 4d ff 45 bc 0c 6e 39 3d
       -0.045661453 -0.034801967 -0.012084794 0.045270965
000120 66 a5 51 3d f7 61 61 3d 41 67 64 3d 18 e9 3b 3d
       0.051183127 0.055025067 0.055762533 0.045876592
000130 ba 8a 71 3d 51 38 c4 3d ca 18 c8 3d b5 3e 46 3d
       0.05897019 0.09581054 0.09770353 0.048399646
000140 15 48 d4 3d c4 2c d5 bd 9e e6 8a bd 3f b8 4a 3d
       0.10365311 -0.10408929 -0.06782268 0.049492117
000150 1a 9f 8a 3d 13 b1 a0 3d ad 74 21 3d 1e c4 4a bc
       0.067686275 0.07846274 0.03941791 -0.01237586
000160 94 c9 5a bd 3e 2c bd 3d e7 be b6 3d 45 07 8e 3c
       -0.053414896 0.09236954 0.089231305 0.01733745
000170 75 7b 01 bc e0 21 15 3d bf d0 c5 bd 1d dd 8d 3c
       -0.00790297 0.03640926 -0.09658956 0.01731735
000180 61 19 87 bc 7b 56 d2 3d df 32 8c 3c 50 c9 3a bd
       -0.016491594 0.10270401 0.017114101 -0.045602143
000190 0e 61 14 bd 8d cd b2 bd 82 a3 e6 3d a2 ea dd bc
       -0.03622537 -0.08730612 0.112616554 -0.02708942
0001a0 f9 8d 85 3d 70 10 9a 3d 16 b9 21 bd ab 5c 6c 3d
       0.0652122 0.075226665 -0.039483152 0.057705563
0001b0 97 b9 e3 3c 8c b8 79 bb b3 8d f8 bc 6b e4 89 3d
       0.027798457 -0.0038104383 -0.030341005 0.067330204
0001c0 bc 3b 36 3d 7b a3 ff 3c a3 0f c0 3c 8f c8 b4 bd
       0.04449056 0.031205883 0.023444956 -0.08827316
0001d0 98 56 a1 3d 94 27 df bd ef 97 dd bd 03 66 a2 bd
       0.078778446 -0.10896221 -0.10819995 -0.079296134
0001e0 1f 67 55 3d 0b f9 a2 3d e1 b1 c9 3d ab 9f 5c bb
       0.052100297 0.079576574 0.09848381 -0.0033664505
0001f0 c0 27 40 bd 9a 32 a8 3d 0f 1d ed bd 34 cd ec bd
       -0.04691291 0.082127765 -0.11577808 -0.11562577

fc_layers.2.weight f4 [1, 128]
000000 65 8b 91 3d cb b0 12 3d 66 e6 a7 3d 4c 53 84 bc
       0.071066655 0.035813134 0.08198242 -0.016153
000010 49 2f d9 3d b8 26 10 3c 71 72 16 3d e5 de f5 3c
       0.10604722 0.008798294 0.036730234 0.030013511
000020 da a7 10 3d 01 8b 6d bd 22 da 82 bd 3f 80 b9 3d
       0.035316326 -0.057993893 -0.06389262 0.09057664
000030 50 c9 ff bc af aa 38 3d 3a 6b af 3d 48 9c 3a bd
       -0.031223923 0.04508465 0.08565374 -0.045559198
000040 9c 48 b5 bb d1 37 1a bd fe 37 62 bd 9c dd 3e bd
       -0.0055323374 -0.037650887 -0.05522918 -0.046598062
000050 14 a1 9a ba 96 d1 b6 bc 66 d7 24 3d 62 7a a6 bc
       -0.0011797273 -0.022316735 0.040244482 -0.020322029
000060 94 d0 85 bc d8 a9 65 3d e7 36 c3 3d 64 e9 98 3d
       -0.01633481 0.05607018 0.09531956 0.07466391
000070 8a af ce 3d 90 aa d7 bb 44 03 a2 bc 7c 39 e5 bc
       0.10092075 -0.006581612 -0.019776948 -0.027981512
000080 1a c0 9d 3d 90 1f 1a bc 6c df 77 bd c8 25 43 3d
       0.07702656 -0.009406939 -0.060515806 0.047643453
000090 8a de f9 3a d9 7c 74 3c e5 53 55 bd 85 9d d1 3d
       0.0019063514 0.014922344 -0.05208196 0.102351226
0000a0 52 2d 7f bd 0c 3e 24 3a 59 8f 73 bc 29 e7 54 bd
       -0.06229908 0.0006265349 -0.01486572 -0.051978264
0000b0 d9 6b a5 3b 93 c1 a0 3d 83 df 25 3d 09 8f c7 3c
       0.005048257 0.07849421 0.04049636 0.024360197
0000c0 c9 dc 61 3d 1d 8f 29 bd d1 d5 b5 3d 29 aa d9 3d
       0.055142198 -0.04139625 0.08878673 0.106281586
0000d0 fc 71 d9 3c bb f6 31 bc 19 58 03 3c b6 b8 18 bd
       0.02654361 -0.010862048 0.00801661 -0.03728553
0000e0 fa 0c ff 3c d5 45 c4 3b 62 71 87 3d 44 30 96 3d
       0.031134117 0.00598977 0.06613423 0.07333425
0000f0 99 ce 2b bc b0 35 d9 3d 2f 46 a0 3d 8c 7a 46 bd
       -0.010486268 0.10605943 0.078258865 -0.048456714
000100 9f 9d 36 3d bd 89 9a 3d c0 56 79 bc e6 5f 0a bd
       0.044583913 0.07545803 -0.015218437 -0.033782862
000110 73 b7 89 3c 24 50 92 bd 02 33 95 3b 2b ed 7d bd
       0.016811108 -0.07144192 0.0045531997 -0.06199376
000120 6b 25 b2 3d d9 bc 66 3d d9 dc 8b 3d ad 6a ef bc
       0.08698543 0.056332443 0.06829233 -0.029225672
000130 2f 07 de 3c d8 68 f3 3c 29 6a b6 3d 30 c0 7f bd
       0.027103035 0.02971308 0.08906967 -0.062439144
000140 c1 59 fd 3c 38 20 93 bb 4d de 85 bd d6 59 79 bb
       0.030926587 -0.0044899248 -0.06536541 -0.003804793
000150 53 fc d2 3d fe f3 0b 3d 38 72 ad 3d 31 84 a0 bc
       0.10302033 0.034168236 0.08469051 -0.019594284
000160 55 d2 50 3d 4d 6f a2 3c 4b 98 b1 bc f5 b3 2d 3d
       0.05098184 0.019828463 -0.021679064 0.04240795
000170 ec 9b 45 3d 4c 1c 1d bd af 9c b4 bd be 10 2c 3c
       0.0482444 -0.038357064 -0.088189475 0.0105020385
000180 5e 15 33 3d d4 31 83 3c 3c f5 cb bc 3b 4c 83 bd
       0.04372155 0.01601497 -0.02489721 -0.06411024
000190 f9 d6 cc 3d 70 e0 ca bc 86 1f 1d 3d 45 a7 3b bd
       0.1000194 -0.024765223 0.03836014 -0.045813818
0001a0 df 1b c6 3d 41 52 c5 3c 3f 7d c1 3d 3d 63 b5 bc
       0.09673285 0.024087073 0.09447717 -0.022142047
0001b0 83 36 15 3d 57 c3 d3 bc 2d fd a3 3d 47 88 d4 3d
       0.03642894 -0.025849981 0.08007274 0.10377555
0001c0 d2 7e e3 bc 48 68 98 b8 ca ae 96 3c 0f 47 de bc
       -0.027770434 -7.267349e-05 0.018393893 -0.027133493
0001d0 42 34 a9 3c d3 2a 8a ba a0 ea 30 bd 5f ff 7b bd
       0.020654801 -0.0010541327 -0.043192506 -0.061522838
0001e0 7c 89 54 bd ae 11 3c 3d 43 e9 a1 3d e3 65 36 bb
       -0.051888928 0.0459153 0.07905819 -0.0027831725
0001f0 95 98 22 3d 50 8d be 3d 14 3d dc bc 62 47 6b bd
       0.039696295 0.09304297 -0.026884593 -0.057441123
