ncf_model.pth (torch, 56348 bytes, 5 tensors)

user_embedding.weight f4 [1, 50]
00000000: 36c8 0140 bced ef3f e257 48bd 2891 3ebe
00000010: 5665 d43f 26a8 2c3f 9103 a2bf b4bf 44be
00000020: 6f9d dcbd c269 2c3f 75f1 823f 7b11 5cbf
00000030: 017f b33f 4012 5b3d d89c 023f 2d90 20bf
00000040: 9a90 f83e df1a 2f3f f269 23bf 7889 bf3d
00000050: 6006 7c3f db8d c7be 8935 1940 1d30 4d3f
00000060: b017 0240 7672 d23f 5ab5 b4bf 6d1f 943e
00000070: 71f2 e83f 9af0 aabf f0c6 a53f f85a 5e3f
00000080: 9c27 373f ee21 49bf b92d 60bf a55c dd3f
00000090: e30c 66be 86c2 5d3f 414c 9d3f 9125 b3be
000000a0: 30a8 f1be 1464 0340 87a7 373f 1921 c43f
000000b0: d319 383e b1ae 89bf 09cc 99bf 252c 9ebd
000000c0: de8d b53f ae12 8fbf
2.027845 1.8744426 -0.048911937 -0.1861006 1.6593425 0.67444074 -1.2657338 -0.19213754
-0.107722156 0.67348874 1.0229937 -0.85964173 1.4023134 0.0534842 0.51020575 -0.62719995
0.48547822 0.6840038 -0.63833535 0.09352392 0.9844723 -0.38975415 2.3938925 0.8015154
2.0326958 1.6441181 -1.4117844 0.28930226 1.8198987 -1.3354676 1.2951336 0.8685756
0.71544814 -0.785674 -0.8756977 1.7293898 -0.22465853 0.86624944 1.2288896 -0.34989598
-0.4719863 2.0529833 0.7174 1.5322601 0.17978601 -1.0756437 -1.2015392 -0.07723264
1.418392 -1.1177576

item_embedding.weight f4 [6, 50]
00000000: 4247 f73e 85a0 a33d ff11 ac3d ba03 77be
00000010: f691 d13f 66a4 de3f 4015 0cbf b58a 1e3f
00000020: b5fe 0540 9cbf 773f b592 e83f a861 443d
00000030: 946e 893f d897 6f3f 4fad 71be 5767 a4bf
00000040: eb12 42be 05b7 b73f 74a2 a63f 2a45 bd3e
00000050: b4c6 af3f 7f74 2fbe c3fd 4dbe 8c25 e8bf
00000060: 616a b9be 4917 653f 541d 3740 db25 8a3e
00000070: 19d1 ad3e f08d b13f b50a 02bf 5e98 463f
00000080: 209a 6bbe 25c2 933e f53e edbd 586e b8bf
00000090: 425d 423f cf45 7d3d d308 643f 4811 4d3f
000000a0: 5b33 a4bf 8865 b5bf 1f49 483d 71a9 2e3f
000000b0: d96e 9c3d 238e 2b40 ef1f a53f 5ea4 bebf
000000c0: d240 833f 3edf b93d 7caf 973e 6467 48bd
000000d0: fe5f 803f 5b30 99bd 14ee 9c3f bbfc 223f
000000e0: 454d d0be b1a5 0d40 bbb6 d4bd 9c46 93bf
000000f0: 13c9 2c3f 91f1 0e40 a6de 09bf ee01 76bd
00000100: 1bd2 2c40 7344 a7bf ac6a 093f b926 a5bf
00000110: ecd9 5dbf 949d 993f 70e9 b8be 3509 00c0
00000120: ccd1 9c3f 8fbd 0a3f 856f 8cbe 3017 883e
00000130: e46b 3fbf 0de4 063f 6033 bf3f c9cc c7be
00000140: 6755 0e3f 8f28 21c0 b756 afbf 332a 0640
00000150: 7262 24be 4aca a2bf 27ef 703f a3ac 073d
00000160: ecca 3e3d 87ef 6b3f 5dcc c9be a87b 2e3f
00000170: 380d 31bd 9a7d b13e 9a8c a7be ec05 79bf
00000180: 8bab 323f df85 1ebe 703b 38bf 30a4 433f
00000190: 5dc7 dbbe 81a3 debd 8fdd b53f 8eca 10bf
000001a0: 6068 fc3e f5b0 2a3f cb6e 90bf e090 bdbe
000001b0: be34 91be 409d 88bf a48c 4fbe 9907 463f
000001c0: 6f0c 36be 75f8 54be 1b59 5a3e ec0e aebf
000001d0: 9d00 14be 3299 86be f81d 5c3f 9a9e adbe
000001e0: d92c 42be 2714 1ebf 76bc 2dbd 0449 f83e
000001f0: 476f d83f 23df f93f 9559 993e ba55 1c40
00000200: 1473 9b3d c3d3 9abe fcd2 a93e b771 e7be
00000210: 271a 823e 8b07 97bf aef7 0ebf 98b5 6a3e
00000220: 2c3c f4bf 525e 70be bc92 9bbf acbf af3f
00000230: f12c dd3f 0cef 7f3f d0a4 d73e 6705 b93f
00000240: 7cda 3dbf b2a4 f7be 523b 953f 07b5 95bf
00000250: df6f dc3f 07f6 5cbf 1e26 b2bc 7b11 073d
00000260: c0ab 053f 15fa e3bf ca78 8abf 672a 92be
00000270: 81e1 8bbf 543a 8e3f 610d 2a3f 9f95 12c0
00000280: 239f 71be 3212 5b3f d3ab 4a3f 7742 0cbf
00000290: 8aed 8b3e 4629 713f 4fef 6e3f 426e 31c0
000002a0: 7945 28bd 81bf 583f a86b 98bf e96d 8dbe
000002b0: 0053 e9bb c1ef 48bf d1e4 89bf 509d f1be
000002c0: 5ae3 c03f 3ef4 403f 93ca d53e 1d19 3d3f
000002d0: 2b85 6b3d f7bb 8f3e f665 58bf 18f6 adbf
000002e0: a821 a53f 1734 083f 9871 dd3f 46ae 26bf
000002f0: a2e1 003f 1908 57bf 06a7 71bf 1800 a03f
00000300: b596 40bf 7049 f0bd 0f7b 733f 669e 653c
00000310: c26d 8a3f 65b1 afbf 80fc 2fbd 85ac a83f
00000320: ebae 69bf 2b3d a23d 1803 e63e 906f d83e
00000330: 0fc2 a5bf 180b 4c3f e4ae 333f 2591 0bc0
00000340: be49 2dbe 0321 fe3e 5322 c0bf 0875 e13f
00000350: 5b1f 9d3f 600f c6bf 40c3 97be 77ae 523e
00000360: b709 a3bf be8f 9d3f fc08 bfbe ed13 903f
00000370: ead8 803f b1cc df3d 306b 333d e8c1 8e3f
00000380: 44e9 85be 7873 17c0 503a 443f f288 16bf
00000390: a3e8 1fc0 fccc 86be 8135 70bf c7f8 c0bf
000003a0: c869 9b3f 22be 0d3f 50a6 3e3f 602a 743e
000003b0: b6b2 dabe 5887 b63d c6dc 9e3f 94fc ecbe
000003c0: 8a66 583f 07fc dd3e 5934 e83e cb2b bdbf
000003d0: 273b 69bd faf6 24bf 64b5 a53f 12aa 603f
000003e0: 3d37 a0bf 4897 483f 5d1c 89bf 9631 1b3f
000003f0: 365e b4be a56a 723f 8d36 4f3f 48f1 23c0
0.48296553 0.07989601 0.0840187 -0.24122515 1.6372669 1.739392 -0.54719925 0.619304
2.093671 0.9677675 1.8169771 0.047944695 1.0736871 0.9359107 -0.23601268 -1.2844037
-0.18952529 1.4352728 1.3018327 0.3696683 1.3732514 -0.17134283 -0.20116334 -1.8136458
-0.36213973 0.89488655 2.861165 0.26982006 0.3394859 1.3871441 -0.5079759 0.77576244
-0.23008013 0.28859058 -0.11584274 -1.4408674 0.7592355 0.061834153 0.89075965 0.80104494
-1.2828172 -1.417161 0.04889786 0.682273 0.0763833 2.6805503 1.290037 -1.4893911
1.0254157 0.09075783 0.2962607 -0.048926726 1.0029294 -0.07479926 1.2260156 0.63666886
-0.40683952 2.213238 -0.103864156 -1.1505923 0.67494315 2.233494 -0.5385536 -0.060060434
2.7003238 -1.3067764 0.53678393 -1.2902442 -0.8666065 1.2001214 -0.361156 -2.000562
1.2251525 0.54195493 -0.27428833 0.2658019 -0.74774003 0.5269173 1.4937553 -0.39023426
0.55599064 -2.5181005 -1.3698338 2.0963256 -0.16053179 -1.2717984 0.9411492 0.033123624
0.04658024 0.92162365 -0.3941373 0.68157434 -0.043225497 0.3466614 -0.32724458 -0.9727466
0.69793004 -0.15480755 -0.71965694 0.76422405 -0.4292554 -0.1087103 1.4208239 -0.56559074
0.49298382 0.66676265 -1.1283811 -0.37024593 -0.28360552 -1.0672989 -0.20268494 0.77355343
-0.1777818 -0.20797904 0.21323054 -1.3598304 -0.14453359 -0.26288754 0.8598323 -0.33910066
-0.1896242 -0.617495 -0.04241606 0.48493207 1.6908959 1.9521221 0.29951158 2.4427323
0.07590309 -0.30239686 0.3316878 -0.45203945 0.25410578 -1.1799177 -0.5584668 0.22920835
-1.9080863 -0.2347348 -1.2154155 1.3730369 1.727934 0.9997413 0.4211793 1.4454774
-0.74161506 -0.4836784 1.1658728 -1.169587 1.722164 -0.8631291 -0.021746691 0.032975655
0.52215195 -1.7810694 -1.0818112 -0.28547975 -1.0928193 1.111155 0.66426665 -2.2903821
-0.23595862 0.8557464 0.7916843 -0.5478892 0.27329665 0.94203603 0.93333906 -2.7723546
-0.04108188 0.8466721 -1.1907854 -0.27622917 -0.00712049 -0.78490835 -1.0772954 -0.47190332
1.5069382 0.75372684 0.41756114 0.73866445 0.057500046 0.28073093 -0.8453058 -1.3590727
1.2900896 0.5320448 1.7300291 -0.6510967 0.5034429 -0.8399673 -0.9439548 1.2500029
-0.7522996 -0.11732757 0.9510965 0.014014816 1.0814745 -1.3726012 -0.042965412 1.3177649
-0.9128253 0.07921823 0.44924235 0.42272615 -1.2949847 0.7970443 0.70188737 -2.180734
-0.16922662 0.4963456 -1.5010475 1.761384 1.2275194 -1.5473442 -0.2964115 0.20574366
-1.273734 1.2309492 -0.37311542 1.1256081 1.0066197 0.10927714 0.043803394 1.1152925
-0.2615453 -2.3664227 0.7665148 -0.5880271 -2.498574 -0.26328266 -0.9383164 -1.5075921
1.2141657 0.55368245 0.7447252 0.2384429 -0.4271447 0.089125335 1.2411125 -0.46286452
0.8453146 0.43356344 0.45352438 -1.477899 -0.056941178 -0.64439356 1.2945981 0.87759507
-1.2516857 0.78355837 -1.0711781 0.6062254 -0.35228127 0.94693977 0.8094261 -2.5616016

fc_layers.0.weight f4 [128, 100]
00000000: 1ed7 543d f958 8c3d e47e 0e3d 6bbe 66bd
00000010: 98a9 333d 4508 e1bc ee30 323d c105 0ebd
00000020: dfdf d73b d2b7 853d 88f1 85bd c6ba ce3d
00000030: 3fa4 fbbb a221 87bc 6b88 313d 1d27 593b
00000040: 07e6 a33d 7a0b 803d e28f b43d 13f1 9a3d
00000050: 525e 8fba 04ec 49bd eb3a b0bd 3a72 19bc
00000060: 1595 1f3d b969 18bc b0d6 6b3c 7e4e 823d
00000070: 088d 153d e8cb d03d 4e45 823d 42f7 e7bd
00000080: c566 06bd 350f b9bc 7007 b23d 74a7 d5bd
00000090: 6fa7 c83d bd00 623c 0cad 7abc 5728 11bd
000000a0: 0c1c c0ba 5138 8a3d 3989 e4bd 2def 73bd
000000b0: e911 0fbb 7e73 dc3d d39b 77bc ab0d 1c3d
000000c0: 92aa 913d f692 92bc b6a4 2fbc 1c30 a639
000000d0: b530 8a3d c860 bebc f9b2 3a3c c1ca 78bd
000000e0: 1874 58bd 3404 6c3c a922 8fbd 65e8 fd3c
000000f0: 4ef1 8f3d cb9f 68bd 87ee 15bc cf87 cabb
00000100: 4c6d d2bd d53e be3d 9ad1 d2bc 98e6 86bd
00000110: c305 38bd 943a e1bd fd21 383d 172e bdbc
00000120: 1253 6ebd 292a 723b 2f6b df3c 493e ccbd
00000130: 0b55 7bbd e0f5 92bc edc8 873d 086a aabd
00000140: eb96 953d 3715 9dbd a09a 53bd ae1d a4bd
00000150: fbd5 9d3d b22e d13d 5d30 863d 1d5e ea3d
00000160: fa78 5fb9 a214 74bc 812e 0bbc 3ff2 7e3c
00000170: 313a 6fbc 835d a03d b15a 0dbd 7fc2 283d
00000180: 0bca aabb b2ad 1ebd a3ba a83d 34fd a73d
00000190: 1ef3 5ebd 004a b0bd 7783 d73d e41e 99bd
000001a0: 51f2 5b3d f550 413d 993e a0bc 85a9 263d
000001b0: bf04 afbd 813a e0bb d851 8ebd b60e a4bd
000001c0: 2a69 8cbc 45b8 d93c 2c31 183c f600 773d
000001d0: 1bed fe3b 5a66 223d eaeb 453d 25c1 8f3d
000001e0: 5c62 47bc 7f46 df3c 1005 a9bd dc00 f53c
000001f0: e8ff 753d 67ae 88bd 88f4 5fbd b781 583d
00000200: ac84 9cbd 97c9 a6bc 8de8 58bd 4dd7 0fbd
00000210: e4d2 013d 5d4c 0c3d 3366 39bd 79ee a73d
00000220: 8da9 90bc 335d f43c 10ac 80bd fec8 4e3d
00000230: c493 22bc 6f20 e1bd 22d7 5a3d 9217 7c3d
00000240: 199d 263d a1d3 943d 0b1f c3bc 854e be3d
00000250: 6c2b d0bd 5dfb 40bd 5b22 eebb ecf4 5b3c
00000260: bdcf 1fbd d3e3 0cbc 44f2 5e3d fc86 26bd
00000270: 419b 7e3c bb9e bcbc 1b15 14bd 80d1 a4bc
00000280: a5ec c6bd 2fb3 00bd e8f0 f43c 8315 2dbd
00000290: 0560 51bd 0f5f 8bbd f61b 003d e11a 8ebd
000002a0: 2a21 223d d5c8 ab3d ca22 88bd 7b49 34bd
000002b0: 2b8b 6e3c 630b 4fbc e7c2 66bd 2f41 48bd
000002c0: 7500 d4bd f59b 2abd 123c 743d 3398 07bd
000002d0: bca1 1b3d 6593 ee3c 4033 1a3c 4543 4c3d
000002e0: 441a db3c 5706 013d 922b a5bd 62db 73bd
000002f0: 8a4a acbd 73ae 3ebd 5022 123d a876 6f3c
00000300: ec00 a9bd 3fee 8a3d 455d 433d a404 f9bc
00000310: 62dc b33c 481d 0a3d eb45 a6bd 2542 9ebd
00000320: 25ea 43bd 338d 6abd 9512 163d 372e a7bd
00000330: 8c93 aa3d 2449 4f3d 4b4c 233d 7470 86bc
00000340: bb21 ccbc a75d a23d edcb a43d c611 d03d
00000350: 981e 58bd 9a25 7e3d abf6 d3bd 7aba 97bd
00000360: e464 a8bd 6dbe 573d 6c1e 6b3d 1778 95bd
00000370: 4f67 bfbd 48dd 53bd 1bb4 403c 53ca 69bd
00000380: c680 a23d f0b5 7c3c 6642 ae3c 95f9 dcbb
00000390: 140f 8b3d 4208 f53c 86cd c4bd cc49 bb3c
000003a0: b6a8 d8bd 274b 9d3d 9ca4 f13c 5992 903d
000003b0: fd95 a8bd d54f d1bd 3024 efbc 5cf2 69bd
000003c0: bb7c 18bd d43f 8abd 694a 623d 88c5 403d
000003d0: efb8 153d 607a 933d d9d2 9c3d 0a17 853d
000003e0: a7d8 c33c e975 a13d 7652 9b3d 5ce5 a03b
000003f0: d5a6 ccbd 2efd 31bd 2ecb 933d 6ac0 1cbc
0.051962964 0.06852908 0.03478898 -0.05633394 0.04386291 -0.027469764 0.043503694 -0.034673456
0.006587967 0.065292016 -0.06540209 0.10094218 -0.007679492 -0.01649553 0.04334299 0.0033134886
0.080028586 0.06252189 0.08816506 0.075655125 -0.0010938144 -0.049297348 -0.08604988 -0.009365613
0.038960535 -0.00930255 0.014394447 0.063626274 0.03651145 0.10195142 0.06360875 -0.113264576
-0.032812852 -0.02259026 0.08692825 -0.1043233 0.097975604 0.013794121 -0.015300047 -0.03543886
-0.0014656796 0.06749023 -0.11158986 -0.059554268 -0.0021830744 0.10764216 -0.015112835 0.038098972
0.07112612 -0.017892342 -0.0107204225 0.00031697832 0.067475714 -0.023239508 0.0113952095 -0.060740236
-0.05284509 0.014405299 -0.06989033 0.030994603 0.07028447 -0.056793015 -0.009151108 -0.0061807404
-0.10274753 0.09289328 -0.025734711 -0.06586951 -0.04492737 -0.10997501 0.04495429 -0.023093266
-0.05818469 0.00369514 0.027272789 -0.099728175 -0.0613604 -0.017939508 0.066301204 -0.08321005
0.07304176 -0.07670062 -0.051661134 -0.080134735 0.07706829 0.102139845 0.06552193 0.11443732
-0.00021312005 -0.014897497 -0.008494974 0.015560686 -0.014601276 0.07830336 -0.03451032 0.04120111
-0.0052120737 -0.038739868 0.08238723 0.082025915 -0.054431073 -0.086078644 0.10523122 -0.07476595
0.053697888 0.047196347 -0.019561099 0.04068901 -0.08545827 -0.0068429117 -0.06949204 -0.080106184
-0.01713999 0.026577124 0.009289067 0.06030365 0.00777973 0.03964839 0.04832069 0.07019261
-0.012169447 0.027255295 -0.08252919 0.029907636 0.060058504 -0.066738896 -0.054676563 0.05285808
-0.07642493 -0.020359797 -0.052956153 -0.035117436 0.03169526 0.034252513 -0.04526348 0.08199782
-0.017658973 0.029829597 -0.06282818 0.05048465 -0.009922925 -0.10992514 0.053427823 0.061545916
0.040677164 0.072669275 -0.023818513 0.0929232 -0.10164532 -0.04711472 -0.007267279 0.013425093
-0.039016474 -0.008599239 0.05443026 -0.040656075 0.015539945 -0.023024907 -0.03615294 -0.020119429
-0.09713105 -0.031420883 0.02990003 -0.042256843 -0.051116962 -0.0680524 0.031276666 -0.069387205
0.03958241 0.08387915 -0.066472605 -0.04401539 0.014559547 -0.012636992 -0.056338217 -0.04889029
-0.1035165 -0.04165264 0.0596276 -0.033104133 0.03799604 0.029123018 0.009411633 0.04986884
0.026745923 0.031500187 -0.08064951 -0.05953539 -0.08412655 -0.046553086 0.035677254 0.014615692
-0.08252129 0.06783723 0.04769637 -0.03039772 0.021955673 0.03371933 -0.081188045 -0.0772746
-0.04783072 -0.057263564 0.036638815 -0.08163112 0.083289236 0.05060686 0.03986768 -0.016411044
-0.024918428 0.07928019 0.08046708 0.1015964 -0.05276355 0.06204758 -0.103497826 -0.074086145
-0.08222368 0.05267184 0.05740206 -0.07298296 -0.093458764 -0.051724702 0.0117616905 -0.057077717
0.07934718 0.015424237 0.021271896 -0.0067436197 0.06789985 0.029911164 -0.09609513 0.022862338
-0.10579054 0.0768035 0.029497437 0.070591636 -0.08231733 -0.10220305 -0.02919206 -0.057115898
-0.037228327 -0.067504555 0.055246744 0.04706338 0.03655332 0.072010756 0.076574035 0.06498535
0.023907019 0.07883818 0.075840876 0.0049101543 -0.09992758 -0.04345434 0.07216488 -0.009567359

fc_layers.0.bias f4 [128]
00000000: d372 1b3d fb21 443c 870a 3bbd 9569 4d3d
00000010: aaa3 8dbd 562a f93c 0d5e b83c 2988 363d
00000020: 098a a43d b1e1 3d3d 945e 3e3d f9ec 8b3d
00000030: a3bc 2f3c 688c 31bd ca39 483c a172 a7bd
00000040: b904 86bd 4a9c d43c d52c bb3c 1ca9 e9bc
00000050: 0068 713d 6515 a2bd 2da9 603a 9540 e8bd
00000060: bdca 993d 63fb 55bc af75 003d cc32 903d
00000070: 1eac 5ebd b889 653d 1867 d2bd aa87 2a3d
00000080: 7749 08bd 3b2f d63c 270f 09bd 9bbd c53d
00000090: 0db0 a33d b869 743d f010 e1bc 23cf 27bd
000000a0: 2063 9abd cd1a c53c 479c 6dbd e78a e23d
000000b0: 3a37 50bd 3230 b5bd eed4 b2bc 03c9 5d3d
000000c0: 0b04 d9bc 4c8d b5bd 30c5 733d 1430 323c
000000d0: 41e0 89bd 2bcc 8ebd ded5 31bd 6bed a63d
000000e0: 3591 a93d 2805 9a3c 3175 b13c 7ec1 5dbc
000000f0: 7c10 9cbc 83f8 0fbd e474 81bd 4bd1 88bd
00000100: f2ec 3cbd 83f9 273d 1d8d 563d cb62 88bd
00000110: f8fc 813d 313a 34bd 9eaa 52bd 2ef9 c13d
00000120: a714 50bd 50e2 e1bc 63b9 fe3c c163 9cbd
00000130: 5004 8b3b 995f 5dbd c72b 6dbd d04b 643d
00000140: cb55 8fbd ef49 8abc 32fc a63d a97d 3bbb
00000150: 93e8 893c 2ea0 fabc 6242 c13c 888d 383d
00000160: fb39 e83c 668f 8e3d 2350 81b9 62c4 cc3d
00000170: acaa 50bd 19be 0dbd ccd6 15bd e27a c63d
00000180: f863 03bd 9cca b73c 1b03 93bd ce45 633c
00000190: 577b 643d 83b4 a8bd 5bff 5bbd 9ac3 ee3c
000001a0: af76 36bd 1e65 dbbc a85d 463d 2541 4fbc
000001b0: 332a a23d 1a94 e73c 4d78 2e3c 0c7c ddbc
000001c0: 5bd1 33bd 9434 a8bd 340f ca3d bd72 323c
000001d0: ddde 143d 44a1 e73d 84bc 1bbd 60ff 453d
000001e0: 7a74 dd3c f3e7 a6bc 38e7 7a3b b3cb c33d
000001f0: 3d59 ef3d 8bc0 87bd 930c 343d eb62 653d
0.0379513 0.011970992 -0.045664337 0.05014952 -0.06915982 0.030415695 0.022505784 0.044563446
0.080341406 0.046357814 0.046476915 0.06832308 0.010726127 -0.043346792 0.012220809 -0.081761606
-0.065438695 0.02595343 0.022848526 -0.02852302 0.058937073 -0.07914237 0.0008570131 -0.11340443
0.075093724 -0.013060424 0.03136223 0.07040939 -0.054363362 0.056039542 -0.1027357 0.041633286
-0.033273187 0.026145568 -0.033461716 0.09655305 0.079925634 0.059671134 -0.027473897 -0.040969025
-0.07538438 0.024060631 -0.058010366 0.1106165 -0.05083392 -0.08847083 -0.021830048 0.054146778
-0.026491186 -0.08864841 0.059514225 0.0108757205 -0.06732226 -0.06972536 -0.04341685 0.08150753
0.08279649 0.018801287 0.021662327 -0.013534902 -0.01905083 -0.03514911 -0.06321123 -0.066805445
-0.046124406 0.041009437 0.05238067 -0.06659468 0.06347078 -0.04400081 -0.051432244 0.094713554
-0.050800946 -0.027573735 0.031094259 -0.07636214 0.0042424574 -0.054046247 -0.057903077 0.055736363
-0.069987856 -0.016880957 0.08153571 -0.0028608835 0.016834533 -0.030593958 0.023591224 0.04505685
0.02834796 0.06960945 -0.00024664504 0.099983945 -0.050944015 -0.03460512 -0.0365818 0.09691407
-0.03207776 0.022435479 -0.07178327 0.013871623 0.05578169 -0.08237555 -0.053710323 0.029146004
-0.04454678 -0.026781615 0.04842916 -0.012649809 0.07918205 0.028268863 0.010648799 -0.02703669
-0.04390083 -0.082131535 0.09866181 0.010891614 0.03634535 0.11310056 -0.03802158 0.048339248
0.02703308 -0.020374274 0.003828479 0.09560337 0.11686943 -0.066285215 0.043957304 0.05600254

fc_layers.2.weight f4 [1, 128]
00000000: ac64 94bc e9ae 93bc 3217 f8bc f65c 3abd
00000010: 56f0 f8bc 2688 a83d fed7 fe3c ce7c 8fbd
00000020: e104 7d3d 085c 0abd 709b 39bd ac81 223d
00000030: 733c 2bbd a085 8d3d b290 dc3d fb5d 43bd
00000040: cc1b 303d d492 473c b5f9 393d 4fcf 703d
00000050: 7203 d4bc 4cef 9cbd 1b0a c23c 53a5 23bd
00000060: 760a d13b 7f20 0f3d 7699 153d 219a ce3d
00000070: 0fbe c63d 8d11 40bc 0f6f 11bd 2ec4 933d
00000080: 5f9f b8bb ece6 973d c335 c53d 5d75 da3d
00000090: 3ad2 603d 1055 fdbc 5259 d53d 6a66 cf3d
000000a0: 5902 7b3d 6caa 83bb 2793 103d b50d de3d
000000b0: 8ec4 02bd d760 a2bd 3e9b eb3c 5864 62bd
000000c0: 3f43 1c3d 7c59 6abc 3744 153d f806 afbc
000000d0: f066 08bc 1f84 873d 0549 66bd 42bf 54bd
000000e0: bb4c 1d3d 712d 143d 5cc8 9f3d 7f29 46bd
000000f0: d566 423d fdf5 92bd 2eb1 f13c ed75 cf3d
00000100: 72c3 f8bc c9b6 42bc 0a8d fe3c 3059 5cbd
00000110: 35ab 3a3d fb9d b9ba 437a 9d3d 7510 a43d
00000120: 979a 05bd ef7f f43c b5f7 073d 02d9 be3d
00000130: 95eb 343c 843b 2bbd 1405 e23c 70e7 993c
00000140: 3866 843d 2484 2ebc ff00 843c 3083 70bd
00000150: fea5 74bc c66a d53d 1ec0 bb3d a213 d5bb
00000160: e6f5 d5bc 2dcd 79bd 6728 07bd 4295 a03d
00000170: 761c 82bc 8d52 5f3d 9632 10bd 3cd8 333d
00000180: 4010 273d d103 89bd 93a7 483d 0a97 40bc
00000190: f4aa 8cbb 55bf 3fbd 85d0 39bd e794 aa3c
000001a0: 181d 01bd d130 5bbd 5cef 8f3d e833 54bd
000001b0: 1fc2 523d 896c dcbb c0b7 543c ac45 263d
000001c0: c922 c33d 66db be3a 6b8c b93d 23ed 68bd
000001d0: 450c 873d 9a6d ba3d 0661 9ebd 35cc 2f3c
000001e0: 3791 d8bc 3192 91bd 06c2 a3bd f3d1 c03d
000001f0: 9388 ea3c 4a15 9b3d 26e8 ce3d f826 0cbc
-0.01811441 -0.01802774 -0.030284498 -0.04549881 -0.030388039 0.08229093 0.031108852 -0.070062265
0.06177223 -0.033779174 -0.045314252 0.039674446 -0.041805696 0.069102526 0.10769786 -0.04769705
0.04299526 0.012181003 0.045404155 0.058791455 -0.02588055 -0.0766283 0.02368646 -0.039952587
0.006379421 0.0349431 0.036523305 0.100879915 0.097042195 -0.011722934 -0.035506304 0.07215153
-0.005634233 0.07417092 0.09629395 0.106669165 0.054887988 -0.03092435 0.10417427 0.10126956
0.061281536 -0.0040181186 0.035296585 0.10842458 -0.03192573 -0.07928627 0.028760549 -0.055271477
0.03815007 -0.014303561 0.036442008 -0.021365628 -0.008325323 0.06616997 -0.05622198 -0.05194021
0.038403254 0.03617615 0.078018874 -0.048379418 0.04746135 -0.07175825 0.029503431 0.101299144
-0.030366633 -0.0118844 0.031073112 -0.053795993 0.045573432 -0.0014161462 0.07689335 0.080109514
-0.03261813 0.02984616 0.033195216 0.09318735 0.011042495 -0.041804805 0.027590312 0.018787116
0.06464809 -0.010651622 0.016113756 -0.05871886 -0.014932154 0.10420756 0.09167503 -0.0065025846
-0.02611823 -0.060986686 -0.032997515 0.07840969 -0.015882712 0.054522086 -0.035204493 0.04390739
0.04078698 -0.06690181 0.048987936 -0.0117547605 -0.00429284 -0.046813328 -0.045364875 0.020822955
-0.031521887 -0.05351335 0.07028076 -0.051807314 0.05145466 -0.0067268056 0.012983263 0.040593788
0.09528119 0.0014561235 0.09059986 -0.056866776 0.06594137 0.09102936 -0.077333495 0.010729839
-0.026436431 -0.07107962 -0.079959914 0.09415045 0.028629577 0.0757242 0.101028726 -0.008554213
