ncf_model.pth (torch, 59603 bytes, 9 tensors)

user_embedding.weight f4 [1, 50]
000000 79 1f 4d bf f4 69 3d 3f 74 50 94 3f a3 52 d8 bf
       -0.8012615 0.73989797 1.1587052 -1.6900219
000010 47 22 19 c0 a5 9a 25 3f 76 a7 d8 3f 33 3c 98 bf
       -2.3927171 0.64689094 1.6926105 -1.1893371
000020 51 73 b5 3f c6 de 9a bf a8 2c 51 3f a6 c1 a2 3e
       1.4175817 -1.2099235 0.81708765 0.31788367
000030 a6 d1 b8 3f 34 1f 0a 3c 85 3b 71 3f e7 70 37 be
       1.443898 0.008430291 0.94231445 -0.17914163
000040 d2 dd 62 3e 4f a8 a2 3c bd 21 2c c0 66 26 86 3f
       0.2215493 0.019855646 -2.6895592 1.0480468
000050 3d b8 ea 3f 66 c9 31 c0 17 e1 aa bf a4 18 87 3e
       1.8337475 -2.7779174 -1.3349942 0.26385987
000060 a5 5c d1 3e ae 34 c2 3f 30 05 a3 3f e3 f5 b1 be
       0.40890995 1.5172327 1.2735958 -0.3475791
000070 11 0f 30 bf b2 1b 98 bf 75 70 ae 3f 76 a7 d9 bc
       -0.6877299 -1.1883452 1.3628069 -0.02656911
000080 36 50 f2 3f b9 14 cb bf 7a 4b 2c bf 37 70 21 be
       1.8930728 -1.5865699 -0.6730267 -0.15765463
000090 be 7b 28 3f f1 67 db bf 27 c3 69 bf 5f ea 83 3f
       0.65813816 -1.7141095 -0.91313404 1.0305899
0000a0 3a b1 87 3f ca 20 d9 3e ba 38 fb 3e de b1 6f bf
       1.060096 0.4240783 0.49066716 -0.9363078
0000b0 72 e3 73 bf 96 a3 58 3b 83 e0 3e bf 87 47 d9 3e
       -0.9526893 0.003305649 -0.7456133 0.42437384
0000c0 27 56 1f bf 4c ee cc 3c
       -0.62240833 0.025015973

item_embedding.weight f4 [5, 50]
000000 1f e8 ee 3e 93 7e 56 bf 2d 27 6d bf 88 60 a0 3e
       0.4666147 -0.83786887 -0.926379 0.31323647
000010 bf 82 0f 40 a0 69 49 bf e3 af c4 bd 75 47 22 3f
       2.242355 -0.78676796 -0.0960386 0.63390285
000020 51 f2 c4 be 51 83 79 3e 12 3e 86 3f d7 eb 84 bd
       -0.38466123 0.243665 1.0487692 -0.064902954
000030 6c 13 25 3e e8 2b b3 be 7c 16 97 bf 16 bf 47 c0
       0.1612069 -0.34994435 -1.1803737 -3.121038
000040 29 1d b6 3e 3f 3b 5f 3f 88 20 fd 3e 6f 1b 58 bf
       0.35569122 0.8719978 0.49438882 -0.8441686
000050 cb ca 9f bf 7a 65 63 3f 04 5d 67 bf dc f2 b9 bf
       -1.2483763 0.88826716 -0.90376306 -1.452724
000060 cf 6c 6b bf 3f f2 14 40 03 a7 2d be 72 54 ce bf
       -0.91962904 2.3272855 -0.16958241 -1.6119521
000070 b8 0b 9d 3d eb d6 52 bf b2 05 fc bd 49 35 87 3e
       0.07668251 -0.8235919 -0.12305774 0.2640784
000080 51 6f 00 40 ee a5 08 3f 43 fe 26 be f1 57 a4 bf
       2.0067942 0.5337819 -0.1630793 -1.2839338
000090 ec 9d 70 bd e7 61 b4 3f 82 11 47 bf 41 67 42 3f
       -0.058744356 1.4092377 -0.7776109 0.759388
0000a0 73 1e 1c be 2c 04 52 3f 0d 1d 0d 40 d4 fa db 3e
       -0.1524599 0.82037616 2.204898 0.42964804
0000b0 b2 28 69 bf 1d 5a a1 3e ce 69 93 bf 70 24 a2 bf
       -0.9107772 0.31514063 -1.1516664 -1.266737
0000c0 1b 0f c3 be 47 03 b4 be 57 fb 52 bf 72 91 04 3f
       -0.38097462 -0.3515875 -0.82414764 0.5178443
0000d0 f9 cf d4 3e 8b 53 00 bf fd 20 76 bf 5c 06 f4 3d
       0.4156492 -0.50127476 -0.96144086 0.119152755
0000e0 f1 4f 1f bf 76 bd 0e 3f ab 86 46 3f 43 d0 aa 3f
       -0.62231356 0.55757844 0.77549237 1.3344806
0000f0 4c 03 80 be 6d c4 ce 3f 82 44 c6 bf 69 47 d7 bd
       -0.25002515 1.6153694 -1.5489657 -0.10511667
000100 a8 9e 47 3e 2b b8 68 3f 1a 79 c0 bd 38 6e 28 bd
       0.19494116 0.9090602 -0.09398098 -0.041120738
000110 db 7a 85 bb 43 87 85 3f 87 39 98 3f 4a 54 bf 3e
       -0.0040734834 1.0431904 1.1892556 0.37368995
000120 d3 5c 51 3f 51 c4 cd bf 3d 66 76 3d 5b 69 38 3f
       0.81782264 -1.6075536 0.060156096 0.7203576
000130 98 4d 04 3f 89 d9 31 bf 44 e6 15 40 c7 58 8d bc
       0.516809 -0.6947256 2.3421793 -0.017254246
000140 6f 3c 74 3d 0f 05 85 3d 9b 72 0b c0 99 76 9e bf
       0.059627946 0.064951055 -2.17887 -1.2379943
000150 30 86 2e 3f 94 d3 94 bf f9 ee f1 3e 7e 08 5b bc
       0.68173504 -1.1627069 0.47252634 -0.013368724
000160 a2 eb 0d 3f fa 41 3a 3f 02 54 38 3f a1 c6 ad be
       0.5543767 0.7275692 0.72003186 -0.33940604
000170 13 f7 9b bf de b4 03 3e ea 2a 13 c0 03 d7 57 bf
       -1.2184776 0.12861964 -2.2994943 -0.84312457
000180 e8 fd 3b be e6 c3 49 be 51 5a c6 bf 4a 6e d6 bf
       -0.18358576 -0.19703636 -1.5496312 -1.6752408
000190 29 9d 84 3f 9c af 66 3f cb 64 21 3f ff 16 5d be
       1.0360461 0.9011171 0.6304442 -0.21590804
0001a0 c6 6f 0b 3f c8 9a b0 3d c9 2e a2 3e fb f2 8b 3d
       0.5446743 0.08623272 0.3167632 0.06833454
0001b0 9e e1 ea be 26 f1 b9 3f 1c 61 b8 3e 25 33 71 bf
       -0.45875257 1.4526718 0.3601159 -0.94218665
0001c0 96 7f 3d be 89 7c 6a 3f e9 10 26 bf 32 1f 41 3e
       -0.18505701 0.91596276 -0.6486955 0.18859556
0001d0 ae ba 87 3d 0f 55 dc 3c 9e e4 f1 3f 59 51 83 bf
       0.06627403 0.026896028 1.8897893 -1.02592
0001e0 72 15 02 3f 83 1c bb 3f 38 3e 4b be bc 08 15 3f
       0.5081397 1.4618076 -0.19847953 0.5821645
0001f0 59 e4 8f 3f 40 bb 5c 3e a8 c8 ae 3f 0b 04 de be
       1.1241561 0.21555805 1.3654985 -0.4336246
000200 cf 68 17 3f 20 d1 cd be 63 bb af bf 43 10 89 be
       0.591443 -0.40198612 -1.3729061 -0.2677022
000210 2a 48 86 be 76 a0 3f bf 75 d2 34 3e c7 9e 4f 3c
       -0.26226932 -0.7485422 0.17658408 0.012672133
000220 26 76 01 3f 4a c7 3b bf b5 9b 00 3f 97 a1 ab bf
       0.50570905 -0.73350966 0.5023759 -1.3408688
000230 78 1d 85 bc 44 5a 51 3f 1e 37 a1 be fd a4 b2 3e
       -0.016249403 0.8177836 -0.31487364 0.348915
000240 33 ff a1 be 84 b8 f4 3d 82 03 0b 3f cd 81 04 c0
       -0.31640014 0.11949256 0.5430223 -2.0704224
000250 2d b2 1a bf 7a bb 36 3f 0e 26 2c bf 9d 6c 4d 3f
       -0.60428125 0.71379817 -0.67245567 0.80243856
000260 f0 ec c7 be 19 7e 5b 3f ea 41 8e 3f 57 87 95 bf
       -0.39047956 0.85739285 1.1113865 -1.1681927
000270 cd d1 3c bf e2 ab 97 bf d5 26 0c bf 9c 4e 6a bf
       -0.7375763 -1.184933 -0.5474675 -0.915262
000280 59 03 19 bf b8 ae 89 be 52 0f 9a bf 02 f9 1c bf
       -0.59770733 -0.26891112 -1.2035925 -0.61317456
000290 28 45 8f bf fb 71 f3 3e 3a 30 c8 3f e8 d3 82 3e
       -1.119298 0.47547898 1.5639718 0.25552297
0002a0 13 08 88 3f 15 56 d6 bf aa 30 19 40 a8 65 3f bf
       1.0627464 -1.674502 2.3935952 -0.7476449
0002b0 06 d3 69 bf c1 bb c4 3f 0f 42 6c 3f ac 2f 1d 3f
       -0.9133762 1.5369798 0.922883 0.61400867
0002c0 09 e9 b6 3f d0 a6 ad be 36 97 42 3f b9 64 db be
       1.4289867 -0.3391633 0.7601198 -0.42850283
0002d0 82 61 58 3e 57 87 18 bf 09 b9 03 3f 01 5d 26 3f
       0.21130946 -0.5958151 0.51454216 0.6498566
0002e0 e0 9b 05 3e 83 30 77 bf 74 8a 20 c0 d7 15 a1 bf
       0.13047743 -0.965584 -2.5084505 -1.258479
0002f0 69 a1 14 bf 8c 4d eb be 09 7f 33 bf b8 38 5f 3f
       -0.5805879 -0.459576 -0.70115715 0.8719592
000300 a4 10 17 bd 75 99 e2 bf d3 e1 ba be 90 c8 ca 3f
       -0.036881104 -1.7703081 -0.36500415 1.5842457
000310 6f b2 95 bf f3 c0 ba be c3 71 03 3c d0 18 81 3f
       -1.1695079 -0.36475334 0.008022728 1.0085697
000320 29 42 9a bf 4a 6f 29 bf ed c4 ca bf d2 7c d1 3f
       -1.205144 -0.6618544 -1.5841347 1.6366217
000330 d0 f3 08 bf f8 14 0c 3e 50 e6 bb 3e 7f 77 9f 3e
       -0.5349703 0.13679874 0.36699152 0.31145856
000340 d5 5e 13 bf 9d 8d ae bf 81 bd d2 3e cb 94 04 be
       -0.5756658 -1.3636967 0.41160205 -0.12947385
000350 22 a0 a5 3f 8f de 0a bf 38 d1 c6 bf 80 27 84 3f
       1.2939494 -0.5424585 -1.5532598 1.0324554
000360 cd 45 c0 3f c4 48 58 3e e0 c9 d9 3e 5f a8 c7 3e
       1.5021302 0.21121508 0.4253683 0.38995644
000370 3c 15 fc 3e 80 5b 3f be 99 99 a4 3f 49 71 81 be
       0.4923495 -0.18687248 1.2859374 -0.25281742
000380 87 6c e9 3f d9 b0 04 3f b3 3d 5f 3f 4c 27 c1 bf
       1.8236245 0.5183235 0.8720352 -1.5090117
000390 e8 76 25 bf 0e 7a 0a c0 c1 0d 72 be 9d f3 ce bf
       -0.6463456 -2.1636996 -0.23638059 -1.6168095
0003a0 5b 3e 6a bf 30 25 cb 3e 1c ad 1d 3f 81 e8 47 3e
       -0.91501397 0.3967681 0.6159227 0.19522287
0003b0 5a 91 65 3f b1 cc 7c be c5 ad c8 bf 7c 25 43 3f
       0.89674914 -0.24687459 -1.567803 0.7622907
0003c0 57 17 78 3f 72 1c d2 bf de 22 a2 3f e3 6a 8d bf
       0.96910614 -1.6414931 1.2666891 -1.1048244
0003d0 4f 09 bf 3e 4b 67 5a 3f 0f 2a 7a bf 15 2e 10 3f
       0.3731179 0.8531386 -0.97720426 0.56320316
0003e0 82 14 aa bf 39 00 53 bf
       -1.3287508 -0.82422215

fc_layers.0.weight f4 [128, 100]
000000 81 ba 94 bd 6f 6a a0 3d 27 33 3b bd 6c 90 70 3d
       -0.07262135 0.078328006 -0.04570308 0.05873148
000010 ed 6d 07 bc f7 18 00 bd 81 59 ae 3b ee cf 5d 3d
       -0.008265954 -0.03127381 0.0053207283 0.054153375
000020 b2 9d 01 bd 62 bd 35 3d 10 62 59 3d 91 de 88 3d
       -0.03164453 0.044370063 0.053072035 0.06683076
000030 fb 02 44 3d b5 5f 69 3d 52 7a 33 bd 46 8f 36 3d
       0.047854405 0.05697604 -0.043817826 0.04457023
000040 39 00 20 3d 48 f7 37 3d 97 33 0c 3c d7 8a aa 3a
       0.039062712 0.04491356 0.008557222 0.0013011348
000050 0e bb 83 bd 6d 20 f7 bc 91 e7 85 bd f8 11 97 ba
       -0.06432162 -0.030166829 -0.065383084 -0.0011525741
000060 17 5d 97 3c 41 60 36 3d 18 2b 48 bd 99 51 05 3d
       0.018477006 0.04452539 -0.048869222 0.03254852
000070 f9 cc b3 bc 1f 53 d3 ba 3d 43 29 3b 16 9b 74 3d
       -0.021948325 -0.0016122794 0.002582743 0.059718214
000080 be b1 15 bb 97 4f 2d 3d 25 fe c7 3c 3e 05 fc bc
       -0.0022841538 0.04231223 0.024413178 -0.030764218
000090 62 00 9b 3d 2d 41 17 3d 0e 3e 9c 3d 2a 99 b2 3c
       0.075684324 0.03692739 0.076290235 0.02180155
0000a0 9c e6 1f bb c9 5e 3b bd 1f 39 0a 3d b9 a1 0d bd
       -0.0024398929 -0.04574469 0.03374588 -0.03457806
0000b0 e6 1c 32 3b 5d a0 0c 3d 1b 7e da bc ed 19 72 3c
       0.002717787 0.03433262 -0.02667146 0.014776689
0000c0 74 7e 93 bc 1e 22 09 3d 9e 89 38 bc bb 3a 80 bd
       -0.018004633 0.033479802 -0.011263279 -0.06261202
0000d0 ad 30 d5 3d f9 27 b5 3c 66 88 59 bd 53 1d 64 3d
       0.10409675 0.022113787 -0.053108595 0.05569203
0000e0 3d da bc bd d2 d9 1e 3d cf ca b9 bd 7c f0 ab 3c
       -0.09221313 0.03878195 -0.09071886 0.020988695
0000f0 35 82 3a bd 2f eb 4b bc 41 eb b2 bd d7 1f 94 bd
       -0.04553433 -0.012446209 -0.08736277 -0.072326355
000100 cc ea f5 3c 81 db ba 3d 2e 3e a2 bc ea 07 8a bd
       0.030019186 0.09123898 -0.01980504 -0.06739791
000110 76 a3 c8 bc 5b 76 6a bd 98 cf aa bd d3 04 59 3d
       -0.024492007 -0.05724178 -0.083403766 0.052983116
000120 07 9b 78 bc 13 de 37 bd df 38 71 bd ad 98 24 3d
       -0.01517368 -0.04488952 -0.058892127 0.040184665
000130 18 1e 9b bd a2 be a2 bd 49 06 6c 3c ae 3c a1 3c
       -0.07574099 -0.079465166 0.014405795 0.019682255
000140 81 fb 6c 3d 2d 3f 92 bc 57 a3 af bd 72 0f ab 3d
       0.05785704 -0.01785239 -0.085760765 0.08352555
000150 23 e0 c5 bd fa 7f 88 bc 3d bf a0 bd ea 04 9f 3d
       -0.09661891 -0.016662586 -0.07848976 0.07764609
000160 c8 45 c0 3d c0 47 93 bd 1f 70 a5 bd d7 ab dc bb
       0.0938831 -0.071914196 -0.08078026 -0.006734352
000170 98 be 1e 3d 5e 7f 15 bc e8 e2 a2 3d 2b e5 24 bc
       0.038755983 -0.009124605 0.07953435 -0.0100644035
000180 b1 93 90 3d 9b 9a 10 3d 15 ac e3 ba 3a c9 c7 3d
       0.0705942 0.035303693 -0.001737001 0.09755178
000190 46 27 cf ba 37 50 bb bb 57 00 f1 bc d5 0f 28 3d
       -0.0015804551 -0.0057163495 -0.029419107 0.041030724
0001a0 87 e6 37 ba 3f 49 1f bc 36 ba 70 3c 2f b9 9b bd
       -0.0007015247 -0.009722053 0.014692834 -0.0760368
0001b0 0b 2b ae 3b 3b 32 c0 bc 9b d6 1d 3d 9c ff 76 3d
       0.0053151897 -0.023461452 0.03853474 0.06030236
0001c0 ee 72 5b bd 9d 46 18 3c d9 ba 5d bd 46 7c 9c 39
       -0.053576402 0.009294179 -0.05413327 0.0002984723
0001d0 b7 27 ed bc 8c 5a 59 3d c0 13 40 bd 84 42 48 bd
       -0.028949602 0.053064868 -0.046893835 -0.04889156
0001e0 aa 47 ee 39 bb c0 23 bc 41 a8 9e ba 89 b8 85 bd
       0.0004544829 -0.009994681 -0.0012104587 -0.06529338
0001f0 b5 16 1c 3d 4d 20 a4 bc 4c 36 50 ba 75 b6 6c 3d
       0.038107593 -0.020034933 -0.0007942661 0.057791192
000200 34 db 33 bd d7 ae 1f bb ff a1 94 3d 4b 22 a6 bc
       -0.04391022 -0.0024365687 0.07257461 -0.020280024
000210 0e 05 9f 3d 8e 54 2b bb f2 84 18 bd 54 98 7e 3a
       0.07764636 -0.0026142928 -0.03723616 0.000971203
000220 ed cc 8a 3d 19 09 5d bc 1d d3 cb bb e8 3c 3d bb
       0.06777368 -0.013490939 -0.006220235 -0.0028875414
000230 93 35 2b 3c d8 a3 2d 3d a2 18 35 bb bc 37 d4 bb
       0.010449785 0.04239258 -0.002763309 -0.0064763706
000240 23 fc 31 3b 6c 11 05 3d a1 ad 9d bc b4 61 6e 3d
       0.0027158342 0.032487318 -0.019247832 0.058198646
000250 19 18 ae 3c 8a 92 d8 b9 9a d6 91 bd 64 62 05 bd
       0.021251725 -0.0004130791 -0.0712101 -0.032564536
000260 04 8a 96 3d 6e ba ab bd e7 00 8b 3b 74 ed e3 bc
       0.07350543 -0.08385168 0.004242051 -0.027823187
000270 d2 16 17 3c f4 6d 6f 3c 9d bc fc bb eb ec 0b 3d
       0.009221749 0.014613617 -0.007712914 0.03416149
000280 61 70 87 3c dd 5f d0 bc ba 9f c3 bb 2f 46 79 bd
       0.016533079 -0.025436336 -0.0059699686 -0.060857948
000290 90 68 8a 3d 8d 2b 0c bd 3b d4 81 bd 48 56 d7 bc
       0.06758225 -0.03422122 -0.06339308 -0.02628626
0002a0 48 36 9f bd 21 18 99 3d 62 17 b1 bd 13 a4 8c 3d
       -0.07774025 0.07475305 -0.08647038 0.06867232
0002b0 50 c4 d4 bb 80 6f bb bc 2f 8b da 3c 9c 0f 99 bc
       -0.006493129 -0.022880316 0.026677696 -0.018684201
0002c0 4a 63 62 bd de 52 f4 3c d5 22 d3 3b bb a5 61 3d
       -0.05527047 0.02982467 0.0064433613 0.055089694
0002d0 cb ea 78 3d 6c a1 9a bd 81 77 c4 3d 5c b5 33 3c
       0.06077079 -0.0755032 0.09593106 0.010968532
0002e0 4f c0 cf bd 67 1c 3d bd 17 f9 93 bd 52 1b 6f 3d
       -0.10144102 -0.046169665 -0.072252445 0.058375664
0002f0 c6 cf 5b 3d 84 62 81 bd 5a b9 91 bd 5f 26 35 bd
       0.053664945 -0.063176185 -0.07115431 -0.044226047
000300 20 1c 8c 3d 9c 01 44 bd 4f 6f 08 bd b1 70 e4 3c
       0.06841302 -0.047853097 -0.033309277 0.027885767
000310 1a 41 77 3d 5f e0 82 3d 9e 4c af bd 91 57 c5 3d
       0.06036482 0.06390452 -0.085595354 0.096358426
000320 40 17 be b7 78 c2 62 bd ac 52 9c bc 82 22 de b9
       -2.2660592e-05 -0.05536124 -0.01908239 -0.0004236885
000330 33 2f 6c bd 3c eb ec 39 ef eb 2d bd 61 6b 84 39
       -0.0576622 0.0004518869 -0.042461332 0.00025257005
000340 7c 17 1a bd a4 19 17 bd d3 40 94 3d cc bd 8e 3d
       -0.037620053 -0.036889687 0.07238927 0.06969795
000350 5a d1 44 3d 89 7c e8 ba cb 73 31 3c 3c de cc ba
       0.048051216 -0.001773731 0.01083083 -0.0015630196
000360 7e 9d 8a 3d 9b 04 07 3d 39 e4 1a 3b 3d 29 72 bc
       0.067683205 0.032963376 0.0023634566 -0.01478034
000370 a1 d0 8e 3d a0 28 7e bd 80 ec 80 3d c2 40 1c bd
       0.069733866 -0.06205046 0.06295109 -0.038147695
000380 c4 20 67 bd 7d 0b 18 bd 76 10 8f bc 0d e5 74 3d
       -0.056427732 -0.03712033 -0.017463904 0.059788752
000390 ab cb 75 3d 5a 97 98 3d c6 6c 99 bc 10 dd 6a bd
       0.060008686 0.07450743 -0.018728625 -0.057339728
0003a0 84 15 23 bd 95 8b a3 bd a4 69 ec bc 91 a6 32 3b
       -0.03981544 -0.079856075 -0.028858967 0.0027259926
0003b0 0e 49 dc bc 61 43 23 bd 0b af 43 bd 74 07 00 3d
       -0.026890304 -0.03985918 -0.047774356 0.031257108
0003c0 6c 29 9c 3c e5 7e 8f bd b5 55 17 3d 1e c0 93 bd
       0.01906272 -0.07006625 0.03694697 -0.07214378
0003d0 4e cd 10 bd 78 f8 38 3c 27 56 91 3d 87 6b 92 bd
       -0.035352044 0.011289708 0.070965104 -0.071494155
0003e0 24 61 a4 bd 15 ff 4b bd 57 45 67 bb 64 06 00 3d
       -0.080263406 -0.049803812 -0.0035289133 0.031256095
0003f0 7c ce ab bd e7 b6 89 3d 8a a3 c1 bd dc 7f 97 bd
       -0.08388993 0.06724339 -0.09455021 -0.07397434

fc_layers.0.bias f4 [128]
000000 ac b5 fe 3c 41 06 36 3c 9c 54 bb bc 90 2a f8 bc
       0.031092487 0.0111098895 -0.022867493 -0.030293733
000010 d2 e6 54 3c 61 3b 65 bc 68 d4 50 bd 3c b0 ad bb
       0.012994485 -0.013991208 -0.050983816 -0.00530055
000020 f6 a0 bb 39 c2 d7 76 3d f3 c1 a0 bd 04 df 8a 3d
       0.00035787345 0.060264356 -0.07849493 0.06780818
000030 b4 03 df 3c e7 4e 58 ba 28 43 ae 3c 6a 31 79 ba
       0.027223445 -0.00082515035 0.021272257 -0.00095059595
000040 cf 63 88 3d 6d a4 e6 3c 53 a5 ec bc c1 1b 08 3d
       0.06659662 0.028154576 -0.028887426 0.033229593
000050 f8 35 a2 bd 87 29 a7 3c 05 03 93 bd 4e 71 3e 3d
       -0.0792045 0.020405544 -0.0717831 0.046494775
000060 c2 f8 6a bd 9b 24 51 bd f0 85 17 3d 35 a6 a0 ba
       -0.05736614 -0.0510603 0.036992967 -0.0012256565
000070 84 a2 85 3d 9d 4c 4f bd 7c 9b 88 bd 2a 34 2b 3c
       0.06525138 -0.050610173 -0.06670281 0.010449449
000080 19 3a 32 bd 72 01 97 bd 2a 0b de ba 8d fa 92 3c
       -0.043512437 -0.073733225 -0.0016940583 0.017941738
000090 06 18 e9 38 48 3b 86 bd a6 a6 4c ba 5d 98 4c bd
       0.000111147805 -0.06554276 -0.0007806815 -0.049949992
0000a0 8e 80 d6 3a 1e 0b fc bc df f5 0d bd 71 71 f3 bc
       0.0016365217 -0.03076702 -0.03465831 -0.029717179
0000b0 84 71 91 3d 2b 44 d1 3c dd b9 d5 bc 52 27 94 bd
       0.071017295 0.0255452 -0.026089603 -0.07234062
0000c0 30 d0 3a bd 5e 14 d3 ba d9 e2 43 bd ed 3d 8f 3d
       -0.0456087 -0.0016104092 -0.04782376 0.06994233
0000d0 27 38 9f 3d 47 a6 64 bd d1 08 f1 3c 42 56 1a 3b
       0.07774382 -0.055822637 0.02942315 0.0023549949
0000e0 e3 76 dc 3c 18 50 f4 ba e6 43 a8 39 4b 13 c3 bc
       0.026912158 -0.0018639592 0.00032094045 -0.02381291
0000f0 de fe 58 3d 37 a2 76 bd 62 91 e6 bb 78 cb 06 b9
       0.052977435 -0.060213294 -0.007036374 -0.00012855034
000100 d6 d8 96 3d 86 50 05 3d 85 db 87 bd b9 dd a6 3c
       0.07365577 0.032547496 -0.06633667 0.020369397
000110 69 50 1d 3d 14 e2 86 38 8c f5 55 3d e8 90 46 3d
       0.038406763 6.431728e-05 0.052236125 0.048478037
000120 30 b5 b5 37 0e f4 1e 3d f4 b3 94 3d 15 7e ac 3b
       2.1661253e-05 0.038806967 0.07260886 0.0052640536
000130 13 6e 63 bd 6f 43 92 3d 09 2a 78 3a 1d f6 63 3d
       -0.055524897 0.07141768 0.0009466713 0.055654634
000140 16 e5 f0 3a ac d1 fe ba a1 d5 c5 ba 1b 99 ea 39
       0.001837882 -0.0019441149 -0.0015093574 0.0004474603
000150 85 5b 4a 3d 57 64 2a 3c 27 77 64 3d d1 a8 61 3d
       0.049403686 0.010399899 0.055777695 0.055092636
000160 ac d6 60 3d 13 75 af 3c c2 f3 36 3d fc f0 48 bd
       0.054892227 0.02141813 0.04466606 -0.049057946
000170 bc f7 d6 3c 36 3d 17 3c 1a 03 3e 3d af 10 35 bb
       0.026241176 0.009230902 0.046389677 -0.0027628352
000180 af b4 34 3b e0 2d dd bb 61 9c 1f 3d c3 2f 69 bd
       0.0027573516 -0.0067498535 0.038967494 -0.056930315
000190 13 0e 59 bc d3 69 62 3c 8b 16 11 b9 42 33 11 3d
       -0.013247984 0.013819176 -0.00013836675 0.035449274
0001a0 ad 3a 30 bd 50 c4 91 bc e0 73 c1 3c 32 c7 94 3d
       -0.043024708 -0.017793804 0.023614824 0.07264556
0001b0 8c 8a 76 3d ec 2e 16 bd 7f d8 87 3d 68 d4 47 bd
       0.060190722 -0.036665842 0.0663309 -0.04878655
0001c0 ac fc 75 bd 1e 7d 73 3d 10 8f d2 b9 e1 7a a3 bd
       -0.06005542 0.059445493 -0.0004016091 -0.07982422
0001d0 9c 3b d4 3c 05 64 0d 3d 54 c7 fa 3a d5 19 c2 3a
       0.02590733 0.034519214 0.0019132891 0.0014808724
0001e0 60 b3 46 3b f1 9b 99 bd 18 98 26 bd 9e 75 5c 3d
       0.0030319318 -0.075004466 -0.04067239 0.053823106
0001f0 35 3a 6b 3d 9f d3 60 bd bc 4e 37 bd 48 e8 04 ba
       0.057428557 -0.054889318 -0.04475282 -0.0005070013

fc_layers.1.weight f4 [128]
000000 fe 13 7c 3f 53 84 7b 3f 9e 58 7b 3f b7 bb 81 3f
       0.98468006 0.98248786 0.98182094 1.0135411
000010 ad 64 82 3f f5 40 82 3f d4 1d 82 3f f2 e5 7b 3f
       1.0186974 1.0176073 1.0165353 0.98397744
000020 23 b7 81 3f bb 25 82 3f 4b cd 7b 3f df 75 7c 3f
       1.0134014 1.0167764 0.9836013 0.98617357
000030 c7 78 7c 3f ce 50 82 3f c0 3d 82 3f ae 68 7d 3f
       0.9862179 1.018091 1.0175095 0.98987854
000040 11 e0 7b 3f 40 2a 7c 3f 4a 61 7b 3f 7a dc 81 3f
       0.98388773 0.9850197 0.98195326 1.0145409
000050 a8 15 7c 3f 44 26 82 3f 8b 39 82 3f bb 4e 82 3f
       0.98470545 1.0167928 1.0173811 1.0180277
000060 28 48 82 3f e9 cd 7b 3f cf ac 7b 3f f2 6c 7b 3f
       1.017827 0.9836107 0.9831056 0.9821311
000070 41 80 7b 3f 79 bf 7b 3f fa 4f 82 3f d8 66 7c 3f
       0.98242575 0.9833904 1.0180657 0.9859443
000080 bc 06 82 3f a8 f0 81 3f 03 3e 7f 3f d7 a8 7b 3f
       1.0158305 1.0151567 0.99704 0.98304504
000090 ea d8 81 3f cd 22 7c 3f df b2 7b 3f b7 6c 7b 3f
       1.0144322 0.984906 0.9831981 0.9821276
0000a0 94 dc 7b 3f 3a 29 7d 3f 97 b5 7b 3f 91 50 82 3f
       0.9838345 0.9889103 0.9832396 1.0180837
0000b0 48 41 82 3f c1 53 82 3f 2a 45 82 3f 30 94 7b 3f
       1.0176172 1.018181 1.0177357 0.9827299
0000c0 05 01 7c 3f d5 57 7b 3f 3b 1f 82 3f fc 43 7c 3f
       0.98439056 0.98180896 1.0165781 0.98541236
0000d0 08 45 82 3f a2 72 7b 3f 75 c7 7b 3f b2 6d 82 3f
       1.0177317 0.9822179 0.9835122 1.0189726
0000e0 10 6f 7b 3f 57 b1 7b 3f 91 25 7c 3f cf 4a 82 3f
       0.9821634 0.98317474 0.9849482 1.017908
0000f0 02 55 82 3f 03 2b 82 3f 92 02 82 3f e9 ec 7b 3f
       1.0182192 1.0169376 1.0157034 0.9840837
000100 8a 48 82 3f 6e 48 82 3f e9 db 7b 3f 38 be 7b 3f
       1.0178387 1.0178354 0.9838243 0.98337126
000110 56 99 7b 3f 1b 63 82 3f 0e 8d 81 3f 22 87 7b 3f
       0.9828085 1.0186495 1.0121171 0.9825307
000120 85 5b 82 3f a6 a0 7b 3f c6 30 82 3f e1 c0 81 3f
       1.018418 0.98292005 1.0171134 1.0136987
000130 53 0f 7c 3f b9 f8 81 3f 7e a6 7b 3f a6 fc 7b 3f
       0.9846088 1.0154029 0.9830092 0.98432386
000140 26 f9 7b 3f b7 e1 7e 3f 08 5a 82 3f 0a de 7b 3f
       0.98427045 0.99563164 1.0183725 0.9838568
000150 e1 95 7b 3f 30 f0 7b 3f 12 be 81 3f 0a 4d 82 3f
       0.9827557 0.9841337 1.013613 1.017976
000160 89 1a 82 3f 78 ed 81 3f 86 83 7b 3f be db 7b 3f
       1.0164348 1.0150595 0.98247564 0.98382175
000170 5a 3b 82 3f a9 5b 82 3f 1e 48 82 3f ac cc 7b 3f
       1.0174363 1.0184222 1.0178258 0.9835918
000180 ec bb 81 3f 25 27 82 3f ae 3c 82 3f 4a e4 81 3f
       1.0135474 1.0168196 1.0174768 1.0147793
000190 96 86 7b 3f a1 9a 7b 3f 8f d8 7b 3f e6 66 82 3f
       0.98252237 0.9828282 0.9837732 1.0187652
0001a0 b2 b0 7b 3f 6e 4b 82 3f c9 53 82 3f bd ca 7b 3f
       0.9831649 1.0179269 1.0181819 0.9835623
0001b0 ab 45 82 3f 26 ac 7b 3f f4 d9 7b 3f 5d 3c 82 3f
       1.0177511 0.9830955 0.98379445 1.0174671
0001c0 94 71 7b 3f 09 52 82 3f d4 32 7c 3f ad 9c 7b 3f
       0.9822018 1.0181285 0.9851506 0.98285943
0001d0 0b 4f 82 3f 39 68 7b 3f ab 52 82 3f ee 19 82 3f
       1.0180372 0.98205906 1.0181478 1.0164163
0001e0 7a 64 82 3f 65 b0 7b 3f d4 d9 81 3f 30 ee 7b 3f
       1.0186913 0.9831603 1.0144601 0.9841032
0001f0 73 3e 82 3f 7b 82 81 3f 8d 0e 7c 3f 12 19 82 3f
       1.0175308 1.0117944 0.984597 1.0163901

fc_layers.1.bias f4 [128]
000000 3e 56 89 bc 24 f6 6e bc a5 d6 98 bc 02 7f 7c 3c
       -0.016764756 -0.014585052 -0.018657038 0.01541114
000010 67 45 95 3c 73 52 8e 3c af 39 79 3c 61 cb 84 bc
       0.01822157 0.0173733 0.015211507 -0.01621026
000020 0d 7e 92 3c ad cd 8c 3c 7e 9e 5a bc 4e 2f 93 3b
       0.017882371 0.017187918 -0.013343452 0.004491723
000030 38 df 48 b9 64 2b 96 3c 6b fb 94 3c 69 51 a2 3c
       -0.00019156642 0.018331237 0.018186292 0.01981421
000040 c1 4e 8b bc b0 97 7e bc 61 05 88 bc e4 ee 85 3c
       -0.017005326 -0.015539095 -0.016604127 0.016349263
000050 fb 91 89 bc cc cf 8c 3c 82 d1 95 3c 0d 9b 97 3c
       -0.016793242 0.017188929 0.018288378 0.018506551
000060 82 b8 93 3c 0b c0 86 bc a9 e6 84 bc 73 15 8e bc
       0.018032316 -0.016448995 -0.016223269 -0.017344212
000070 24 88 9f bc 80 ff 82 bc e8 13 96 3c b7 9a 6d bc
       -0.019474097 -0.015990973 0.018320039 -0.014502219
000080 51 75 8f 3c c3 a3 80 3c 42 0a 90 3c bc 8f 01 bb
       0.017511996 0.015703088 0.017583016 -0.001976951
000090 b0 d7 87 3c 00 f2 83 bb 52 3a 81 bc 40 0e 8b bc
       0.01658234 -0.0040266514 -0.01577488 -0.016974568
0000a0 19 68 83 bc fd 0f 02 3c af e7 8d bc 53 11 98 3c
       -0.016040849 0.007938382 -0.01732239 0.018562948
0000b0 26 a7 93 3c 98 ea 97 3c 57 b1 92 3c cc 69 93 bc
       0.018024039 0.01854448 0.017906828 -0.017994784
0000c0 0d a3 76 bc 7b c4 85 bc 46 6c 8c 3c fc 0e 7a bc
       -0.015053523 -0.01632904 0.017141473 -0.015262362
0000d0 b5 bb 98 3c fe 6a 90 bc 4e f2 8f bc a9 32 9c 3c
       0.018644193 -0.017629143 -0.017571595 0.019067125
0000e0 14 a1 8d bc 49 45 92 bc 9e d5 ae bb ea 96 99 3c
       -0.017288722 -0.017855303 -0.0053355237 0.01874872
0000f0 fb 5b 96 3c 5d 46 89 3c 7c 6a 88 3c e1 30 75 bc
       0.018354407 0.016757185 0.016652338 -0.014965267
000100 b5 9c 96 3c a1 6b 92 3c 38 27 6c bc 2e 8f 8b bc
       0.01838527 0.017873587 -0.014413647 -0.017036047
000110 4a 62 91 bc 7c 33 9e 3c e1 bb 97 3c 0d 65 97 bc
       -0.017747063 0.019311659 0.018522205 -0.018480802
000120 2e db 99 3c 5e 2e 87 bc 82 7c 8e 3c d9 ab 7f 3c
       0.01878127 -0.016501602 0.017393354 0.0156049365
000130 83 f3 69 bc 07 59 84 3c 04 77 90 bc 88 8c 6b bc
       -0.014279249 0.016155733 -0.017634876 -0.014376767
000140 d5 4d 1a bc 89 77 7d 3c 4b 5b 9e 3c db 03 80 bc
       -0.009417971 0.015470394 0.019330641 -0.015626838
000150 97 27 00 bc c8 44 86 bc 8c ad 76 3c 65 9d 91 3c
       -0.007821939 -0.01639022 0.015056025 0.017775247
000160 76 e9 8e 3c c1 65 8b 3c 86 e4 80 bc 40 c7 83 bc
       0.017445307 0.017016293 -0.015733968 -0.01608622
000170 5b f4 93 3c f7 8f 98 3c e3 3d 93 3c 41 d8 41 bc
       0.018060854 0.018623335 0.017973846 -0.011831344
000180 9e 80 82 3c cf 80 9b 3c 75 9b 95 3c 8c 55 93 3c
       0.01593047 0.01898232 0.018262604 0.017985128
000190 3e 9e 96 bc 27 47 82 bc a8 70 72 bc 21 07 9b 3c
       -0.018386003 -0.015903069 -0.014797367 0.018924298
0001a0 97 3e 90 bc 90 eb 93 3c 50 9b 9a 3c ea f2 21 bc
       -0.01760797 0.01805666 0.018872887 -0.009884575
0001b0 79 6e 92 3c 30 01 80 bc a7 55 87 bc 58 d2 9a 3c
       0.017874943 -0.015625566 -0.016520334 0.018899128
0001c0 50 a1 98 bc ad bd 95 3c ea 65 63 bc 37 8e 85 bc
       -0.018631607 0.018278921 -0.013879279 -0.016303165
0001d0 86 ff 95 3c 4c d2 8a bc 04 c0 98 3c 25 58 91 3c
       0.01831032 -0.01694598 0.018646248 0.017742226
0001e0 d0 69 9a 3c ab 6f 87 bc 68 50 8e 3c fc 18 6f bc
       0.018849283 -0.01653274 0.017372325 -0.014593359
0001f0 0c 50 94 3c c7 5f a4 3c d6 b3 55 bc 1f 17 8c 3c
       0.018104576 0.020065201 -0.0130433645 0.017100869

fc_layers.1.running_mean f4 [128]
000000 4f ab a9 be 3d 24 3c 3e 4a 73 fe 3e 77 9a fb 3e
       -0.3313851 0.18373199 0.49697334 0.49141285
000010 cb 52 fc be ca ba f1 3e 20 df 29 3e ac 9b 5f 3f
       -0.49281916 0.4721282 0.16589022 0.8734691
000020 d8 6a 74 bf 59 2c a7 3e f2 15 1f bd 8b e0 e5 be
       -0.9547553 0.32651022 -0.038839288 -0.44897875
000030 c7 4b 3e 3d f2 78 e3 3e 8e 97 4d 3e a1 4b 0e 3f
       0.046458986 0.4442821 0.20077345 0.5558415
000040 87 03 d9 3e 5f 74 cd bd 02 5d 93 be 0d f2 8c be
       0.42385504 -0.10031962 -0.28781897 -0.2752842
000050 03 ac 54 be c3 a9 b9 be fe de 90 3d 02 d9 0a be
       -0.20768742 -0.3626233 0.070737824 -0.13559344
000060 94 ac b5 3d c2 2f b7 3e 53 18 e7 be f1 9b b0 3d
       0.08870807 0.35778624 -0.45135745 0.086234935
000070 96 cb 64 be 3e fd b3 bd f4 91 db 3e 45 c5 63 3e
       -0.22343287 -0.087885365 0.4288479 0.22243221
000080 f2 f1 ba be 3e 2a 57 3e 33 2a ec 3c 3d 95 e8 3e
       -0.36512715 0.21012208 0.028828716 0.4542636
000090 d0 b2 dd bc c9 66 f2 3e af b7 50 be 30 df 96 be
       -0.027062804 0.47344044 -0.2038257 -0.29467154
0000a0 7c 22 28 bf 2a 0b 54 3e aa f7 30 3e 1d d7 cb 3c
       -0.6567762 0.20707384 0.17281976 0.024882847
0000b0 9c 25 0b 3f ae bb 0c bf 18 52 79 bc 26 6a ca bd
       0.5435426 -0.54973876 -0.015217327 -0.098835275
0000c0 55 9b 08 bf cd 92 9c 3e 6d 05 6b bd 2b 10 b1 be
       -0.5336202 0.3058075 -0.05737822 -0.34582648
0000d0 c7 2f b0 3d e0 48 56 bf da f8 16 3f 65 40 38 3c
       0.08602863 -0.8370495 0.5897347 0.011245822
0000e0 5b 70 ef 3c d2 2c 89 be 7c a2 d7 ba 31 fa c1 be
       0.02922838 -0.26792008 -0.0016451622 -0.37886193
0000f0 6c c0 9e 3e 80 83 76 bf b4 d1 82 be 7c 61 45 be
       0.3100618 -0.96294403 -0.25550616 -0.19275469
000100 49 00 bf be 72 69 64 be 58 4d f7 3e 9a 52 88 bd
       -0.37304905 -0.22305849 0.48301196 -0.0665638
000110 0a d9 01 bf c8 08 83 bd 38 de c1 be 5d 44 ab bd
       -0.507218 -0.06398159 -0.37864852 -0.08362649
000120 f8 7a f6 3d 61 b4 ad 3e 27 ef 3f bd dc ac ba be
       0.12035173 0.3392668 -0.046858933 -0.36460006
000130 b3 69 30 3d 5f 61 5f bf 55 70 1f be d4 22 05 3f
       0.043069553 -0.8725795 -0.15570195 0.5200627
000140 40 83 51 3e 70 84 f0 3d b2 a9 51 bd de e5 6e 3e
       0.20460224 0.117440104 -0.051187225 0.23329875
000150 ff f2 05 bf ae be 89 3e ae 90 a2 3e 87 d9 91 3e
       -0.5232391 0.2690329 0.31751007 0.28486273
000160 cc 29 cc 3e f2 5a 29 3e 73 5a 76 3e 57 05 cf bd
       0.39875638 0.16538599 0.24057941 -0.1010844
000170 a2 f8 0b bf 60 a5 ea be c6 c6 06 bf 59 91 8c 3e
       -0.5467626 -0.45829296 -0.52647054 0.2745464
000180 a0 e8 9b 3d 2a 5c 17 bf e1 4b 6f 3e f1 08 3c 3e
       0.07612729 -0.59125006 0.2336879 0.18362786
000190 9b 5f 88 3d 22 da 42 be bb de 43 bd 66 cf 90 bb
       0.0665886 -0.19028524 -0.047819834 -0.004419255
0001a0 b7 24 91 3e fc e7 84 be 1f bb 3b be bf d2 d8 3e
       0.28348324 -0.2595824 -0.183331 0.42348287
0001b0 a3 57 89 3f 7c 2f dd 3d 7c da 35 be a8 01 81 be
       1.072987 0.108000726 -0.17759126 -0.25196576
0001c0 c0 38 d4 3e df 26 f0 be cf c0 0c be d5 3c 66 3d
       0.41449547 -0.46904656 -0.13745426 0.056210358
0001d0 b7 65 80 3f b1 49 e8 3e 94 23 b2 3e 21 86 07 3f
       1.0031041 0.45368722 0.3479277 0.5293904
0001e0 d9 21 27 3e ce c1 8d 3e ad ef 13 3f 04 13 6e 3e
       0.16321506 0.27686924 0.5778759 0.23249441
0001f0 bd 4f 60 be 09 87 fd 3e 4a d9 c4 3d 7a b8 a1 3e
       -0.21905418 0.49517086 0.09611757 0.31586057

fc_layers.1.running_var f4 [128]
000000 43 5e 1c 3e 06 a9 4f 3e 70 45 37 3e fe e1 84 3e
       0.15270333 0.20279321 0.17897582 0.25953668
000010 6b 86 5e 3e ec 99 93 3e 8c 33 16 3e 73 f2 38 3e
       0.21730964 0.2882837 0.14668101 0.18061237
000020 a1 fe 2e 3e 4e 26 5c 3e c1 91 8b 3e 84 c6 86 3e
       0.1708932 0.21498987 0.2725964 0.2632333
000030 65 d7 64 3e c8 f6 6c 3e 9a f9 82 3e 2f 7d 97 3e
       0.22347791 0.23141015 0.25581056 0.29587695
000040 6d 49 89 3e bd 55 32 3e 28 bd 83 3e 4d 4c de 3e
       0.26813832 0.17415519 0.25730252 0.43417588
000050 83 a9 0e 3e 08 fd 0b 3e 7f 53 81 3e 7d e2 59 3e
       0.13931851 0.13670743 0.25259015 0.21277805
000060 d7 1a 57 3e e7 2c 84 3e c7 a0 b0 3e 24 30 9a 3e
       0.21006332 0.25815508 0.34497663 0.30114853
000070 2a 38 3e 3e f2 ee 8f 3e 34 34 66 3e 1f 0a 83 3e
       0.18576112 0.28111988 0.22480851 0.2559366
000080 57 69 3e 3e 7f a3 30 3e 03 b4 88 3e fa c9 67 3e
       0.18594871 0.17249869 0.26699838 0.22635642
000090 93 86 33 3e a6 08 97 3e 01 02 7c 3e 1d 94 14 3e
       0.17531805 0.29498786 0.2461014 0.14509626
0000a0 6a 63 6e 3e f8 99 54 3e 50 34 ba 3e 6e 36 97 3e
       0.23280111 0.2076186 0.36368036 0.29533714
0000b0 5a b7 42 3e 50 d9 04 3f 16 c1 a5 3e da 63 28 3e
       0.19015256 0.5189409 0.32373875 0.1644434
0000c0 f1 0b 88 3e 5a f1 4b 3e ec de 8f 3e 35 51 c5 3e
       0.2657161 0.19916287 0.28099763 0.3853852
0000d0 24 62 95 3e b9 24 fb 3e dc 8d 44 3e 3c 57 c5 3e
       0.29176438 0.49051455 0.1919474 0.38543117
0000e0 68 c4 bc 3e ca 32 76 3e 7b 2c a0 3e 94 dd 9e 3e
       0.36868596 0.24042812 0.31283936 0.31028426
0000f0 af 72 99 3e 1b 03 3b 3e 1e 4c b4 3e 91 a9 55 3e
       0.2997031 0.18262903 0.35214323 0.20865466
000100 5e 5c 5c 3e 8c 1f 6f 3e 67 40 30 3e c3 fd 57 3e
       0.2151961 0.23351878 0.17212068 0.21092896
000110 b1 8a 61 3e b4 47 3b 3e 9f b9 37 3e 31 68 be 3e
       0.22025563 0.18289071 0.17941903 0.37188867
000120 57 de 54 3e 95 34 08 3f d1 0c e7 3e 61 94 37 3e
       0.20787941 0.53205234 0.45126966 0.17927696
000130 18 5e 79 3e f1 1e 2e 3e 5a fe 8a 3e f0 be 82 3e
       0.243523 0.1700399 0.2714718 0.255363
000140 ac 20 cb 3e d5 2c d3 3e 18 05 2d 3e c0 21 c4 3e
       0.39673364 0.41245142 0.16896474 0.38307
000150 89 4d 78 3e 7b 7e 38 3e 42 c7 70 3e ea e8 30 3e
       0.24248327 0.18016998 0.23513511 0.1727635
000160 1e 0f 8a 3e 9b bd 71 3e f9 fb e1 3e 46 6e 16 3e
       0.26964658 0.23607485 0.44137552 0.14690503
000170 3c c1 40 3e 7b 8d b5 3e c3 f4 e7 3e da b0 46 3e
       0.18823713 0.35459504 0.45303926 0.19403401
000180 fb 70 3f 3e 60 e1 88 3e ed ff 80 3e ba 26 b9 3e
       0.18695442 0.26734447 0.25195256 0.3616236
000190 c4 3f ab 3e 4d 72 30 3e 87 31 b1 3e 23 45 94 3e
       0.33447087 0.17231102 0.346081 0.28958997
0001a0 fb 9b 5d 3e 27 79 56 3e 84 8b 98 3e 42 f6 b1 3e
       0.21641533 0.20944653 0.29793942 0.34758192
0001b0 b4 8b 62 3e ce 26 d3 3e 64 21 47 3e 2b 1d 45 3e
       0.22123605 0.41240543 0.19446331 0.19249408
0001c0 8e 2a 41 3e 42 3d af 3e 65 62 43 3e d5 23 6c 3e
       0.1886389 0.34226424 0.19080503 0.23060544
0001d0 16 34 59 3e a7 06 38 3e a7 e5 47 3e 07 b5 a8 3e
       0.21211275 0.17971288 0.19521199 0.32950613
0001e0 ab 39 3e 3e af c8 9b 3e 68 6f 70 3e a8 4d 44 3e
       0.18576686 0.30426547 0.23479998 0.19170249
0001f0 ae 30 58 3e 6f d2 98 3e 3b 79 8d 3e 3f c9 56 3e
       0.2111232 0.29848048 0.27631554 0.20975207

fc_layers.4.weight f4 [1, 128]
000000 0b 04 91 bd 52 e7 3b bc 0c 08 57 bd 35 9c 6a 3d
       -0.07080849 -0.011468725 -0.05249791 0.057277877
000010 3c 66 c3 3d 70 8d d8 3d 40 f9 bd 3d bd b1 8b bd
       0.09540984 0.10573852 0.09276056 -0.0682101
000020 01 04 39 3d 3d 21 a6 3d a0 f9 79 3b 16 df 5c 3c
       0.045169834 0.081118084 0.0038143173 0.013480922
000030 4d a9 5e 3c 4a 9c 8f 3d 24 ab a5 3d db 02 96 3c
       0.013590169 0.07012232 0.08089283 0.018311908
000040 b8 3d 19 bd cd c5 29 bd ee 85 80 bd 20 ac 08 3d
       -0.037412375 -0.041448403 -0.06275545 0.033367276
000050 a8 d6 8f bd 8d 93 55 3d 5a 08 37 3d 4b 19 1c 3d
       -0.07023364 0.05214267 0.0446857 0.03811006
000060 ab 15 94 3d d7 35 38 bd f8 0f 21 bc c5 d3 40 bd
       0.07230695 -0.04497322 -0.009830467 -0.04707696
000070 5e 78 8f bd 52 d6 c1 bc 7f 75 ce 3d d7 5f 40 bd
       -0.0700538 -0.023661766 0.10081004 -0.0469664
000080 24 cb 84 3d cf 50 c8 3d 90 0b 9e 3c b6 5e 35 3c
       0.064840585 0.09781038 0.019292623 0.011069944
000090 d2 45 fb 3c 2c 1e 21 3c d5 81 f1 bc 91 56 7c bd
       0.030672941 0.009833854 -0.029480854 -0.061605994
0000a0 48 ff 22 bd 8a 88 75 3c 43 26 83 bd 0e 7a 2f 3d
       -0.039794236 0.014986167 -0.06403782 0.04284101
0000b0 a2 fb 84 3d 2e 9a 83 3d e4 ab 6d 3d 6a 62 51 bd
       0.06493308 0.06425892 0.058025256 -0.051119246
0000c0 d9 47 84 bd 16 fe 4a ba 89 ca 60 3d 6f 37 2a bd
       -0.06459016 -0.000774355 0.054880653 -0.04155677
0000d0 53 3c 93 3d 51 e6 36 bd dd 11 79 bd 04 7b cb 3d
       0.0718924 -0.04465324 -0.06080805 0.09935573
0000e0 59 f7 54 bd e1 b0 86 bd 89 08 2b 3c 56 bf d3 3d
       -0.0519937 -0.06576706 0.010439047 0.10339229
0000f0 46 72 13 3d 1c 80 b9 3d 09 79 b0 3d 7a 14 2e bd
       0.03599765 0.09057638 0.086168356 -0.042499997
000100 c6 de b1 3d 53 22 a1 3d 2a cb 33 bd 13 c0 9d bc
       0.08685069 0.07867875 -0.043894924 -0.019256627
000110 2e 8e 6f bd b9 65 ff 3c e1 99 b3 3c e2 ef 0c bd
       -0.058485202 0.031176435 0.021923961 -0.034408458
000120 60 2c 17 3d c6 72 84 bc eb 2a 62 3d 21 6b a5 3d
       0.036907554 -0.01616801 0.05521671 0.08077074
000130 a8 01 37 39 1c 8a 97 3d 19 ff 4a bd 29 d6 22 bd
       0.00017452857 0.07399389 -0.049559686 -0.03975502
000140 3d e7 0b 3c 7b 53 8a 3c 83 f8 9a 3d 32 cd 5e bd
       0.008539018 0.01688551 0.07566931 -0.05439491
000150 73 fb 0e 3c 57 a1 9b bc 62 a7 a6 3d 3a 90 8e 3d
       0.008726942 -0.018997831 0.081373945 0.06961103
000160 77 7d 85 3d 27 76 1a 3d e7 af e6 bc 4f 83 b1 bb
       0.06518071 0.037710335 -0.028160049 -0.0054172645
000170 7b 3c ae 3d 10 c8 9c 3d 10 6e 2e 3d 71 f6 d0 3b
       0.085076295 0.076553464 0.042585433 0.0063770344
000180 df 56 6c 3d 8a f1 f8 3c c9 69 0a 3d dd 42 f9 3c
       0.057700034 0.030388612 0.03379229 0.03042739
000190 04 aa f8 bc 28 57 7f bd 82 8f 88 bd 12 b0 2c 3d
       -0.030354507 -0.062338978 -0.06667997 0.0421601
0001a0 a5 7a e2 bc 21 54 b7 3d 85 b5 16 3d 0b 13 0c 3c
       -0.027646372 0.08951593 0.036794204 0.008549462
0001b0 7f 14 80 3d 75 95 48 bd 96 61 f5 bc 18 fa 17 3d
       0.06253909 -0.04897066 -0.02995376 0.037103742
0001c0 af ff 86 bd 48 98 8f 3d 5f 57 0a bd 8b 35 5e bd
       -0.065917365 0.07011467 -0.03377473 -0.05425028
0001d0 f4 72 b9 3d 08 c1 80 bd 27 fa 88 3d 71 00 08 3d
       0.09055129 -0.06286818 0.06688338 0.033203546
0001e0 08 93 83 3d 5d d5 e9 bb 13 d9 a7 3d c8 e9 38 3b
       0.06424528 -0.0071360306 0.081957005 0.0028215516
0001f0 9e f3 40 3d 6b f9 c7 3c 06 c3 39 bb f0 1b bd 3d
       0.04710733 0.024410924 -0.0028345003 0.09233844
