ncf_model.pth (torch, 56540 bytes, 5 tensors)

user_embedding.weight f4 [1, 50]
0	0x3e2ab31d	0.16669889
1	0x3e4e8929	0.2016951
2	0x3f2c7985	0.67372924
3	0x3f30ce83	0.6906511
4	0x3ecffc55	0.40622202
5	0x4005de36	2.0916877
6	0x3f837d11	1.0272542
7	0xbf65aff2	-0.89721596
8	0x3d279141	0.04091001
9	0xbf340363	-0.7031767
10	0xbdaeff01	-0.08544732
11	0xc00beb8f	-2.1862524
12	0x3e8270b5	0.25476614
13	0xbf7377f6	-0.9510492
14	0xbdc8b753	-0.09800591
15	0xbea13ffd	-0.31494132
16	0x4003bdb7	2.0584543
17	0x3e2e4cad	0.17021437
18	0x3ebcbea0	0.36864185
19	0xbf11cafa	-0.5695034
20	0x3efdd3f2	0.49575764
21	0xbe6f780f	-0.23385642
22	0xbfc14fca	-1.5102475
23	0xbdb14ec7	-0.08657604
24	0x3f03f17a	0.5154034
25	0xbe0d2e9e	-0.13787314
26	0xbdddb854	-0.108261734
27	0xbd32dcda	-0.04366765
28	0x3e86e7b8	0.26348662
29	0x3f750745	0.9571422
30	0x3f0f3733	0.559436
31	0x3f32ab0e	0.6979226
32	0xbfb2f304	-1.3980412
33	0x3f0f241c	0.55914474
34	0x3e9b22c0	0.3029995
35	0xbf0f3874	-0.55945516
36	0xbfb6ee01	-1.4291383
37	0xbf154728	-0.583117
38	0x40146605	2.3187268
39	0x3f481fd1	0.7817355
40	0xbed33c9f	-0.41257188
41	0xbf939ebe	-1.1532819
42	0xbf7474fa	-0.9549099
43	0xbf8de06b	-1.1084112
44	0xbe5e5ecf	-0.21715854
45	0x3fa04477	1.2520894
46	0xbdf2d356	-0.118567154
47	0xbea54c6a	-0.32284862
48	0x3f3ffeb2	0.7499801
49	0x3f8cfb86	1.1014259

item_embedding.weight f4 [7, 50]
0	0x3f42cec7	0.7609677
1	0x3f247048	0.6423383
2	0x3f2cc1e3	0.6748335
3	0xbf0c82a3	-0.54886836
4	0x3ead71f2	0.33875996
5	0x3f75d060	0.9602108
6	0x3ea60fe9	0.32434013
7	0x3de81c93	0.11333575
8	0x3fc5f448	1.5465174
9	0xbfbd4865	-1.4787718
10	0x3f996533	1.1984009
11	0x3f37e59a	0.7183472
12	0x3f1d7fd5	0.6152318
13	0xbf3e0ffe	-0.7424315
14	0x3f5fc478	0.8740916
15	0xbf1892f3	-0.59599227
16	0x3fe1ab79	1.7630454
17	0xc02fdf27	-2.7479951
18	0x3f6b175d	0.91832525
19	0xbf681369	-0.9065462
20	0x3ff7c5a6	1.9357193
21	0xbffb6a8a	-1.9641888
22	0x3f2e13b9	0.67998844
23	0xbfccbb90	-1.599474
24	0x3e8a08c5	0.26959816
25	0xbfc51a22	-1.53986
26	0xbf4d60bc	-0.8022573
27	0x3e991920	0.2990198
28	0x3e3a0837	0.18167196
29	0xbf67ebb9	-0.9059406
30	0x3fb8d561	1.4440118
31	0x3f7577d8	0.9588599
32	0x3e859712	0.2609182
33	0xbf5135f4	-0.8172295
34	0x3e761100	0.24029922
35	0x3f02e3f5	0.51129085
36	0xbf15cba2	-0.58513844
37	0x3e37bfef	0.1794431
38	0x3f2a852c	0.66609454
39	0xbf19b8d2	-0.6004764
40	0xbedccc23	-0.43124494
41	0x3e02391d	0.127171
42	0xbe0b91fa	-0.13629904
43	0x3e73ea81	0.23819925
44	0x3f47bca5	0.78022224
45	0xbf8bf220	-1.0933266
46	0x4026285c	2.5962133
47	0xbdcb9f6b	-0.09942516
48	0xbf310c9b	-0.6915986
49	0x3f56be10	0.8388376
50	0x3f55b2cd	0.83475953
51	0x3f3cea58	0.7379508
52	0xbf2c3654	-0.672704
53	0xbf5c660a	-0.860932
54	0x3ef8c5e8	0.4858849
55	0x3eedb9f8	0.46430945
56	0x400685b4	2.1019106
57	0x3e2aefa5	0.1669298
58	0x3e5ff0c6	0.21869192
59	0xbf35a999	-0.7096191
60	0x3f30f164	0.6911833
61	0xbeb25efd	-0.34838095
62	0xbfe25145	-1.7681051
63	0x3f0fd039	0.561771
64	0x3ee8a342	0.45437056
65	0x3ebacb0d	0.3648304
66	0x3e88badf	0.2670507
67	0x3edfa2cf	0.436789
68	0x3f7f4b19	0.99723965
69	0xbe21da41	-0.15805914
70	0x3ee51537	0.44742748
71	0xbf9b9f96	-1.2158077
72	0xc0033741	-2.0502474
73	0xbf04cbad	-0.51873285
74	0x3e9607a8	0.29302716
75	0x3f82fa98	1.0232725
76	0xbf3f21e5	-0.74661094
77	0x3fb98e66	1.4496582
78	0x3fdceff0	1.7260723
79	0x3f89716d	1.073774
80	0x3e8f6ad2	0.28011185
81	0x3d350ec4	0.044203535
82	0x3fa32050	1.2744236
83	0x3f7fc27f	0.9990615
84	0x3eb6b329	0.35683563
85	0xbf89a4c1	-1.0753404
86	0xc0076cf5	-2.1160252
87	0xbe869ca8	-0.26291394
88	0xbfcc8697	-1.5978574
89	0xbf1a7229	-0.60330445
90	0x3fc0c2c4	1.5059438
91	0x400057ab	2.0053508
92	0xbe4667fa	-0.19375601
93	0xbf256b6b	-0.6461703
94	0xbefd922a	-0.49525577
95	0xbfeaa0df	-1.8330344
96	0x3f03f91f	0.51552004
97	0xbd864b2f	-0.06557309
98	0x3ef5b91d	0.47992793
99	0xbf155e69	-0.58347183
100	0xbec78a2f	-0.38972613
101	0x3f1bfe74	0.6093514
102	0xbe8d2200	-0.27565002
103	0xbe94dc36	-0.29074258
104	0x3fc15f92	1.5107291
105	0x3d12fe63	0.035887133
106	0x3cc7ac74	0.024374224
107	0xbf69288e	-0.91077507
108	0xbd5101a4	-0.051026955
109	0xbeead143	-0.4586278
110	0xbf5f7b54	-0.8729756
111	0xbf97564b	-1.182321
112	0xbfdc10c0	-1.7192612
113	0xbeb91080	-0.361454
114	0x3f7603de	0.9609965
115	0x40316ecf	2.7723882
116	0x3f4fb85d	0.8114069
117	0x3f69438d	0.911187
118	0xbf36f26a	-0.71463645
119	0xbf30fe73	-0.6913826
120	0xbf4305a2	-0.7618047
121	0x3fa580d5	1.2929941
122	0xbf782b85	-0.96941406
123	0x3f83f83d	1.0310131
124	0xbf8ac4fa	-1.0841362
125	0x3fa6c223	1.3027996
126	0x3f67e11e	0.90577877
127	0xbe2be923	-0.16788153
128	0x3fa5d7bf	1.2956465
129	0x3de19175	0.11014072
130	0x3e04cfe8	0.12969935
131	0xbf6f6d0f	-0.93525785
132	0x3f606be1	0.8766461
133	0x3ebbc9e7	0.36677477
134	0xbf96d14c	-1.1782622
135	0xbec91282	-0.39271933
136	0x3fce2573	1.6105179
137	0x3fc19e8c	1.512651
138	0x3e8d455c	0.2759198
139	0x3f227e3c	0.6347387
140	0x3e2e059b	0.16994326
141	0x3e9636df	0.29338738
142	0x3e6b427c	0.2297458
143	0xbf6cd5f5	-0.9251397
144	0xbf234b23	-0.63786525
145	0xbf8209df	-1.0159262
146	0xbffaba1f	-1.958805
147	0xbf281f85	-0.65673095
148	0xbf7ee95f	-0.99574846
149	0x3fb6ea48	1.4290247
150	0x3fae5307	1.3619088
151	0xc00bd5d5	-2.1849263
152	0x3f9aa4f7	1.2081593
153	0x3f932575	1.1495806
154	0xbf106645	-0.5640605
155	0x3f1cc6f1	0.6124106
156	0xbfa19db9	-1.2626258
157	0x3f73ff69	0.953116
158	0xbb840b21	-0.004029647
159	0x3f91e041	1.1396562
160	0x3fa41278	1.2818136
161	0xbded9bd6	-0.11601989
162	0xbf4b3345	-0.79375106
163	0xbef75a2d	-0.48310986
164	0xbf8bc2e2	-1.0918849
165	0xbea49471	-0.32144502
166	0xbefd8692	-0.49516732
167	0xbfa3b1ac	-1.2788596
168	0xbff19d46	-1.8876121
169	0x3ea4a899	0.3215988
170	0x3f7a127a	0.97684443
171	0xbefc9155	-0.4932963
172	0xbfcdcb9d	-1.6077763
173	0xbfe2e64e	-1.7726533
174	0x3eb094f3	0.3448864
175	0x3d9357d5	0.07194487
176	0x3e82cc61	0.25546554
177	0x3e886f65	0.26647487
178	0xbf3a11f3	-0.7268364
179	0xbf87a94e	-1.0598543
180	0xbf9366b5	-1.1515719
181	0x3f6f85b1	0.9356337
182	0x3ee88bcf	0.45419165
183	0x3f26f026	0.6521019
184	0x3fc165a5	1.5109144
185	0x3f30a22c	0.68997455
186	0xbf59c7f4	-0.8507073
187	0xbf40c64a	-0.75302565
188	0x3f51536b	0.8176791
189	0x3f91e3a8	1.13976
190	0xbfbce7f6	-1.4758289
191	0xbee8440a	-0.4536441
192	0x3f65e574	0.8980324
193	0x3ffd989f	1.9812201
194	0xbf6b2dfb	-0.91867036
195	0x3f60bd16	0.8778852
196	0xbb466559	-0.003027281
197	0xbeaf7bbd	-0.34274092
198	0xbd9d8add	-0.07692502
199	0xbecc4d77	-0.3990285
200	0x3e2611b6	0.16217694
201	0xbf979a09	-1.1843883
202	0x3e842fdc	0.25817764
203	0x3ea36d3a	0.3191927
204	0x3f47035c	0.777395
205	0x3f08c6aa	0.5342814
206	0xbfc820f5	-1.5635058
207	0x3fb08eca	1.3793576
208	0x3d98f0aa	0.07467778
209	0xbf135af4	-0.5756066
210	0x3eca1b7f	0.39474103
211	0xbfdc07c6	-1.7189872
212	0x3db957a9	0.09049923
213	0xbe051a1b	-0.1299824
214	0x3f910011	1.1328145
215	0x3fdc7355	1.7222697
216	0x3fa09adf	1.2547263
217	0x3f95904f	1.1684664
218	0xbd9e74cf	-0.07737123
219	0xbf96805f	-1.1757926
220	0x3f86c6d1	1.0529424
221	0x3fa4dfed	1.2880837
222	0x40063f0c	2.097598
223	0x3f9d3598	1.228198
224	0xbf1cc800	-0.61242676
225	0x3fb5884c	1.418222
226	0x3f1a7ecd	0.6034973
227	0x3f6dca31	0.92886645
228	0x3f689b13	0.90861624
229	0xbfb243cf	-1.3926944
230	0x3e8d04b8	0.27542663
231	0x3fac2d29	1.3451282
232	0x3f27a000	0.65478516
233	0xbf3201ed	-0.6953419
234	0xbef8e888	-0.48614907
235	0xbee6aa74	-0.4505192
236	0x405fd2f4	3.4972506
237	0x3fad9f3e	1.3564222
238	0x3f0e379b	0.555536
239	0x3f80ad0d	1.0052811
240	0xbfe912f1	-1.8208905
241	0xbf603a87	-0.87589306
242	0xbfa2dcc2	-1.272362
243	0x3ff1428b	1.8848432
244	0xbf45731f	-0.77128786
245	0xbf4d98c4	-0.80311227
246	0x3f90afd8	1.1303663
247	0x3db2fc14	0.08739486
248	0xbeea69cf	-0.4578385
249	0x3f8fe15d	1.124065
250	0xbef495fb	-0.47770676
251	0x3e31ee3a	0.17376032
252	0xbec62545	-0.3870031
253	0x3ec30785	0.38091674
254	0xc0188a47	-2.3834398
255	0xbf4c4fb8	-0.7980914

fc_layers.0.weight f4 [128, 100]
0	0xbc16fa89	-0.009215006
1	0x3d818133	0.06323471
2	0xbc3e2ead	-0.011607808
3	0x3d95c4fc	0.073129624
4	0x3d8a0aaf	0.06740319
5	0xbd81884b	-0.06324824
6	0x3c7b5083	0.01533902
7	0xbd1a6fed	-0.037704397
8	0x3d39f0d0	0.045395672
9	0x3d93bd2e	0.072138175
10	0x3c248fed	0.01004408
11	0xbdc7080d	-0.097183324
12	0x3c1fac14	0.0097456165
13	0xbcae5de9	-0.021285014
14	0x3d90d5ae	0.07072006
15	0xbddd7b85	-0.10814575
16	0x3db44773	0.0880269
17	0x3d3a2596	0.045446
18	0xbd4a5b22	-0.049403317
19	0x3ca7c87f	0.020481346
20	0xbbd7ed68	-0.0065895803
21	0x3cb8844b	0.02252402
22	0xbd87c2b6	-0.06628935
23	0xbd52feca	-0.051512517
24	0xbd65de67	-0.056120303
25	0x3bd84f4a	0.006601249
26	0xbcb0e4a1	-0.021593394
27	0xbdddb547	-0.108255915
28	0x3dea5876	0.11442654
29	0x3d857b1e	0.06517623
30	0xbc1d37a2	-0.009595783
31	0x3d9649d7	0.073383026
32	0xbde63ac2	-0.11241676
33	0x3c9a63b0	0.018846363
34	0xbbf0734b	-0.0073379627
35	0x3d80cb85	0.06288818
36	0xbdccb600	-0.09995651
37	0xbd7d27f6	-0.061805688
38	0x3d48ab0c	0.048991248
39	0x3d608e3d	0.05482315
40	0x3a90d86b	0.0011050826
41	0x3d8a6c39	0.06758923
42	0xbd606356	-0.054782234
43	0xbb6a5d19	-0.0035761057
44	0xbc980103	-0.01855517
45	0x3de01c9a	0.10942955
46	0xbde6c079	-0.1126718
47	0x3d6ff4a1	0.058582906
48	0xbca24888	-0.019809976
49	0x3c87e710	0.016589671
50	0x3d8800ee	0.06640802
51	0xbd9f7358	-0.07785672
52	0xbd96c1d1	-0.07361186
53	0xbd8447cd	-0.064590074
54	0x3b8ab0b6	0.0042324914
55	0xbd8251ea	-0.0636328
56	0x3cd00d1f	0.025396882
57	0x3ded4daf	0.115870826
58	0x3c388a2a	0.01126341
59	0x3bb3d6fb	0.005488274
60	0x3d1ae6a4	0.037817612
61	0x3d25614b	0.04037599
62	0x3d70df21	0.058806542
63	0x3ce51eae	0.02796873
64	0x3d8e8e32	0.06960715
65	0x3ccf82cc	0.025330923
66	0x3cd80152	0.026367817
67	0x3c8b1c56	0.016981285
68	0xbd4b4c3d	-0.049633253
69	0x3d570776	0.05249735
70	0x3d83173a	0.064009145
71	0x3d3f85fe	0.046758644
72	0x3bfa420f	0.0076372693
73	0xbdee78c3	-0.11644127
74	0xbd0ca969	-0.03434125
75	0xbcd1e626	-0.025622439
76	0x3b509e78	0.0031832736
77	0xbd4d9851	-0.05019409
78	0x3da8fdb5	0.08251516
79	0x3d7d764f	0.061880406
80	0x3d935b07	0.071950965
81	0xbb8bf080	-0.004270613
82	0xbcfe07e6	-0.031009626
83	0xbd9e579f	-0.07731556
84	0x3d7737fa	0.060356118
85	0x3d078ebd	0.03309511
86	0xbd84497d	-0.06459329
87	0x3d83a572	0.064280406
88	0x3db02c20	0.08602166
89	0xbdd91468	-0.10599595
90	0xbd7fc9d7	-0.06244835
91	0xbd9bda97	-0.07610052
92	0xbc80ed77	-0.015738232
93	0x3bf72404	0.007542135
94	0xbb63564e	-0.0034688893
95	0xbba05e5d	-0.0048940615
96	0xbdc25b4d	-0.094900705
97	0xbc8757f8	-0.016521439
98	0xbdb506a7	-0.088391595
99	0x3da9332a	0.08261712
100	0x3d835245	0.06412176
101	0xbdb2c627	-0.08729201
102	0xbc83e2e7	-0.016099406
103	0x3d3cb2cd	0.046068955
104	0xbca559c0	-0.020184398
105	0xbcb41c2d	-0.021986092
106	0xbd97a990	-0.07405388
107	0xbd04d213	-0.032426905
108	0x3d87eb23	0.06636646
109	0xbc425ea7	-0.011863387
110	0x3da7ed5d	0.0819957
111	0x3da197c8	0.07890278
112	0xbd2b9237	-0.04188749
113	0x3d59d90a	0.0531855
114	0x3da49c80	0.080376625
115	0x3dc2754d	0.094950296
116	0xbd8f9d77	-0.07012456
117	0xbd7cdaa7	-0.06173196
118	0x3c727633	0.014798689
119	0xbd2b1ffa	-0.041778542
120	0x3d8d3932	0.06895675
121	0xbbf5101a	-0.007478726
122	0x3ce5c1e7	0.028046561
123	0xbd80715f	-0.06271624
124	0x3d80c297	0.06287115
125	0x3c9b2867	0.018940164
126	0xbd281223	-0.04103292
127	0xbd40d8ba	-0.047081687
128	0x3d805cda	0.0626771
129	0xbdc0a547	-0.09406524
130	0x3c7e2533	0.015511799
131	0x3d1088e3	0.035286795
132	0x3d33e9d7	0.04392418
133	0x3ccf9247	0.025338305
134	0xbda68547	-0.081308894
135	0x3ca42b73	0.02004025
136	0x3d93bb83	0.072134994
137	0x3dc1005a	0.09423895
138	0xbbd44f67	-0.006479192
139	0x3d820062	0.06347729
140	0x3ba6b467	0.0050874236
141	0xbd2789ca	-0.04090289
142	0xbc8f9340	-0.017526269
143	0x3d4fdcc0	0.050747633
144	0x3d6b9980	0.057519436
145	0xbd61e5a3	-0.05515064
146	0x3db421e5	0.08795527
147	0x3cc5a4a7	0.024126364
148	0x3dc8ea52	0.09810318
149	0x3d9a5a2f	0.075367324
150	0x3db2511d	0.087068774
151	0xbcc1c727	-0.023654534
152	0xbdb35a4d	-0.08757458
153	0x3c8589da	0.016301084
154	0xbda94da2	-0.082667604
155	0x3d0496b7	0.032370295
156	0x3d1345ba	0.03595517
157	0xbd17b5c3	-0.037038576
158	0x3d909957	0.07060497
159	0xbd77bef7	-0.060484853
160	0xbd152b83	-0.03641845
161	0xbd05d853	-0.032677006
162	0x3d656d73	0.056012582
163	0xbcff87da	-0.031192709
164	0xbd57c80a	-0.052681006
165	0x3d58562a	0.052816547
166	0x3d31f40d	0.043445636
167	0x3ceae433	0.028673267
168	0xbd139970	-0.036035
169	0x3dab75d0	0.0837208
170	0xbda35ef3	-0.079770945
171	0x3dc5cdb7	0.096583776
172	0x3d92b592	0.07163538
173	0x3d877ae2	0.06615235
174	0xbd83907b	-0.06424042
175	0xbc499573	-0.012303698
176	0xbd4ca597	-0.049962606
177	0xbd630eb0	-0.05543393
178	0x3c749b00	0.014929533
179	0xbd2887fd	-0.041145314
180	0x3b77d99a	0.003781891
181	0xbdc3cf4f	-0.09561025
182	0xb9542333	-0.00020231008
183	0xbbbb7933	-0.005721235
184	0x3d605383	0.054767143
185	0x3c9e3ced	0.019316161
186	0x3d85ed57	0.065394096
187	0xbad75d33	-0.0016430974
188	0x3c715b67	0.014731265
189	0x3d874900	0.066057205
190	0x3d11fde0	0.035642505
191	0x3c829ded	0.015944446
192	0x3d06ab00	0.032877922
193	0xbce000b3	-0.027344083
194	0x3bb22c9a	0.005437446
195	0xbdaf0677	-0.08546155
196	0x3d109fc3	0.03530861
197	0x3d93c33f	0.072149746
198	0x3dc7e863	0.09761121
199	0xbcac6c9a	-0.021047879
200	0x3c451d18	0.012030862
201	0x3d79718e	0.06089931
202	0x3bc9d356	0.0061592264
203	0xbc96d9fe	-0.018414494
204	0x3c17a026	0.009254491
205	0x39ca41d4	0.00038577488
206	0xbbff46d4	-0.007790426
207	0xbc374b31	-0.011187361
208	0x3cfe38d0	0.03103295
209	0xbd4a4e80	-0.04939127
210	0xbd6cfcc9	-0.057858262
211	0xbd41fd99	-0.04736099
212	0x3d8853ef	0.06656634
213	0x3d3500eb	0.04419033
214	0x3d177949	0.0369809
215	0xbcb1c0a7	-0.02169831
216	0x3def6fd0	0.116912484
217	0xbd855ce4	-0.06511858
218	0x3d5d851d	0.054082025
219	0x3d937dae	0.07201706
220	0xbd31cd96	-0.043408953
221	0xbc632cd7	-0.013865671
222	0xbd1f818c	-0.038941905
223	0xbd1b4b57	-0.037913647
224	0x3d127017	0.03575143
225	0xbcaa1c0c	-0.020765327
226	0x3cfb863b	0.030703655
227	0x3cedf473	0.029047227
228	0x3d016c6c	0.03159754
229	0xbcfe2996	-0.03102569
230	0x3dae2015	0.08502213
231	0xbd1a8cdc	-0.03773199
232	0x3d7b3546	0.061330102
233	0xbcf5ca72	-0.03000376
234	0xbd67664b	-0.05649404
235	0x3c543ab1	0.012953446
236	0x3ce1c7a9	0.027561026
237	0x3da1cdd6	0.07900588
238	0x3d9e6e93	0.07735934
239	0x3c642a1b	0.013926054
240	0x3c7cfcb0	0.015441105
241	0xbdaa9d33	-0.083307646
242	0x3ac4669d	0.0014984194
243	0x3ca35bae	0.019941177
244	0xbc02635a	-0.007958258
245	0x3dcb01b8	0.09912437
246	0xbd133358	-0.035937637
247	0x3c9400a2	0.018066708
248	0x3da49f34	0.08038178
249	0x3d344c2e	0.044017963
250	0xbd0fa3b0	-0.035068214
251	0x3cefe4af	0.02928385
252	0x3da1f9e5	0.07908992
253	0xbd0e592f	-0.03475302
254	0x3d449c03	0.048000347
255	0x3c5ba665	0.013406371

fc_layers.0.bias f4 [128]
0	0x3d68386f	0.056694444
1	0xbd608d07	-0.054821994
2	0xbcdf7054	-0.027275242
3	0x3d41e45d	0.047336925
4	0xbd953b8d	-0.07286749
5	0x3d9b185b	0.07573005
6	0xbd3184f7	-0.043339696
7	0x3da34ed7	0.07974022
8	0xbd0228ba	-0.03177712
9	0xbd0e1d34	-0.03469582
10	0x3a9dc7a5	0.0012037648
11	0xbb18aa1d	-0.0023294755
12	0xba57e26c	-0.00082353386
13	0x3d1ec66c	0.03876345
14	0xbad4797e	-0.0016210524
15	0xbd9e7567	-0.077372365
16	0xbd9bc0df	-0.076051466
17	0xbb80f840	-0.0039358437
18	0x3cf14b97	0.02945499
19	0x3d163636	0.036672793
20	0xbd93bbbb	-0.07213541
21	0x3d2518e1	0.04030693
22	0xbd955585	-0.07291702
23	0x3d8f09ad	0.069842674
24	0x3d11b487	0.035572555
25	0xbc9921d3	-0.018692886
26	0x3d8f411f	0.06994843
27	0x3d082e09	0.033247028
28	0xbc017d19	-0.007903361
29	0xbdb06238	-0.08612484
30	0x3d8d80a6	0.06909303
31	0x3d69f526	0.057118557
32	0x3dac40a5	0.084107675
33	0xbcff6f6d	-0.031181062
34	0xbd7a4223	-0.06109823
35	0x3d83205f	0.06402659
36	0xbd99a5d8	-0.07502335
37	0x3d1b985b	0.037987094
38	0x3da69121	0.0813315
39	0xbd039aee	-0.032130174
40	0xbc9c74b6	-0.01909862
41	0xbd8031c1	-0.0625949
42	0xbd52104e	-0.05128508
43	0x3d4cee8a	0.050032176
44	0xbc259ead	-0.010108632
45	0xbd838b92	-0.06423105
46	0x3d190693	0.037359785
47	0xbdc8de1a	-0.098079875
48	0x3d7b3806	0.061332725
49	0x3d858564	0.06519583
50	0xbd8e841a	-0.0695879
51	0x3d7595d5	0.059957344
52	0x3c8c45f2	0.017123196
53	0x3c1bc85a	0.009508217
54	0xbc959561	-0.018259706
55	0xbd0050bd	-0.031326998
56	0xbc633533	-0.013867664
57	0xbd94441c	-0.07239553
58	0x3d83d897	0.064377956
59	0xbd443f53	-0.047911953
60	0x3d8b96f8	0.068159044
61	0x3dab71fa	0.08371349
62	0x3bd62606	0.0065352945
63	0x3d5c90d1	0.053849045
64	0x3dc00edb	0.093778335
65	0x3be32011	0.006931313
66	0x3da8655a	0.08222456
67	0x3def3f48	0.11681992
68	0xbd222a28	-0.039590985
69	0x3cd7bbd3	0.026334679
70	0x3cbf90e2	0.023384515
71	0x3c015ff3	0.007896411
72	0xbd1e4c40	-0.038646936
73	0xbd382d32	-0.044964977
74	0x3deb80b9	0.11499161
75	0xbd1f5fb4	-0.03890963
76	0xbc9c0f82	-0.019050363
77	0x3db0f46a	0.08640368
78	0x3de7826e	0.11304174
79	0x3b39885a	0.0028310032
80	0x3db8bc13	0.09020247
81	0xbcea28ba	-0.028583873
82	0x3cc2dcfe	0.023787018
83	0xbd2136db	-0.039358955
84	0xbcb20172	-0.021729205
85	0xbd1e8271	-0.038698617
86	0x3dba523a	0.09097715
87	0x3ab67a4e	0.0013921948
88	0x3b96014b	0.004577791
89	0x3dafdc57	0.08586948
90	0x3deb1df4	0.114803225
91	0x3d73dd0a	0.05953697
92	0x3caef103	0.021355158
93	0xbdb67ddf	-0.08910727
94	0xbd1d1ae2	-0.038355716
95	0xbdef58c2	-0.11686851
96	0xbd49b6e6	-0.04924669
97	0x3da1133f	0.07864999
98	0x3ce9dc7d	0.02854752
99	0x3d1d9501	0.03847218
100	0x3d1cb4cc	0.03825836
101	0x3d2a82a8	0.04162851
102	0x3cae99d1	0.02131358
103	0xbcd99da0	-0.02656442
104	0x3d30e68d	0.04318862
105	0x3d624710	0.05524355
106	0xbd6bfd3a	-0.057614543
107	0x3d392911	0.04520518
108	0xbda8038a	-0.082038
109	0x3cff29f4	0.031147934
110	0xbcfc73fe	-0.030817028
111	0xbce451cd	-0.027871037
112	0xbd3023fd	-0.04300307
113	0x3d315e67	0.04330292
114	0x3b94a95f	0.004536792
115	0x3dc504c5	0.0962005
116	0x3cb9767f	0.022639511
117	0xbdd2c93f	-0.10292291
118	0x3d28cb92	0.041209765
119	0xbd92d244	-0.07169011
120	0x3d74e894	0.059792116
121	0x3d2ea9a3	0.042642247
122	0x3c2c000e	0.01049806
123	0xbcd10f5b	-0.025520017
124	0x3c955820	0.018230498
125	0xbda2e3ae	-0.07953583
126	0x3d30ed99	0.04319534
127	0xbd7f7fb3	-0.062377643

fc_layers.2.weight f4 [1, 128]
0	0x3db37f1d	0.08764479
1	0xbba9666b	-0.00516968
2	0x3d2d6096	0.04232844
3	0xbc041c52	-0.008063393
4	0x3da861be	0.08221768
5	0x3cce055d	0.025149042
6	0xbbde8312	-0.006790527
7	0xbc92f183	-0.017937427
8	0x3dcdfd9d	0.100581385
9	0x3db0a287	0.0862475
10	0xbc981648	-0.018565312
11	0x3d9c8b8c	0.07643804
12	0x3d896f16	0.06710641
13	0xbcfeefad	-0.031120146
14	0xbd499630	-0.049215496
15	0x3dd09de6	0.10186367
16	0x3dad213d	0.08453605
17	0x3b899e2a	0.004199763
18	0x3dbd782f	0.09251439
19	0xbd82e0c5	-0.06390528
20	0x3d277f35	0.0408928
21	0xbcbfec45	-0.023428092
22	0x3c8cb81f	0.01717764
23	0xbb5090ea	-0.0031824657
24	0x3d2fe4a6	0.042942666
25	0xbc62f73a	-0.013852889
26	0xbd92b6ac	-0.07163748
27	0xbd8f2ced	-0.06990991
28	0x3d7b3290	0.061327517
29	0xbd8ec72c	-0.06971583
30	0xbd874ece	-0.06606828
31	0xbc046050	-0.008079603
32	0x3d6487fb	0.055793744
33	0x3da9144c	0.082558244
34	0xbd221cc0	-0.0395782
35	0xbd047612	-0.032339163
36	0x3d826a8e	0.0636798
37	0x3dc67f12	0.096922055
38	0x3c9f3a7e	0.019437071
39	0x3db3a3fc	0.08771512
40	0xbd0b6fd1	-0.034042183
41	0x3d028c88	0.031872302
42	0xbd4bbf40	-0.049742937
43	0xbcc1ab28	-0.023641184
44	0x3c2b2547	0.010445899
45	0xbc6c9d69	-0.014441826
46	0xbc1a9606	-0.009435182
47	0xbc46ba85	-0.012129431
48	0x3d5f1a7c	0.054468617
49	0x3d0a3d09	0.033749614
50	0x3d81ba7b	0.063343965
51	0xbc8158a3	-0.015789336
52	0xbd0fde42	-0.03512407
53	0xbcd535ba	-0.026026595
54	0xbb9fe82d	-0.0048799724
55	0xbcfabd74	-0.030607916
56	0xbc94964d	-0.018138075
57	0xbce0e59a	-0.027453233
58	0x3d1a8ad7	0.037730064
59	0xbd8146aa	-0.06312306
60	0x3dbf2813	0.093338154
61	0xbcd52cad	-0.02602228
62	0xbd2e4e88	-0.042555362
63	0xbc79ba52	-0.015242176
64	0x3ddd1792	0.10795511
65	0xbd4e263b	-0.05032943
66	0xbc16613f	-0.009178459
67	0x3d838805	0.06422428
68	0xbd1b95ab	-0.03798453
69	0xbbe08c92	-0.006852695
70	0x3bcc4d2d	0.006234786
71	0xbd07cd86	-0.033154987
72	0x3d763da3	0.060117375
73	0x3db764cf	0.089547746
74	0x3d5c8db2	0.05384607
75	0x3d38e9de	0.045144908
76	0xbcc5b63a	-0.024134744
77	0x3d4ef2ea	0.05052463
78	0x3d5b11f4	0.05348392
79	0xbc253ecf	-0.0100857755
80	0x3d9fcc08	0.07802588
81	0x3c1949a4	0.009355936
82	0xbcde43fd	-0.027132029
83	0x3db9f09a	0.09079094
84	0x3dd36342	0.10321666
85	0x3c4932e2	0.012280198
86	0x3dab559a	0.083659366
87	0xbd1c05e0	-0.03809154
88	0x3d407d5e	0.04699456
89	0x3d575636	0.05257245
90	0x3cb4a47f	0.022051094
91	0x3ae0b3f4	0.0017143474
92	0xbd4ca308	-0.049960166
93	0xbc03e79c	-0.008050825
94	0xbd798976	-0.06092211
95	0xbcdc06c9	-0.026858704
96	0x3dbd7f44	0.092527896
97	0x3d837410	0.064186215
98	0xbd357460	-0.044300437
99	0xbb2708c4	-0.0025487402
100	0xbd3ab792	-0.045585223
101	0xbd1fe648	-0.039037973
102	0x3d8915ca	0.06693609
103	0xbd01c5dd	-0.031682838
104	0x3dc88c0b	0.09792336
105	0xbd8da4e8	-0.06916219
106	0xbc1e84a0	-0.009675175
107	0xbca66f69	-0.020316796
108	0xbcbc0f2f	-0.022956459
109	0xbd87b5cb	-0.06626471
110	0xbd349b40	-0.04409337
111	0xbd56970c	-0.052390143
112	0xbdb389a7	-0.087664895
113	0x3cbddf84	0.02317787
114	0xbbc2ee02	-0.005948783
115	0x3d9c518f	0.076327436
116	0xbcee4d24	-0.029089518
117	0x3bbe0460	0.0057988614
118	0x3db62d37	0.08895343
119	0x3d5e40e4	0.054261103
120	0x3d8cc1e8	0.06872922
121	0x3d34dea7	0.04415765
122	0x3d553935	0.05205651
123	0xbd08b377	-0.033374276
124	0x3d02251a	0.031773664
125	0x3d786727	0.06064525
126	0x3d643aa5	0.05571999
127	0xbcec820a	-0.028870601
