ncf_model.pth (torch, 60819 bytes, 9 tensors)

user_embedding.weight f4 [1, 50]
-1.1197606 -0.72080696 -0.030263579 -1.1756214 0.8928202 1.1479788 0.53907704 0.029300531
-0.040097963 -0.7253804 -1.3110932 -0.57307786 1.0984149 -0.046041984 -0.09509346 -0.34890032
1.18599 -0.735817 0.53948545 0.9801353 0.6799892 -0.5800583 -1.3835684 -2.0110447
1.1821274 -0.00032794976 0.45049596 -0.09801509 1.8263801 -1.8848516 -0.050034456 -1.2522519
-0.6628283 -0.5779627 -0.70939183 -0.5022813 0.46802342 -0.48799968 0.39575607 1.4188468
0.8575432 -1.888412 -0.42243356 0.35254815 -1.65736 -1.1178008 1.5761783 -0.00042868155
-0.52316517 -0.9228559
00000000: 5154 8fbf ce86 38bf 53eb f7bc c37a 96bf
00000010: dd8f 643f f8f0 923f f400 0a3f ab07 f03c
00000020: c33d 24bd 88b2 39bf e7d1 a7bf 3bb5 12bf
00000030: dc98 8c3f 8596 3cbd 5cc0 c2bd 10a3 b2be
00000040: 85ce 973f 815e 3cbf b81b 0a3f 26ea 7a3f
00000050: c613 2e3f b37e 14bf c518 b1bf f5b4 00c0
00000060: f34f 973f acf0 abb9 68a7 e63e 23bc c8bd
00000070: d3c6 e93f d142 f1bf eef0 4cbd ca49 a0bf
00000080: 1eaf 29bf 5df5 13bf b49a 35bf 8295 00bf
00000090: c4a0 ef3e 18db f9be 8aa0 ca3e c69c b53f
000000a0: f387 5b3f 7cb7 f1bf 3649 d8be 3181 b43e
000000b0: 5f24 d4bf 1914 8fbf 36c0 c93f aac0 e0b9
000000c0: 27ee 05bf 4940 6cbf

item_embedding.weight f4 [11, 50]
0.7891523 0.061680194 -1.547759 -0.38747835 0.47203898 0.8129901 -1.3751633 -0.6059613
0.40674046 -0.14358805 0.75476515 -0.3661463 1.1299233 -1.2803358 -0.35847044 1.0034708
1.789833 -0.23071167 -1.1092546 -1.9221689 -2.3565435 0.1349691 0.3846148 -1.1591572
-0.51756966 -0.5520214 -0.02354038 0.664107 0.44006848 0.9675347 -0.9760816 -1.7613558
-1.7700484 0.79767317 0.6812929 -1.3178104 2.3872309 0.39304346 0.6120073 -0.36794335
-0.38799533 1.4271928 0.3319103 0.03969931 -0.35667557 1.4485515 1.5725509 0.67029697
0.66576236 -0.38039035 -0.031420574 -0.17051849 0.47030038 -2.096296 1.7381961 -0.5942301
-0.76866287 -0.66813636 2.3809307 -1.2491473 -0.8197682 -0.6235784 -0.2913198 0.41576096
-1.1948028 -0.09162654 0.5073891 -0.67629063 -0.1936048 -1.0682249 0.05690638 -1.656877
0.030354002 1.5026885 -2.0098658 1.489555 0.58009785 -1.5103712 0.1547313 1.6145722
0.598798 -0.16074312 -1.4259642 0.2405667 0.756003 -0.87520796 -0.9343011 -0.4288562
0.15592465 -0.08713512 0.33630347 -1.5923706 0.34144834 -0.6055583 -0.124148384 -0.28790018
-0.14717695 0.17667408 1.5663745 -0.8811444 -1.2294917 -0.2527864 2.1005967 -0.19518745
-0.954359 0.34034443 0.37938935 0.9076545 0.74447894 -0.56824917 -0.5225884 -1.2996562
-1.4408374 1.0829453 0.14099927 -0.4819321 0.5101208 -0.5334967 -0.32318527 0.26799673
0.38612673 -0.19938487 0.6503777 -0.2435405 -0.9122023 -0.7813975 0.6683525 1.6258442
1.1020441 0.51772153 2.432108 -1.2299259 0.13383473 0.1580568 -0.97262233 1.1388478
0.94454324 0.2780807 -0.75035506 0.9727652 0.54175913 -0.79665375 -1.5016276 -0.5524664
0.31493253 0.5436647 0.02751586 -0.9384472 1.5632508 1.8263775 0.98721355 1.0968245
-1.3040285 0.034441773 -1.3239392 0.048232656 -0.20887364 -0.19682954 -0.45733076 -0.92519444
1.4738474 0.3521592 0.32006386 -0.9388008 0.73849344 -0.15464997 -2.3992708 0.12086034
-0.31420654 -1.1096317 -0.6756186 -1.0012007 -0.005005421 -1.1889992 -0.3286161 0.9293958
0.72476435 1.287676 1.8254151 0.5007832 0.49854687 -0.11458342 -0.23680046 -3.6118703
0.1665247 -0.19478041 0.22194992 -0.25659496 1.5784992 -0.16661035 0.5503832 0.7351871
-1.3867819 0.6022051 -0.06887803 0.09585609 -0.3188224 -1.051875 -0.5386868 2.2450452
-0.7376248 -0.4541751 1.3623022 -0.86951196 -0.2726286 -1.723423 0.9273834 0.14741242
1.3873544 0.29451057 -0.91054034 0.27247232 -0.4967729 -0.38485715 0.9824253 0.87996477
-0.8753088 -0.25794056 -0.428162 -0.2987047 -0.6645726 -1.4686097 -0.36778188 0.49669948
0.66937435 -0.71296906 0.50107455 -0.31164742 0.21694756 -1.5834534 -0.6810696 0.064655766
-1.7554897 0.3373261 -0.0555549 0.27099288 -0.64999455 2.149916 1.5059252 -0.50220007
0.6741015 0.38243526 0.80719984 -0.8038676 0.3017326 1.0560435 -1.3347185 -1.0697404
0.11014644 0.3190034 0.65517837 0.5276751 -0.91258144 -0.17772445 -0.5542011 0.30506146
00000000: e305 4a3f 5fa4 7c3d f81c c6bf 9063 c6be
00000010: 18af f13e 1f20 503f 5a05 b0bf 4820 1bbf
00000020: 4940 d03e bf08 13be 4a38 413f 8777 bbbe
00000030: 54a1 903f 0be2 a3bf 7089 b7be bb71 803f
00000040: 3f19 e53f ae3f 6cbe 0efc 8dbf a109 f6bf
00000050: 9cd1 16c0 5735 0a3e 3bec c43e 435f 94bf
00000060: 727f 04bf 4651 0dbf c1d7 c0bc eb02 2a3f
00000070: a850 e13e 5bb0 773f 7ce0 79bf 1b74 e1bf
00000080: f290 e2bf 4f34 4c3f 3669 2e3f 03ae a8bf
00000090: 64c8 1840 fe3c c93e 83ac 1c3f 1263 bcbe
000000a0: 53a7 c6be 41ae b63f 26f0 a93e be9b 223d
000000b0: 2e9e b6be 236a b93f 5949 c93f 9598 2b3f
000000c0: 676f 2a3f 86c2 c2be dcb2 00bd 669c 2ebe
000000d0: 36cb f03e b729 06c0 367d de3f 771f 18bf
000000e0: 17c7 44bf fc0a 2bbf 2b61 1840 0fe4 9fbf
000000f0: 54dc 51bf d6a2 1fbf de27 95be 9fde d43e
00000100: 4cef 98bf b2a6 bbbd 41e4 013f 6221 2dbf
00000110: 5640 46be 98bb 88bf aa16 693d 8c14 d4bf
00000120: f5a8 f83c 1958 c03f a4a1 00c0 bda9 be3f
00000130: 4b81 143f d853 c1bf e271 1e3e 4daa ce3f
00000140: d34a 193f d899 24be ff85 b6bf 1e57 763e
00000150: 6a89 413f a10d 60bf 5b2e 6fbf 0a93 dbbe
00000160: b6aa 1f3e e673 b2bd f82f ac3e cdd2 cbbf
00000170: 51d2 ae3e de05 1bbf 8241 febd a767 93be
00000180: 8eb5 16be 0dea 343e f67e c83f ae92 61bf
00000190: fc5f 9dbf 386d 81be 2d70 0640 38df 47be
000001a0: df50 74bf a041 ae3e 523f c23e 0c5c 683f
000001b0: 2c96 3e3f c778 11bf 5ac8 05bf 225b a6bf
000001c0: 5c6d b8bf f49d 8a3f 1d62 103e cebf f6be
000001d0: 4797 023f 3d93 08bf 8a78 a5be de36 893e
000001e0: 67b2 c53e 8c2b 4cbe 277f 263f ae62 79be
000001f0: 1786 69bf ab09 48bf 2619 2b3f aa1b d03f
00000200: c80f 8d3f 6689 043f a8a7 1b40 366e 9dbf
00000210: f90b 093e a4d9 213e c7fd 78bf c4c5 913f
00000220: 96cd 713f 9860 8e3e 4517 40bf 2407 793f
00000230: bab0 0a3f 80f1 4bbf 5535 c0bf 706e 0dbf
00000240: d63e a13e 9c2d 0b3f f168 e13c 133e 70bf
00000250: 9a18 c83f bdc6 e93f 07ba 7c3f bf64 8c3f
00000260: 68ea a6bf d112 0d3d d776 a9bf 9b8f 453d
00000270: f9e2 55be af8d 49be 4227 eabe 8bd9 6cbf
00000280: 08a7 bc3f 364e b43e 69df a33e 4055 70bf
00000290: e80d 3d3f 905c 1ebe a78d 19c0 a085 f73d
000002a0: aedf a0be 6908 8ebf 57f5 2cbf 5827 80bf
000002b0: 8404 a4bb 2031 98bf 5f40 a8be e2ec 6d3f
000002c0: 288a 393f 91d2 a43f 34a7 e93f 5433 003f
000002d0: 8941 ff3e b6aa eabd d27b 72be e228 67c0
000002e0: 7385 2a3e 8474 47be d746 633e 6a60 83be
000002f0: 430c ca3f e79b 2abe eae5 0c3f 3935 3c3f
00000300: 1282 b1bf 1d2a 1a3f ed0f 8dbd 3350 c43d
00000310: b13c a3be d7a3 86bf 61e7 09bf d2ae 0f40
00000320: fbd4 3cbf a489 e8be eb5f ae3f 5698 5ebf
00000330: fa95 8bbe 2099 dcbf 0069 6d3f 48f3 163e
00000340: d494 b13f 17ca 963e 2c19 69bf 7e81 8b3e
00000350: 0459 febe ff0b c5be 3980 7b3f 5f45 613f
00000360: 3d14 60bf c910 84be 0d38 dbbe d3ef 98be
00000370: 6e21 2abf 67fb bbbf e84d bcbe 654f fe3e
00000380: 1e5c 2b3f 2485 36bf 6c46 003f 4090 9fbe
00000390: 8027 5e3e 9aae cabf 945a 2ebf 3e6a 843d
000003a0: e3b3 e0bf 02b6 ac3e 898d 63bd 94bf 8a3e
000003b0: 0b66 26bf 3998 0940 28c2 c03f 2f90 00bf
000003c0: ea91 2c3f 8ece c33e a6a4 4e3f 44ca 4dbf
000003d0: b27c 9a3e 6f2c 873f 0ed8 aabf 41ed 88bf
000003e0: 7594 e13d 6a54 a33e c5b9 273f b715 073f
000003f0: f09e 69bf 66fd 35be 20e0 0dbf 0431 9c3e

fc_layers.0.weight f4 [128, 100]
0.004988172 -0.03440284 -0.010599294 -0.007021442 -0.078062154 -0.008170214 0.03858849 0.048135795
0.058464386 -0.058184482 -0.05242422 0.030458048 -4.3891545e-05 0.071704604 0.010549222 0.05185056
0.07408659 -0.06378168 0.02259077 -0.053245984 -0.031924196 0.051065516 -0.04048192 0.039540086
-0.040547244 -0.078366324 0.03637699 -0.0027424558 0.0013598795 0.06797195 0.0026882866 0.015949277
-0.0581043 0.00095221295 -0.027277615 0.0014818526 -0.07263871 0.03282395 -0.056609724 0.041835938
-0.046383634 -0.018146247 -0.010458849 -0.019232968 0.002369367 -0.06755789 -0.010395016 0.019491933
-0.022852909 0.07511036 0.064635485 -0.019971421 0.03531575 -0.06196832 -0.0767853 0.10899923
0.022710277 0.061089933 0.007137452 -0.084136866 -0.08448574 0.03743059 0.053979978 0.06633324
-0.011523576 -0.011833925 0.009297212 -0.08894042 0.035535872 0.03372343 -0.0049140593 -0.0504126
-0.082971156 0.040736385 -0.09324611 0.08782197 0.009074528 0.07890759 -0.05916147 -0.09623517
-0.055241913 0.07672605 0.07068798 -0.0057126326 -0.08013597 -0.039740447 -0.021575205 -0.027599743
0.09745888 0.09136647 -0.012260064 -0.087410316 -0.06854253 0.005028312 0.0778515 -0.0918716
0.09659473 0.022950869 0.09234695 -0.045571566 -6.8121924e-05 0.00096059375 -0.001666543 -0.002051332
0.05327943 -0.06346904 0.00078871794 -0.05960264 0.012150139 -0.00384614 -0.0066215377 -0.042216554
0.0027614888 0.000801948 0.031369366 0.07714208 0.01889487 -0.062994935 0.07729424 -0.017336497
-0.07990971 0.004579457 -0.06732143 0.06815833 0.014834464 0.06624593 0.023319393 0.00029275543
0.07426319 0.04614968 -0.004193023 0.026536271 0.05488344 -0.032679155 -0.06355549 -0.07258689
-0.07107561 -0.015763193 0.06836984 -0.02091563 0.043699585 -0.04053431 -0.024494708 -0.062297795
0.076589264 0.073919185 -0.06816582 -0.029740397 -0.010640892 -0.02053635 0.056649324 -0.068079814
0.04921974 0.037946194 0.098406814 0.014650932 -0.10067382 -0.10114267 0.016261267 0.10249508
-0.097916745 0.04010016 -0.076899916 -0.09231046 -0.0223486 0.025556553 0.07694721 -0.013841115
0.03037749 -0.033092044 -0.019706378 0.007230164 -0.049499128 -0.014584123 -0.026820919 0.039123304
0.05423323 0.09135074 0.030677974 -0.102119535 0.058843564 -0.080619626 -0.055805624 0.047225483
0.099928916 -0.034779955 0.08733191 -0.00095161283 -0.04514747 0.014739785 0.039193064 0.07867268
0.05862211 -0.025524922 0.07021911 -0.03160164 -0.0035698237 0.0928345 -0.033338506 0.06911008
0.029405775 -0.02047518 0.00797604 -0.024491481 0.02949608 -0.06604611 -0.00027213572 0.0066891448
-0.06501501 -0.07433169 0.021203693 -0.0017009694 -0.019179353 0.052416015 -0.066616476 0.01200362
-0.041107714 -0.075857565 -0.046013854 -0.04570214 0.014691247 -0.06937825 0.06659696 -0.04125333
0.049748175 -0.002333724 0.005374856 0.0040884484 -0.000899326 0.023716629 -0.00045082968 0.031965587
-0.047140922 -0.06753647 -0.075709604 0.002279347 0.00030676776 -0.05781236 0.016074467 -0.018753419
0.028456071 -0.044544727 0.035645317 -0.051605556 -0.024668327 -0.022025207 -0.040916752 0.0694884
0.021771217 -0.00078757794 -0.0724339 0.010807836 0.06448468 0.019421278 0.06308184 -0.05590149
00000000: d273 a33b fee9 0cbd a9a8 2dbc 2014 e6bb
00000010: 0ddf 9fbd 5cdc 05bc f70e 1e3d 0a2a 453d
00000020: 5a78 6f3d da52 6ebd c7ba 56bd 2883 f93c
00000030: 3018 38b8 ddd9 923d a5d6 2c3c 4161 543d
00000040: b6ba 973d f89f 82bd 4710 b93c 7618 5abd
00000050: f2c2 02bd 132a 513d 5fd0 25bd c9f4 213d
00000060: de14 26bd 867e a0bd 0a00 153d c6ba 33bb
00000070: fc3d b23a e134 8b3d f72d 303b 0fa8 823c
00000080: c6fe 6dbd ee9d 793a 4e75 dfbc b93a c23a
00000090: 9bc3 94bd 6872 063d 99df 67bd 295c 2b3d
000000a0: c4fc 3dbd 70a7 94bc 985b 2bbc 758e 9dbc
000000b0: 6247 1b3b cb5b 8abd db4f 2abc 8cad 9f3c
000000c0: 0636 bbbc 76d3 993d 9c5f 843d 1b9b a3bc
000000d0: 3fa7 103d 7ed2 7dbd 9d41 9dbd fd3a df3d
000000e0: e70a ba3c 7039 7a3d 49e1 e93b f34f acbd
000000f0: dc06 adbd d150 193d 1c1a 5d3d b9d9 873d
00000100: 62cd 3cbc 14e3 41bc 5553 183c 6526 b6bd
00000110: 108e 113d 9421 0a3d 1e06 a1bb 717d 4ebd
00000120: c8ec a9bd 32db 263d d1f7 bebd 01dc b33d
00000130: 54ad 143c 4d9a a13d 4c53 72bd f216 c5bd
00000140: 5845 62bd 8c22 9d3d dcc4 903d 0931 bbbb
00000150: 541e a4bd e1c6 22bd 7cbe b0bc db18 e2bc
00000160: 8598 c73d 581e bb3d 6fde 48bc 2e04 b3bd
00000170: 0760 8cbd 8ac4 a43b 9b70 9f3d 2d27 bcbd
00000180: 75d3 c53d 7603 bc3c 6620 bd3d 40a9 3abd
00000190: aedc 8eb8 5bd0 7b3a e76f daba a46f 06bb
000001a0: 883b 5a3d 0efc 81bd f7c1 4e3a e621 74bd
000001b0: 6011 473c 860f 7cbb 7cf9 d8bb 44eb 2cbd
000001c0: 18fa 343b d239 523a 2a7d 003d abfc 9d3d
000001d0: 6ac9 9a3c 7d03 81bd 714c 9e3d 4505 8ebc
000001e0: b4a7 a3bd 450f 963b d1df 89bd 9896 8b3d
000001f0: 400c 733c f2ab 873d 5008 bf3c f87c 9939
00000200: 4d17 983d 7207 3d3d a065 89bb 9862 d93c
00000210: 75cd 603d 94da 05bd 6129 82bd 6fa8 94bd
00000220: 1790 91bd d021 81bc 7d05 8c3d 4157 abbc
00000230: 56fe 323d 4e07 26bd 20a9 c8bc f92b 7fbd
00000240: d5da 9c3d f162 973d 859a 8bbd 22a2 f3bc
00000250: 2357 2ebc d93b a8bc 1f09 683d 6e6d 8bbd
00000260: a39a 493d 786d 1b3d 8389 c93d 760a 703c
00000270: 132e cebd e323 cfbd 5936 853c f1e8 d13d
00000280: 9388 c8bd 1140 243d b47d 9dbd 440d bdbd
00000290: 6914 b7bc fa5b d13c 8096 9d3d d8c5 62bc
000002a0: 37da f83c 868b 07bd 456f a1bc 03eb ec3b
000002b0: 99bf 4abd 3ff2 6ebc 8bb7 dbbc c23f 203d
000002c0: aa23 5e3d 1916 bb3d 6050 fb3c 0c24 d1bd
000002d0: f305 713d e71b a5bd 7094 64bd 826f 413d
000002e0: 88a7 cc3d 6d75 0ebd 13db b23d a875 79ba
000002f0: 8eec 38bd 247f 713c e888 203d 241f a13d
00000300: bd1d 703d a419 d1bc 09cf 8f3d b970 01bd
00000310: b4f3 69bb 0420 be3d f58d 08bd 9689 8d3d
00000320: 61e4 f03c 91bb a7bc f0ad 023c 5ca2 c8bc
00000330: c3a1 f13c 2f43 87bd 70ad 8eb9 9d30 db3b
00000340: 9726 85bd 373b 98bd 5eb3 ad3c 10f3 deba
00000350: 051e 9dbc 2db2 563d 386e 88bd d5aa 443c
00000360: 9060 28bd 365b 9bbd 0679 3cbd 2b32 3bbd
00000370: 8eb3 703c 2f16 8ebd fd63 883d 40f9 28bd
00000380: bec4 4b3d 64f1 18bb 8f1f b03b 64f8 853b
00000390: bfc0 6bba 6049 c23c 565d ecb9 59ee 023d
000003a0: d716 41bd 9050 8abd a30d 9bbd 1961 153b
000003b0: acd5 a039 a7cc 6cbd 9aae 833c c5a0 99bc
000003c0: b51c e93c 8874 36bd d300 123d 5960 53bd
000003d0: 3b15 cabc 356e b4bc 5398 27bd ef4f 8e3d
000003e0: 8d59 b23c 7675 4eba 3958 94bd 5a13 313c
000003f0: 8b10 843d 5f19 9f3c 0d31 813d f6f8 64bd

fc_layers.0.bias f4 [128]
0.047631823 -0.058069035 -0.009110545 -0.00071708224 -0.009009122 -0.075763896 -0.060452696 0.0027296057
-0.018715527 -0.008908378 0.0022884759 -0.006753433 0.00549341 -0.025846925 0.04800893 -0.00020153978
-0.005310963 -0.029469857 0.002618548 0.036308344 0.058986958 0.07653291 -0.059736248 0.047229692
-0.0075764298 -0.022004057 0.061632562 -0.00045057505 -0.0008736452 0.018317899 0.05254739 0.04337607
0.06841172 0.042162273 -0.01723318 0.0011849231 -0.0008033919 0.051565632 -0.002743279 0.032259114
0.0022502304 -0.049136404 -0.040015247 0.06615416 0.0040928214 -0.061705038 -0.058988135 0.031144787
0.013727782 0.0052335015 0.00011260253 -0.002539474 -0.06375207 -0.013418542 0.03639768 -0.028948355
0.024242846 0.0027297218 0.020990344 -0.07723198 0.014436936 0.03460455 -0.040866826 -0.06820223
-0.06683108 0.061375957 0.0270028 -0.03340392 0.011976485 -0.017631391 -0.048912916 0.020294322
-0.07195209 0.0026604987 0.030434405 -0.03622104 0.0117933545 3.3882912e-05 -0.040495165 -0.026726974
-0.023019282 -0.040059447 -0.050087687 0.022428738 -0.05532585 0.0022804425 -0.07525029 -0.022452908
0.023859445 0.075716816 0.0075850817 -0.05079978 -0.06491492 -0.031017067 -0.024158025 0.06352614
0.0013005802 -0.009286782 -0.0008779948 -0.0583829 -0.015669828 0.050142772 0.026465073 -0.028465573
0.013966723 0.058999363 -0.013250384 -0.07203382 -0.0021565736 -0.03967219 -0.045600522 -0.065570876
-0.0021535761 0.0025619324 0.018994382 -4.4160384e-05 -0.052999653 -0.05809927 -0.009377258 0.0019802516
-0.0009270095 0.030640446 0.015492222 0.058217313 -0.06443948 0.063409515 0.018625043 0.058217905
00000000: 9619 433d ccd9 6dbd 6544 15bc 93fa 3bba
00000010: ff9a 13bc 1a2a 9bbd 3f9d 77bd 2fe3 323b
00000020: 4e51 99bc 72f4 11bc 41fa 153b e74b ddbb
00000030: 1002 b43b eebc d3bc 03a5 443d 6c54 53b9
00000040: 9607 aebb c56a f1bc f29b 2b3b 0fb8 143d
00000050: 4f9c 713d 49bd 9c3d ffad 74bd ec73 413d
00000060: b343 f8bb da41 b4bc 6d72 7c3d 293b ecb9
00000070: 5605 65ba 6b0f 963c ef3b 573d 1bab 313d
00000080: 721b 8c3d 59b2 2c3d 992c 8dbc 6c4f 9b3a
00000090: b89a 52ba 7c36 533d 96c8 33bb 2222 043d
000000a0: 9a78 133b 4143 49bd 07e7 23bd d57b 873d
000000b0: 131d 863b 6cbe 7cbd 8b9d 71bd 5a23 ff3c
000000c0: 7eea 603c cb7d ab3b 0625 ec38 4e6d 26bb
000000d0: 7290 82bd 72d9 5bbc bc15 153d 1a25 edbc
000000e0: ef98 c63c 22e5 323b f1f3 ab3c cd2b 9ebd
000000f0: e688 6c3c 80bd 0d3d f963 27bd 9cad 8bbd
00000100: bcde 88bd 5b65 7b3d fa34 dd3c 8cd2 08bd
00000110: 0539 443c b56f 90bc e958 48bd 4740 a63c
00000120: 9e5b 93bd c35b 2e3b 9351 f93c 835c 14bd
00000130: ea38 413c 801d 0e38 42de 25bd 87f2 dabc
00000140: ef92 bcbc 6015 24bd bf28 4dbd 79bc b73c
00000150: 5c9d 62bd 7a73 153b d31c 9abd 29ef b7bc
00000160: e274 c33c 6b11 9b3d 478c f83b 6e13 50bd
00000170: 1df2 84bd 8117 febc 0de7 c5bc fe19 823d
00000180: 3b78 aa3a 9627 18bc 3c29 66ba e822 6fbd
00000190: 035e 80bc 8262 4d3d 48cd d83c a230 e9bc
000001a0: afd4 643c 51a9 713d 2318 59bc 7886 93bd
000001b0: 4d55 0dbb 4e7f 22bd 9dc7 3abd 064a 86bd
000001c0: 0323 0dbb 18e6 273b 1b9a 9b3c da38 39b8
000001d0: 2a16 59bd 80f9 6dbd 12a3 19bc 1cc7 013b
000001e0: 8e02 73ba ac01 fb3c 17d3 7d3c 4775 6e3d
000001f0: d9f8 83bd d9dc 813d 8c93 983c e675 6e3d

fc_layers.1.weight f4 [128]
1.0173588 0.9826836 0.994363 0.9832086 0.9824557 0.98158765 0.99249053 0.982386
0.981754 1.0125818 0.9825314 0.98307085 0.98137456 1.0169346 0.98234236 0.9828
0.9828099 1.0162543 1.0082197 0.9821683 1.0167587 0.9833403 1.0180843 1.0192624
0.98270017 1.0185587 1.0187621 0.99341166 0.9828291 0.9819621 1.0166652 1.0130297
1.0122216 0.9821857 0.9819843 0.9996755 1.0184095 0.98275125 1.0178194 1.0173274
0.9817724 1.0172215 1.0183517 1.0189992 1.0180254 0.9969158 0.9813471 0.98187363
1.0186512 0.9820323 1.0172186 0.98218805 0.9823761 1.0190308 1.0164754 0.9825813
1.0176572 1.0180333 0.98202455 0.9816805 0.9820777 0.9820254 1.0169508 1.018001
0.98206323 0.98192424 1.0180593 1.0166711 1.017549 1.0184366 0.98195666 0.98231244
0.990521 1.0168216 0.98278236 0.9822394 1.0182941 0.98212796 1.0187258 1.0180296
1.0182704 0.9898502 1.017743 1.0170044 0.98231035 1.0188298 0.9826669 0.9847282
1.0097806 1.0176375 0.9823176 1.019064 1.017174 1.0134007 1.0170038 0.9818546
1.0175799 0.98233694 1.0184937 0.98212916 0.98205113 0.9826776 0.9822991 1.0149062
0.98233247 1.0180613 0.98187053 0.98190254 0.9823989 1.0091714 1.0186051 1.0174091
0.9834657 0.98174554 0.9817632 1.0175314 0.98223925 1.0177537 1.0172114 1.009957
0.98187995 0.98191595 0.98306996 0.98289794 1.0173389 0.98233354 1.0174197 0.98191005
00000000: d038 823f 2791 7b3f 938e 7e3f 8fb3 7b3f
00000010: 3782 7b3f 5449 7b3f dc13 7e3f a67d 7b3f
00000020: 3b54 7b3f 489c 813f 2e87 7b3f 88aa 7b3f
00000030: 5d3b 7b3f ea2a 823f ca7a 7b3f c898 7b3f
00000040: 6e99 7b3f 9f14 823f 580d 813f 626f 7b3f
00000050: 2625 823f 31bc 7b3f 9650 823f 3177 823f
00000060: 3d92 7b3f 2260 823f cc66 823f 3a50 7e3f
00000070: b09a 7b3f de61 7b3f 1622 823f f5aa 813f
00000080: 7a90 813f 8670 7b3f 5363 7b3f bcea 7f3f
00000090: 3e5b 823f 9695 7b3f e847 823f c937 823f
000000a0: 7055 7b3f 5034 823f 5959 823f 916e 823f
000000b0: a84e 823f e035 7f3f 9039 7b3f 125c 7b3f
000000c0: 2a63 823f 7866 7b3f 3834 823f ad70 7b3f
000000d0: 007d 7b3f 9a6f 823f de1b 823f 738a 7b3f
000000e0: 9742 823f ea4e 823f f665 7b3f 6a4f 7b3f
000000f0: 7269 7b3f 0466 7b3f 722b 823f db4d 823f
00000100: 7f68 7b3f 635f 7b3f c44f 823f 4722 823f
00000110: 0c3f 823f 215c 823f 8361 7b3f d478 7b3f
00000120: c992 7d3f 3627 823f a097 7b3f 0b74 7b3f
00000130: 7657 823f bd6c 7b3f 9b65 823f cb4e 823f
00000140: af56 823f d366 7d3f 6745 823f 332d 823f
00000150: b178 7b3f 0469 823f 0f90 7b3f 2617 7c3f
00000160: 7e40 813f f241 823f 2b79 7b3f b070 823f
00000170: c232 823f 1db7 813f 2e2d 823f d35a 7b3f
00000180: 0f40 823f 6f7a 7b3f 005e 823f d16c 7b3f
00000190: b467 7b3f c290 7b3f f477 7b3f 72e8 813f
000001a0: 247a 7b3f d54f 823f de5b 7b3f f75d 7b3f
000001b0: 7f7e 7b3f 872c 813f a761 823f 763a 823f
000001c0: 68c4 7b3f ad53 7b3f d554 7b3f 783e 823f
000001d0: 0874 7b3f c145 823f fc33 823f 4546 813f
000001e0: 7c5c 7b3f d85e 7b3f 79aa 7b3f 339f 7b3f
000001f0: 2938 823f 367a 7b3f cf3a 823f 755e 7b3f

fc_layers.1.bias f4 [128]
0.01848364 -0.016491706 0.019769868 -0.016999159 0.0064482884 -0.0073476313 0.020136543 0.020517606
-0.018183386 0.01905851 -0.014372991 -0.017448576 -0.017930351 0.019688891 -0.017777033 -0.017434647
-0.017308488 0.01911539 0.019369511 -0.016936945 0.017980518 -0.017241085 0.018556308 0.019259797
-0.016211396 0.018536462 0.018950399 0.019744737 -0.014799368 -0.016217701 0.018677687 0.01853205
0.01915954 -0.016435798 -0.017598301 0.019548984 0.018599452 -0.017371798 0.018109115 0.01757833
-0.016904255 0.018765932 0.018818986 0.019066736 0.018302273 0.019206325 0.011368761 -0.011855352
0.019080639 -0.01666598 0.018520877 -0.015656158 -0.017397538 0.018958293 0.018721739 -0.01494684
0.018693766 0.018620338 -0.01741737 -0.01447224 -0.016988294 -0.00788488 0.018320587 0.018573565
-0.01855657 -0.01648334 0.018075299 0.017574424 0.018151663 0.01864942 -0.01617358 -0.017296502
0.019691836 0.017627647 -0.016898375 -0.016866164 0.018620545 -0.0111459 0.019230485 0.018189471
0.018618708 0.019774629 0.01823545 0.018307531 -0.005588834 0.018542843 -0.017611677 0.020130422
0.019248124 0.018332584 0.0050974414 0.019382924 0.017928762 0.019213833 0.017735802 -0.017852597
0.018190475 -0.017613374 0.018659756 -0.016818509 -0.0050288956 -0.016591374 -0.015642708 0.016741695
-0.01638693 0.019045694 -0.012337227 -0.018184928 -0.016470475 0.019669082 0.018288251 0.018569034
-0.016302645 -0.017718138 -0.017886292 0.018591048 -0.0177802 0.01816052 0.018292822 0.018524993
-0.013774188 -0.016448509 -0.01717553 -0.017263157 0.0179254 0.008341364 0.01776737 -0.018531518
00000000: 016b 973c 9d19 87bc 6bf4 a13c d241 8bbc
00000010: 2a4c d33b 66c4 f0bb 64f5 a43c 8a14 a83c
00000020: 53f5 94bc 9820 9c3c b27c 6bbc 51f0 8ebc
00000030: ace2 92bc 994a a13c 24a1 91bc 1bd3 8ebc
00000040: 88ca 8dbc e197 9c3c cfac 9e3c 59bf 8abc
00000050: e14b 933c 2d3d 8dbc 6603 983c b9c6 9d3c
00000060: c3cd 84bc c7d9 973c de3d 9b3c b7bf a13c
00000070: 0c79 72bc fcda 84bc f301 993c 87d0 973c
00000080: 78f4 9c3c 5ea4 86bc 502a 90bc 3125 a03c
00000090: e15d 983c 4d4f 8ebc 9159 943c 6e00 903c
000000a0: cb7a 8abc 03bb 993c 462a 9a3c d831 9c3c
000000b0: a6ee 953c 9556 9d3c 0a44 3a3c f33c 42bc
000000c0: 004f 9c3c 1887 88bc 18b9 973c 5841 80bc
000000d0: 4885 8ebc 6c4e 9b3c 555e 993c 97e3 74bc
000000e0: ab23 993c ae89 983c dfae 8ebc f91c 6dbc
000000f0: 092b 8bbc 952f 01bc 0e15 963c 9727 983c
00000100: f303 98bc 1208 87bc a612 943c 3df8 8f3c
00000110: ccb2 943c abc6 983c 757e 84bc 65b1 8dbc
00000120: c650 a13c db67 903c 766e 8abc e92a 8abc
00000130: 1d8a 983c 4b9d 36bc 4089 9d3c 1602 953c
00000140: 4386 983c 67fe a13c 8362 953c adf9 953c
00000150: 8a22 b7bb 29e7 973c 5d46 90bc 8ee8 a43c
00000160: 3eae 9d3c 372e 963c 7008 a73b f0c8 9e3c
00000170: 57df 923c 5466 9d3c ac4a 913c 9c3f 92bc
00000180: 3104 953c ec49 90bc 58dc 983c f8c6 89bc
00000190: 6fc9 a4bb a2ea 87bc 2325 80bc e125 893c
000001a0: e23d 86bc b705 9c3c 1522 4abc 8ff8 94bc
000001b0: 17ed 86bc 0e21 a13c 3ed1 953c 161e 983c
000001c0: 208d 85bc a125 91bc 4686 92bc 414c 983c
000001d0: c8a7 91bc 5fc5 943c d4da 953c bac1 973c
000001e0: 22ad 61bc 06bf 86bc b2b3 8cbc 776b 8dbc
000001f0: 4ad8 923c 37aa 083c e08c 913c 69cf 97bc

fc_layers.1.running_mean f4 [128]
0.052853215 -0.07029867 0.07231893 0.018863088 -0.021581898 -0.5237662 -0.3238066 0.68047124
-0.44566444 0.18958874 -0.085703485 0.7454035 -0.013095789 -0.30400825 0.23386273 0.02074823
-0.76957524 0.60935795 -0.8786162 -0.117324226 0.09828212 0.6267856 -0.037932117 0.12669668
-0.17857657 0.26288083 -0.5555098 0.5469904 0.207888 -0.33258274 0.73047554 0.36050996
-0.024216376 0.20842479 -0.17647249 -0.035969023 0.5563169 0.22637847 -0.25851455 -0.3522853
0.08102142 -0.14422613 -0.22566538 -0.04372505 -0.12443881 -0.13832177 -0.26334628 -0.18330553
0.09366827 -0.3696016 -0.36768642 -0.029453296 0.52295095 0.4897883 0.098624706 0.042447183
0.9871574 0.11977949 0.06256239 -0.48481768 0.12537758 0.100102834 -0.04954953 -0.14608487
-0.0018630545 -0.17939915 0.21306267 -0.025789142 0.28621504 0.31799346 0.14493717 0.09862144
0.057835545 -0.20394962 0.27969387 -0.3359358 -0.24110524 0.5367765 -0.11084513 -0.2186585
-0.39702976 0.122082904 0.014881637 0.06141179 -0.07768317 0.09460686 -0.25199565 0.40840355
0.29180592 0.21854053 -0.34531006 -0.24464725 -0.36495045 0.21357666 0.3400381 0.10175732
-0.17525841 0.0029659888 -0.15102275 0.39514816 -0.13156419 -0.042266242 -0.057224255 0.106061555
0.21575798 -0.074171886 0.021162942 0.014604314 -0.26638797 -0.2797649 -0.8294857 -0.52059835
-0.23293202 -0.25582018 0.3576859 0.3809079 0.56561726 0.2013778 -0.1932685 -0.46960056
-0.059333984 -0.10705381 0.7826325 0.38855717 -0.39595845 0.28687775 -0.23686835 0.7219435
00000000: 9d7c 583d c0f8 8fbd f21b 943d c386 9a3c
00000010: 85cc b0bc 8b15 06bf fbc9 a5be 5d33 2e3f
00000020: 212e e4be 8d23 423e 4f85 afbd c4d2 3e3f
00000030: b88f 56bc f8a6 9bbe b679 6f3e 31f8 a93c
00000040: e202 45bf e2fe 1b3f feec 60bf af47 f0bd
00000050: 2348 c93d 0575 203f b55e 1bbd c6bc 013e
00000060: c7dc 36be 5198 863e e435 0ebf 9007 0c3f
00000070: 98e0 543e 4948 aabe 7200 3b3f c394 b83e
00000080: 6c61 c6bc 4f6d 553e 34b5 34be 4154 13bd
00000090: c96a 0e3f c2cf 673e 055c 84be bd5e b4be
000000a0: 8fee a53d 04b0 13be d314 67be 0a19 33bd
000000b0: c6d9 febd 39a4 0dbe 53d5 86be 72b4 3bbe
000000c0: 26d5 bf3d 6c3c bdbe 6541 bcbe 0a48 f1bc
000000d0: 1de0 053f 88c5 fa3e c0fb c93d 19dd 2d3d
000000e0: 59b6 7c3f f34e f53d b620 803d 063a f8be
000000f0: fb62 003e b702 cd3d 73f4 4abd 4697 15be
00000100: bc31 f4ba 69b4 37be 1a2d 5a3e c043 d3bc
00000110: c78a 923e 0ad0 a23e 696a 143e 0afa c93d
00000120: f7e4 6c3d 2bd8 50be 0934 8f3e c7ff abbe
00000130: 4be4 76be 2f6a 093f c602 e3bd 04e8 5fbe
00000140: 7c47 cbbe 9a06 fa3d 1cd2 733c ee8a 7b3d
00000150: 5b18 9fbd 3ec1 c13d 9305 81be 451a d13e
00000160: 9667 953e 17c9 5f3e 7bcc b0be cf84 7abe
00000170: c9da babe d7b3 5a3e 7919 ae3e 2466 d03d
00000180: f176 33be 0961 423b b5a5 1abe dc50 ca3e
00000190: c3b8 06be 5e1f 2dbd fb63 6abd cd36 d93d
000001a0: a9ef 5c3e 6ee7 97bd e85d ad3c ef46 6f3c
000001b0: 0164 88be 583d 8fbe 2d59 54bf ef45 05bf
000001c0: bb85 6ebe ddfa 82be 9b22 b73e 5c06 c33e
000001d0: 4bcc 103f fb35 4e3e 2de8 45be 7c6f f0be
000001e0: 3108 73bd 073f dbbd 9b5a 483f f7f0 c63e
000001f0: 11bb cabe a4e1 923e 9e8d 72be 4ad1 383f

fc_layers.1.running_var f4 [128]
0.2506447 0.23692445 0.28431475 0.22231272 0.21379869 0.31973398 0.22289063 0.38082197
0.25241074 0.22868009 0.4778237 0.20483989 0.15963335 0.27968773 0.22852483 0.20835362
0.19376981 0.3028532 0.20266701 0.21156257 0.21924749 0.3281218 0.27256724 0.2149859
0.34918028 0.2731182 0.24373725 0.26204976 0.3367577 0.19572046 0.36547482 0.21568282
0.28519997 0.27406484 0.22274993 0.31184202 0.16740184 0.29820445 0.36239472 0.35870442
0.19435088 0.3043794 0.28033784 0.19578601 0.2044583 0.280209 0.29576474 0.30784795
0.28296372 0.34867847 0.28184202 0.17836854 0.32101664 0.29862118 0.46034986 0.23594718
0.27879226 0.2159918 0.23964755 0.24488549 0.22217992 0.31504166 0.2721047 0.28130183
0.2701126 0.24640085 0.40526718 0.2833313 0.30194288 0.30369326 0.22324426 0.21399973
0.22696488 0.2253989 0.22710656 0.30937436 0.2140439 0.2754933 0.3207771 0.22322232
0.3289338 0.24092498 0.33168527 0.24394037 0.27675092 0.24075057 0.21824862 0.24294615
0.2562793 0.18670994 0.22763729 0.30434844 0.5194656 0.24306381 0.31786445 0.2665177
0.2574649 0.47540408 0.29041064 0.288257 0.28340116 0.19862604 0.3030594 0.15979864
0.19608064 0.25150478 0.2822762 0.45624527 0.25581875 0.17001645 0.36095992 0.24841452
0.18261257 0.2743035 0.23170441 0.31218633 0.44100043 0.27486995 0.2528735 0.24723248
0.2260443 0.28840694 0.25376067 0.13486393 0.33613637 0.22521228 0.28360602 0.20944281
00000000: 8154 803e 539c 723e b491 913e f2a5 633e
00000010: 0bee 5a3e 2cb4 a33e 713d 643e 19fb c23e
00000020: fb3b 813e 1d2b 6a3e 4fa5 f43e 8cc1 513e
00000030: ed76 233e 3b33 8f3e 6a02 6a3e a75a 553e
00000040: 986b 463e 930f 9b3e f187 4f3e dca3 583e
00000050: 6a82 603e 95ff a73e ef8d 8b3e 4425 5c3e
00000060: c2c7 b23e 26d6 8b3e 4296 793e 632b 863e
00000070: 816b ac3e f26a 483e 841f bb3e f5db 5c3e
00000080: bb05 923e 3a52 8c3e 8f18 643e c2a9 9f3e
00000090: 636b 2b3e 41ae 983e cd8b b93e 1ba8 b73e
000000a0: eb03 473e 9ed7 9b3e 7188 8f3e 217c 483e
000000b0: 845d 513e 8e77 8f3e 7a6e 973e 3f9e 9d3e
000000c0: 9fe0 903e fc85 b23e 994d 903e 3ea6 363e
000000d0: 4b5c a43e e0e4 983e fab2 eb3e 239c 713e
000000e0: dcbd 8e3e f42c 5d3e 2b66 753e 43c3 7a3e
000000f0: 2283 633e 244d a13e 4f51 8b3e cb06 903e
00000100: 334c 8a3e 8150 7c3e 2e7f cf3e cd10 913e
00000110: 4298 9a3e af7d 9b3e 259a 643e bf22 5b3e
00000120: 7b69 683e f8ce 663e 9f8e 683e 5166 9e3e
00000130: 532e 5b3e 750d 8d3e e53c a43e 6494 643e
00000140: 036a a83e 0ab5 763e a7d2 a93e 81cb 793e
00000150: 4cb2 8d3e 5187 763e 917c 5f3e e0c6 783e
00000160: 0a37 833e e430 3f3e c019 693e 8fd3 9b3e
00000170: b3fb 043f b8e5 783e 21bf a23e 0275 883e
00000180: 70d2 833e 2a68 f33e b4b0 943e 6c96 933e
00000190: f519 913e a064 4b3e 9a2a 9b3e 41a2 233e
000001a0: 5dc9 483e 3cc5 803e 8286 903e fb98 e93e
000001b0: adfa 823e cb18 2e3e bdcf b83e 6060 7e3e
000001c0: cafe 3a3e 8271 8c3e ec43 6d3e e3d6 9f3e
000001d0: cfca e13e c1bb 8c3e a378 813e 832a 7d3e
000001e0: 2878 673e 13aa 933e ebec 813e c519 0a3e
000001f0: 111a ac3e 0c9e 663e cf34 913e 2d78 563e

fc_layers.4.weight f4 [1, 128]
0.096148096 -0.03318941 0.025196116 -0.037679907 0.014241195 0.010418725 0.026347743 0.020236481
-0.014920592 0.034045797 -0.0013675631 -0.06826923 -0.019346891 0.037568033 -0.03068958 -0.04237084
-0.06625736 0.034432974 0.027205754 -0.025520885 0.10079182 -0.039753698 0.054229714 0.08341882
-0.024090746 0.07724622 0.07597617 0.02466746 -0.041539587 -0.019354735 0.038259707 0.038183566
0.032117214 -0.022315526 -0.0522837 0.02440667 0.099173695 -0.017844299 0.073017456 0.08089417
-0.029661583 0.043090906 0.09584488 0.06777839 0.10495968 0.027420131 0.01589247 0.006698736
0.053473707 -0.021957522 0.08089188 -0.011793906 -0.06652776 0.10140931 0.042670928 -0.003248238
0.072071254 0.08547562 -0.038907327 0.0015959372 -0.04729151 0.010377025 0.08823928 0.057266183
-0.04426946 -0.043841355 0.06290762 0.07723422 0.090056114 0.1018532 -0.02096166 -0.04766784
0.02465246 0.070600845 -0.011249589 -0.027563067 0.10015705 0.0081566265 0.08676304 0.09253417
0.081778 0.023679312 0.04861979 0.058777824 0.010363533 0.09779446 -0.053631283 0.021297254
0.029880548 0.06690267 0.014326073 0.044729345 0.09292219 0.03167611 0.08329751 -0.05662858
0.10190873 -0.035978816 0.07207853 -0.06280672 0.011104837 -0.05500107 -0.012509477 0.08737228
-0.015199352 0.07744593 0.007688632 -0.032360807 -0.0061512026 0.028778628 0.0793593 0.058607854
-0.057758123 -0.014548257 -0.042073246 0.104136854 -0.01718589 0.08416814 0.06998557 0.030057812
0.004632958 -0.010409624 -0.06034934 -0.06405381 0.078987576 0.015770204 0.08512915 -0.0467083
00000000: 4be9 c43d 9ef1 07bd 1668 ce3c 3f56 1abd
00000010: e753 693c 4db3 2a3c 39d7 d73c fac6 a53c
00000020: 8075 74bc 9b73 0b3d ce3f b3ba bdd0 8bbd
00000030: 5f7d 9ebc f0e0 193d b768 fbbc 0c8d 2dbd
00000040: f0b1 87bd 9709 0d3d 9ade de3c 2d11 d1bc
00000050: f16b ce3d c6d4 22bd fa1f 5e3d 7cd7 aa3d
00000060: f559 c5bc 4433 9e3d 6599 9b3d 6a13 ca3c
00000070: 6a25 2abd d28d 9ebc 36b6 1c3d 5f66 1c3d
00000080: 578d 033d 0dcf b6bc 6f27 56bd 7ff0 c73c
00000090: 941b cb3d 352e 92bc 2d8a 953d d8ab a53d
000000a0: d9fc f2bc 1780 303d 524a c43d 66cf 8a3d
000000b0: 1af5 d63d 2fa0 e03c ed30 823c 1281 db3b
000000c0: 3f07 5b3d 43e0 b3bc a4aa a53d 3a3b 41bc
000000d0: b53f 88bd afaf cf3d b6c7 2e3d 64e0 54bb
000000e0: 189a 933d d80d af3d 4a5d 1fbd c42e d13a
000000f0: beb4 41bd 6604 2a3c ccb6 b43d f28f 6a3d
00000100: e553 35bd fe92 33bd b6d5 803d fa2c 9e3d
00000110: 576f b83d 6998 d03d cab7 abbc 5a3f 43bd
00000120: f5f3 c93c 2d97 903d 3250 38bc f1cb e1bc
00000130: 241f cd3d 5fa3 053c d2b0 b13d 8e82 bd3d
00000140: 397b a73d 1efb c13c 8b25 473d 04c1 703d
00000150: cfcb 293c 7648 c83d 7aac 5bbd 9477 ae3c
00000160: 0dc8 f43c 4404 893d e8b7 6a3c 1e36 373d
00000170: fd4d be3d cfbe 013d e397 aa3d 5ff3 67bd
00000180: 86b5 d03d 865e 13bd e99d 933d cfa0 80bd
00000190: 10f1 353c cd48 61bd 8df4 4cbc 3df0 b23d
000001a0: b406 79bc f99b 9e3d ebf0 fb3b c48c 04bd
000001b0: 0790 c9bb 28c1 eb3c 2187 a23d ca0e 703d
000001c0: c893 6cbd d05b 6ebc ff54 2cbd b445 d53d
000001d0: 6cc9 8cbc 5960 ac3d 9854 8f3d cd3b f63c
000001e0: 12d0 973b 218d 2abc df30 77bd a52e 83bd
000001f0: 3dc4 a13d 8430 813c 3158 ae3d 3451 3fbd
