ncf_model.pth (torch, 68700 bytes, 5 tensors)

user_embedding.weight f4 [55, 50]
-0.19800486 -0.73254806 0.21453905 1.5709096 -0.47634688 -0.81448394 -0.18632844 0.4398261
1.6647537 2.2541535 0.5661687 0.030033644 -0.49389833 -1.0387901 -0.8706229 1.923712
-0.38327482 0.2278071 -1.7602478 0.27948964 2.1508274 0.45126188 -0.81642306 -0.5895177
1.6100799 -0.58764726 0.7208953 -0.24752451 -0.82505673 0.06830938 1.0239046 -0.022778053
0.57479566 -0.5944795 1.0952659 -0.7192714 0.2919311 -0.91702497 -0.3447965 0.5459073
-0.65881383 1.5611429 -0.99936205 -0.699643 0.07324128 -1.0890493 -0.48741433 -0.50506467
-2.4344687 0.4559371 -1.6049774 -0.43365327 -0.06724674 -0.84964806 0.53158516 0.5545624
-0.91003937 -0.21086723 -0.74635273 -0.6303169 1.7320446 -0.34870985 0.19889724 -1.3420664
0.71596813 1.3683215 -0.67378664 0.12843984 -0.111980416 0.87309694 0.20972304 -0.81885004
-0.49534327 0.1246328 0.15399966 0.5733776 -0.20167199 0.87206584 -1.2481655 1.4798423
-0.008933197 -1.1930734 1.119452 1.2601099 0.14688954 -0.08803971 0.59124655 1.038393
-0.46288878 -2.9706554 0.26400596 -0.98921573 -0.7589148 0.4220196 -0.24067573 -0.40026224
0.510447 0.66172934 -1.4768914 0.9208174 0.6883142 1.206672 -0.29408213 0.7422723
1.361524 0.1673846 -2.0499563 0.27977636 -0.18185268 0.6237469 -0.29182446 0.6285172
1.374448 1.5885521 1.2832593 2.15199 0.7768941 -0.36167988 -0.049284406 1.2936275
0.34786206 -1.6285158 -0.5968314 0.28469437 -1.2123165 0.013381019 1.2523891 -0.99078584
-0.30632055 -2.8746958 -0.33039877 -0.63766885 -0.5438843 -1.5334214 0.45507 -0.140064
0.72193617 1.3591235 -0.109919325 0.9935344 1.6758434 2.1701555 -0.15948844 1.5643653
0.71163404 -0.75916034 -0.8786602 0.040570114 -1.0115683 -0.33988902 -0.29671142 0.33236977
-0.5890342 -0.06825005 0.38002187 0.26019147 -0.96106684 0.096501365 -0.2666799 0.16724128
1.01554 0.59379995 0.44755456 -1.1969111 2.227284 -0.0999876 -1.4209516 -1.8679763
-1.2119472 -1.7724203 -0.201776 -0.57849586 -0.07296191 0.23032922 -0.072965145 -2.3248165
0.6872986 1.1329662 -0.9648341 -2.5129309 -0.30886877 0.5614082 -0.50885385 0.9553327
0.056737307 2.159546 -0.67578375 1.1650525 0.087258324 -0.9239365 -1.7154769 0.92544353
0.7849423 1.0849868 0.41413206 -0.48504353 0.36947766 0.64798534 0.13634141 -1.3549446
-0.7661293 0.9536426 -0.4428915 0.10320741 -0.2691786 1.3695555 -0.7509813 1.5399315
0.07393314 0.12554273 -0.82007104 -0.83253574 -0.42730504 -0.74366504 -1.0468814 -0.09905296
-1.2989209 1.8413225 0.17336749 1.8450289 -0.37861302 1.4887016 -1.5761375 0.63844854
-0.25314584 -0.32298985 1.7211428 -0.7586002 -0.22474164 -0.9192727 2.1099775 3.2347505
1.2128214 -0.33794975 1.1961854 -0.5623352 -0.16708787 -0.12185777 -0.20883913 0.8975491
0.4955986 -1.2010962 -0.024913495 -0.463568 1.7428119 -0.5593763 1.2096038 -0.32886928
-0.9029353 -1.7013739 0.5699896 0.71202695 -0.5875878 -0.8602778 0.42555225 -1.1237457
00000000: c9c1 4abe 4588 3bbf 20b0 5b3e 9113 c93f
00000010: bde3 f3be 0582 50bf e2cc 3ebe e330 e13e
00000020: a616 d53f 0d44 1040 6ff0 103f 1e09 f63c
00000030: 3ee0 fcbe 13f7 84bf 24e1 5ebf 323c f63f
00000040: 993c c4be 4446 693e cd4f e1bf 4419 8f3e
00000050: 28a7 0940 cc0b e73e 1a01 51bf a2ea 16bf
00000060: 1917 ce3f 0d70 16bf 988c 383f 1177 7dbe
00000070: eb36 53bf cae5 8b3d 4e0f 833f 0a99 babc
00000080: cf25 133f cf2f 18bf ac31 8c3f 2c22 38bf
00000090: fe77 953e 26c2 6abf 2b89 b0be 95c0 0b3f
000000a0: 06a8 28bf 88d3 c73f 31d6 7fbf ce1b 33bf
000000b0: 86ff 953d f865 8bbf 5f8e f9be eb4b 01bf
000000c0: 56ce 1bc0 9670 e93e e66f cdbf cd07 debe
000000d0: a9b8 89bd 8982 59bf f715 083f cdf7 0d3f
000000e0: 57f8 68bf 94ed 57be f910 3fbf 735c 21bf
000000f0: a3b3 dd3f 198a b2be b8ab 4b3e d5c8 abbf
00000100: b049 373f 2925 af3f 487d 2cbf bc85 033e
00000110: fd55 e5bd 4883 5f3f a3c1 563e 28a0 51bf
00000120: a29d fdbe 7b3f ff3d 16b2 1d3e e0c8 123f
00000130: 1a83 4ebe b53f 5f3f e3c3 9fbf 796b bd3f
00000140: 8b5c 12bc a1b6 98bf 344a 8f3f 484b a13f
00000150: 366a 163e 2a4e b4bd ef5b 173f 10ea 843f
00000160: c2ff ecbe 381f 3ec0 ca2b 873e 3e3d 7dbf
00000170: 3e48 42bf f412 d83e b373 76be 2cef ccbe
00000180: a8ac 023f 1867 293f c70a bdbf b0ba 6b3f
00000190: 5c35 303f 3a74 9a3f ef91 96be 8f05 3e3f
000001a0: 6b46 ae3f de66 2b3e 7c32 03c0 d93e 8f3e
000001b0: 9737 3abe e0ad 1f3f 046a 95be 81e6 203f
000001c0: e9ed af3f ad55 cb3f d741 a43f 34ba 0940
000001d0: 88e2 463f 1b2e b9be 72de 49bd 9695 a53f
000001e0: fa1a b23e 3573 d0bf f1c9 18bf 76c3 913e
000001f0: 302d 9bbf 103c 5b3c 494e a03f 24a4 7dbf
00000200: 0cd6 9cbe 04fb 37c0 072a a9be 443e 23bf
00000210: 003c 0bbf 2747 c4bf effe e83e f06c 0fbe
00000220: cfd0 383f c2f7 ad3f 621d e1bd 4558 7e3f
00000230: 0982 d63f d4e3 0a40 f050 23be 1f3d c83f
00000240: a62d 363f 5558 42bf e0ef 60bf d92c 263d
00000250: 127b 81bf ef05 aebe 8fea 97be 5f2c aa3e
00000260: f2ca 16bf afc6 8bbd 3a92 c23e d137 853e
00000270: 7a08 76bf 82a2 c53d 458a 88be 4c41 2b3e
00000280: 37fd 813f 4603 183f df25 e53e 6234 99bf
00000290: d28b 0e40 4dc6 ccbd bee1 b5bf d919 efbf
000002a0: 1621 9bbf abde e2bf 5e9e 4ebe 4e18 14bf
000002b0: 0e6d 95bd 6cdb 6b3e c06e 95bd cbc9 14c0
000002c0: cdf2 2f3f 0905 913f 5eff 76bf dcd3 20c0
000002d0: 0c24 9ebe 73b8 0f3f 3f44 02bf af90 743f
000002e0: 6165 683d 0036 0a40 2a00 2dbf 7120 953f
000002f0: 7eb4 b23d 1a87 6cbf bf94 dbbf dee9 6c3f
00000300: fbf1 483f d9e0 8a3f 1e09 d43e a057 f8be
00000310: 2d2c bd3e 5ee2 253f 159d 0b3e d36e adbf
00000320: 0d21 44bf ec21 743f adc2 e2be 685e d33d
00000330: c7d1 89be 984d af3f 4f40 40bf 7a1c c53f
00000340: 426a 973d 468e 003e 2df0 51bf 1021 55bf
00000350: bac7 dabe d560 3ebf 3600 86bf 47dc cabd
00000360: 0a43 a6bf 75b0 eb3f 3f87 313e e829 ec3f
00000370: 91d9 c1be c68d be3f e0be c9bf 5d71 233f
00000380: 559c 81be ed5e a5be 684e dc3f 9f33 42bf
00000390: ac22 66be 7555 6bbf df09 0740 2706 4f40
000003a0: bb3d 9b3f c007 adbe 9a1c 993f 33f5 0fbf
000003b0: 1519 2bbe 9190 f9bd edd9 55be c7c5 653f
000003c0: 1abf fd3e 85bd 99bf 6317 ccbc c958 edbe
000003d0: 7614 df3f 4933 0fbf 4cd4 9a3f 8e61 a8be
000003e0: c526 67bf 9fc6 d9bf d7ea 113f 6647 363f
000003f0: 276c 16bf 2a3b 5cbf fce1 d93e e6d6 8fbf

item_embedding.weight f4 [14, 50]
-0.59024835 1.0313163 0.7261608 0.3801307 0.07374965 1.5649321 -0.04841248 -0.12629992
-0.046476353 0.6644224 0.57361555 0.9091068 1.5517601 -0.27798107 -0.9228422 -0.3146634
1.0166767 -0.12404744 -0.7359022 -1.295256 0.122106895 -2.3384516 -0.89549726 -1.7337986
-1.8783743 -0.33098125 1.0005277 -1.1324562 -0.9313461 0.8318589 1.2501957 -0.37855944
0.33657834 -0.1291582 -1.196522 -0.100040406 -0.8712237 0.6700144 0.86909664 2.2419226
-1.4090823 0.13473219 -2.1125119 -0.52951473 1.620752 -0.7601448 0.7160648 -0.44951344
-0.609899 0.76739275 2.2725163 0.033397634 1.3194753 2.5436268 -1.7449615 0.91652656
0.07488383 2.4272747 0.16641442 1.6959311 -2.6867735 0.6864523 1.2543935 0.4888199
-0.8521146 2.0268369 -0.5662253 0.91910887 -0.15623017 -1.1363585 -1.6773256 -0.05520806
-1.1189188 0.6499036 -0.49062565 1.2099286 -0.12361608 -0.07365915 -1.9294494 0.63199174
0.30436158 -0.038741667 -0.5095645 -0.751037 -0.03476647 0.54987574 -0.9414174 -0.039950356
1.3429573 -0.12394829 0.4691681 0.5691633 0.44187298 -0.23264843 -1.759045 -1.578475
-0.94990444 0.3637315 0.9106979 -0.0066187126 -0.87931687 -0.46105143 -1.0568154 -0.1317777
0.21773733 1.7779154 0.78806067 -1.065941 0.03684382 -0.74796957 -0.7993266 -0.10044025
0.66337276 1.0666927 0.35767025 0.023269502 0.26183283 -1.4444027 0.30590743 0.4560243
0.74028045 0.64863056 0.6491603 1.2972699 0.43464726 -0.71063447 2.497101 -3.1125906
1.4946442 -0.27371973 -0.33834463 -0.17222819 -1.3245356 0.0049423035 -0.8824472 0.0106774075
0.2478428 -0.9930402 -0.7202965 -0.22011745 0.3613731 0.6058413 1.23771 -0.7942395
0.27072352 0.68483794 -1.093753 0.54959553 0.8956845 -0.5270661 0.4827397 -0.17089385
-1.0881696 1.2023416 1.1742574 -0.3297162 0.61515886 -1.4970753 -0.12873591 -0.25967047
0.7179432 0.019239156 -0.92325985 1.2276232 -0.46210328 -0.96847475 1.1677965 1.741064
0.8061866 0.8759993 -0.13815446 -0.21278493 -1.6172894 0.118472375 -0.023799503 1.7446327
-1.3322831 1.448822 -1.2041042 0.62719357 0.4936859 -0.09227091 1.796253 0.7394622
1.5374455 0.4359782 0.14794315 1.3673306 -1.4431326 -1.1949829 -0.6488868 -0.5243843
-0.30173534 1.0856341 0.39241377 0.58398354 0.4488834 -0.33216372 0.1680988 -0.5819386
0.47848853 -0.43977678 -1.457063 0.19918963 -0.059123337 0.47808343 -0.6248 0.40369314
-0.67134345 3.0842257 1.0410125 -1.2578441 -0.65624774 -1.8989015 -0.47242504 -1.2063185
-0.9615554 -0.5003568 0.09459476 1.7591438 2.7674215 0.02600767 0.2709627 0.214096
-0.48698765 0.7617049 0.77906495 -0.712338 -0.7642027 -2.2238295 0.9872141 -0.40611756
0.38503218 -0.29915094 -1.214251 -0.32371888 -1.6887422 -0.09096177 0.74218917 -0.8179006
-0.60319567 0.3907394 0.39490238 0.37128714 -0.2306517 -0.61090046 -0.6101878 -0.16651438
1.9892272 -0.1279762 0.30591136 0.7368663 -1.0085686 0.19276872 -1.2182403 0.6938667
00000000: 841a 17bf 2c02 843f ade5 393f 7ea0 c23e
00000010: 0e0a 973d b24f c83f 2a4c 46bd c454 01be
00000020: fd5d 3ebd 9617 2a3f 78d8 123f 39bb 683f
00000030: 13a0 c63f 8953 8ebe 633f 6cbf 901b a1be
00000040: 7622 823f 960c febd 1664 3cbf f3ca a5bf
00000050: 2e13 fa3d 31a9 15c0 4f3f 65bf 1ded ddbf
00000060: 926e f0bf 6076 a9be 4b11 803f 53f4 90bf
00000070: b36c 6ebf b4f4 543f 6a06 a03f 8bd2 c1be
00000080: ff53 ac3e 0c42 04be a227 99bf fce1 ccbd
00000090: 8408 5fbf 1086 2b3f 1e7d 5e3f a97b 0f40
000000a0: cf5c b4bf 3cf7 093e 6533 07c0 478e 07bf
000000b0: cd74 cf3f da98 42bf 0650 373f a026 e6be
000000c0: 5722 1cbf da73 443f e870 1140 f5cb 083d
000000d0: 91e4 a83f c8ca 2240 e65a dfbf 7ca1 6a3f
000000e0: b25c 993d 7858 1b40 8b68 2a3e 4514 d93f
000000f0: 19f4 2bc0 57bb 2f3f f78f a03f 9a46 fa3e
00000100: 2f24 5abf b2b7 0140 24f4 10bf b84a 6b3f
00000110: cdfa 1fbe 3274 91bf 9bb2 d6bf d921 62bd
00000120: bb38 8fbf 1560 263f 4933 fbbe f1de 9a3f
00000130: 6d2a fdbd 9cda 96bd 33f8 f6bf 36ca 213f
00000140: 48d5 9b3e 95af 1ebd d272 02bf f643 40bf
00000150: 4967 0ebd a8c4 0c3f bb00 71bf fca2 23bd
00000160: 06e6 ab3f 9ad8 fdbd cd36 f03e b0b4 113f
00000170: 2d3d e23e 643b 6ebe 6328 e1bf 780b cabf
00000180: f02c 73bf 043b ba3e 7f23 693f c9e1 d8bb
00000190: e91a 61bf ef0e ecbe ba45 87bf bcf0 06be
000001a0: 89f6 5e3e bb92 e33f 58be 493f c170 88bf
000001b0: 8ce9 163d ef7a 3fbf aba0 4cbf 9eb3 cdbd
000001c0: ccd2 293f 6389 883f 8e20 b73e af9f be3c
000001d0: f40e 863e 30e2 b8bf e69f 9c3e 047c e93e
000001e0: 0583 3d3f a70c 263f 5f2f 263f f10c a63f
000001f0: 168a de3e 24ec 35bf 81d0 1f40 af34 47c0
00000200: 8050 bf3f fe24 8cbe 823b adbe 965c 30be
00000210: 628a a9bf 0cf3 a13b 0fe8 61bf 4bf0 2e3c
00000220: 81ca 7d3e e237 7ebf 5a65 38bf 7866 61be
00000230: e505 b93e 6a18 1b3f 486d 9e3f 4853 4bbf
00000240: 469c 8a3e 8a51 2f3f 1900 8cbf 4bb2 0c3f
00000250: 944b 653f ceed 06bf a829 f73e ccfe 2ebe
00000260: 2449 8bbf 54e6 993f 114e 963f 90d0 a8be
00000270: 0d7b 1d3f 2aa0 bfbf 59d3 03be 87f3 84be
00000280: 20cb 373f 6f9b 9d3c c25a 6cbf c222 9d3f
00000290: cd98 ecbe f6ed 77bf 5b7a 953f 2fdb de3f
000002a0: 3f62 4e3f 7d41 603f 5d78 0dbe 4be4 59be
000002b0: 5703 cfbf a5a1 f23d 2df7 c2bc 2050 df3f
000002c0: 4188 aabf 0073 b93f 1620 9abf c28f 203f
000002d0: 66c4 fc3e 88f8 bcbd 9eeb e53f 654d 3d3f
000002e0: 04cb c43f 8938 df3e 697e 173e b004 af3f
000002f0: 92b8 b8bf 33f5 98bf 721d 26bf 0d3e 06bf
00000300: 0e7d 9abe 0ff6 8a3f 75ea c83e f27f 153f
00000310: 0cd4 e53e 5d11 aabe 1822 2c3e eef9 14bf
00000320: 73fc f43e 6c2a e1be 0a81 babf 5ef8 4b3e
00000330: 502b 72bd 5ac7 f43e e5f2 1fbf deb0 ce3e
00000340: 2add 2bbf f463 4540 e63f 853f 0901 a1bf
00000350: daff 27bf 340f f3bf b2e1 f1be a568 9abf
00000360: 7f28 76bf 6217 00bf e6ba c13d a02b e13f
00000370: 6f1d 3140 0a0e d53c 9fbb 8a3e fb3b 5b3e
00000380: 7256 f9be 18ff 423f cd70 473f c85b 36bf
00000390: caa2 43bf 3953 0ec0 10ba 7c3f a4ee cfbe
000003a0: f022 c53e 502a 99be 946c 9bbf 7bbe a5be
000003b0: b428 d8bf 2a4a babd 1c00 3e3f ef61 51bf
000003c0: 086b 1abf ff0e c83e a530 ca3e 5919 be3e
000003d0: f62f 6cbe f963 1cbf 4535 1cbf bf82 2abe
000003e0: ff9e fe3f 310c 03be 6aa0 9c3e 45a3 3c3f
000003f0: c718 81bf 2a65 453e 4cef 9bbf 40a1 313f

fc_layers.0.weight f4 [128, 100]
-0.06582869 0.009108078 0.043661717 0.008334912 -0.097710766 -0.015381825 0.048953824 0.057889044
0.021908155 0.085229605 0.057547797 0.109430075 -0.0062585953 -0.0585658 0.06963362 -0.04909196
-0.084313 -0.015281142 0.007947789 -0.049252387 0.016014868 -0.028172076 0.022890087 0.040975694
-0.047128614 0.05389796 -0.000771706 0.015420759 0.003563362 0.01717743 -0.03563558 -0.034950778
0.07465083 -0.06889999 -0.04594511 -0.08135506 -0.021786977 0.04822187 0.0925264 -0.051242482
-0.06498556 0.0660706 -0.062181864 0.022262132 -0.0009547856 -0.037135176 -0.040749952 -0.04378017
0.036163487 0.04864881 -0.05871844 0.008388734 0.10749639 -0.0041123396 -0.018186782 -0.07433007
-0.08524554 -0.08304171 -0.08596348 -0.06395586 -0.020422589 -0.012454849 -0.10206381 0.081612185
0.004416252 0.060323935 -0.104098625 -0.0006837707 -0.0073813116 -0.07712607 0.054114513 0.06487911
-0.08919219 -0.023937168 0.038224846 -0.06257397 -0.08458076 -0.051720835 -0.06523977 -0.051731378
-0.096502826 0.010487178 0.07560946 0.10062345 -0.035626434 -0.030739624 -0.012440757 -0.048872054
-0.08666269 -0.033092406 0.10403264 0.025322877 -0.025119865 -0.072198816 0.020310596 0.017286258
0.061435536 -0.0884704 -0.026836405 -0.04435208 0.0728912 0.08522658 0.031707942 0.09616354
-0.03202553 -0.05490336 0.06390534 0.07725454 -0.0032889498 -0.031822935 0.081742704 0.09837643
0.014397463 -0.09042458 -0.074124105 -0.058274925 0.09437224 0.042969838 -0.0039385674 0.0016854509
-0.037009705 -0.08851457 0.04169875 -0.02623749 0.025267676 -0.06669702 0.00034006525 0.08265653
-0.03190514 0.07350766 0.0723306 -0.03000261 0.056790855 0.03843174 -0.03251922 0.03273384
0.075684935 0.003130243 0.022081157 -0.030370219 0.0503108 -0.0060533592 -0.032053925 -5.2091957e-05
0.053158063 -0.0031955447 -0.031341225 -0.03399852 0.075508825 0.034583054 0.07015267 0.0632401
-0.006341454 -0.064931124 0.035472933 0.0021851165 -0.022421725 0.03671423 -0.03978946 -0.05131949
-0.002222258 0.077387564 -0.032030627 0.054865345 -0.022687599 0.049345132 -0.09260447 -0.05533311
-0.027766678 0.007756867 -0.038734704 -0.062553674 0.009414942 -0.0825538 -0.01653422 -0.07033237
0.060620725 -0.037435774 0.08369412 0.0173764 0.014837711 0.0017343637 0.04328363 0.0032056447
0.060188424 0.042587966 0.07863254 -0.028896037 0.08108541 -0.10408803 0.09158006 -0.0795532
0.10994169 -0.05134406 0.05237461 -0.006528133 0.0661134 0.014919259 -0.04878502 0.024293525
0.083323374 0.105557814 -0.007962942 -0.0050463737 0.021816088 -0.008461679 -0.01960766 -0.010474349
-0.015374012 0.0070773573 -0.035756543 0.05889692 0.06648331 -0.079181656 -0.026264478 0.022793202
0.039241336 -0.059719514 -0.082339086 0.09592507 -0.019096427 -0.043575916 0.07156245 -0.029494576
0.04485987 -0.017840018 -0.09866538 -0.021900687 -0.059953675 0.08362964 -0.013904841 0.08225031
0.033215668 -0.010813113 -0.05819227 0.005905688 -0.07674779 0.03968581 -0.05392861 0.0394269
-0.050937627 0.02229984 0.03545719 -0.055291556 0.050791267 -0.08997842 -0.05434445 0.08231379
-0.032197677 0.04712181 0.07717676 0.016532484 -0.012608884 -0.060616657 0.016282447 -0.05937548
00000000: 31d1 86bd 0c3a 153c a1d6 323d 288f 083c
00000010: 951c c8bd 0d04 7cbc ce83 483d 101d 6d3d
00000020: bb78 b33c dc8c ae3d 3db7 6b3d e01c e03d
00000030: e714 cdbb b1e2 6fbd 129c 8e3d a714 49bd
00000040: 4bac acbd c15d 7abc 7137 023c dfbc 49bd
00000050: 9d31 833c 20c9 e6bc fe83 bb3c 21d6 273d
00000060: ef09 41bd 1bc4 5c3d 504c 4aba 5aa7 7c3c
00000070: 4b87 693b afb7 8c3c 9df6 11bd 8c28 0fbd
00000080: 89e2 983d 701b 8dbd f130 3cbd 7b9d a6bd
00000090: 9a7a b2bc 4c84 453d 7b7e bd3d a3e3 51bd
000000a0: 2617 85bd 0650 873d 69b2 7ebd 135f b63c
000000b0: 944a 7aba 0e1b 18bd 6ce9 26bd d652 33bd
000000c0: 2a20 143d f943 473d bf82 70bd e770 093c
000000d0: 1127 dc3d cec0 86bb 72fc 94bc 5d3a 98bd
000000e0: 3795 aebd c611 aabd 9f0d b0bd 4afb 82bd
000000f0: 464d a7bc 6c0f 4cbc d506 d1bd 4a24 a73d
00000100: 35b6 903b 3b16 773d a931 d5bd 133f 33ba
00000110: eede f1bb 46f4 9dbd 2ea7 5d3d 57df 843d
00000120: 65aa b6bd e117 c4bc a891 1c3d c826 80bd
00000130: ad38 adbd 3ad9 53bd 6e9c 85bd 48e4 53bd
00000140: 46a3 c5bd 6ad2 2b3c 22d9 9a3d ab13 ce3d
00000150: 06ed 11bd aad1 fbbc 51d4 4bbc 102e 48bd
00000160: 357c b1bd e78b 07bd 110f d53d ec71 cf3c
00000170: 2dc8 cdbc f9dc 93bd 6862 a63c e99b 8d3c
00000180: d4a3 7b3d f82f b5bd 05d8 dbbc 87aa 35bd
00000190: fb47 953d 468b ae3d 30e0 013d 64f1 c43d
000001a0: 342d 03bd 58e2 60bd cee0 823d a137 9e3d
000001b0: 6c8b 57bb c458 02bd b868 a73d 9579 c93d
000001c0: 56e3 6b3c 8630 b9bd 61ce 97bd b0b1 6ebd
000001d0: 3c46 c13d 2401 303d 190f 81bb 59ea dc3a
000001e0: 7d97 17bd 2047 b5bd 4fcc 2a3d 01f0 d6bc
000001f0: 28fe ce3c 7298 88bd c94a b239 d447 a93d
00000200: f7ae 02bd 2f8b 963d 1122 943d 09c8 f5bc
00000210: 879d 683d 9a6a 1d3d e032 05bd eb13 063d
00000220: b400 9b3d c324 4d3b 8be3 b43c f7ca f8bc
00000230: b312 4e3d 425b c6bb fa4a 03bd 507d 5ab8
00000240: 45bc 593d 586c 51bb a85f 00bd 0842 0bbd
00000250: 5fa4 9a3d f6a6 0d3d 34ac 8f3d 0784 813d
00000260: f9cb cfbb 9cfa 84bd 114c 113d 2c34 0f3b
00000270: c4ad b7bc a961 163d 46fa 22bd 6334 52bd
00000280: 4da3 11bb 5f7d 9e3d 8c32 03bd 7cba 603d
00000290: 58db b9bc 1f1e 4a3d 6aa7 bdbd f9a4 62bd
000002a0: f276 e3bc 512d fe3b 48a8 1ebd 241c 80bd
000002b0: 2141 1a3c f711 a9bd c672 87bc 6b0a 90bd
000002c0: 704d 783d 4156 19bd d367 ab3d f458 8e3c
000002d0: df19 733c 9753 e33a 2d4a 313d cb15 523b
000002e0: 2388 763d b870 2e3d 190a a13d 62b7 ecbc
000002f0: 1c10 a63d 1b2c d5bd 548e bb3d caec a2bd
00000300: 1c29 e13d 264e 52bd c286 563d f3e9 d5bb
00000310: 7666 873d e86f 743c cdd2 47bd 3703 c73c
00000320: 72a5 aa3d b22e d83d 0077 02bc 0d5c a5bb
00000330: a7b7 b23c dba2 0abc 3ea0 a0bc 9b9c 2bbc
00000340: 48e3 7bbc 2de9 e73b 7475 12bd e63d 713d
00000350: 6728 883d fe29 a2bd 9a28 d7bc cfb8 ba3c
00000360: 86bb 203d 739c 74bd 65a1 a8bd 5d74 c43d
00000370: 1c70 9cbc a97c 32bd 558f 923d 9c9e f1bc
00000380: fcbe 373d 3b25 92bc 1311 cabd 1269 b3bc
00000390: fc91 75bd 0446 ab3d 21d1 63bc da72 a83d
000003a0: 270d 083d 7c29 31bc 055b 6ebd 8084 c13b
000003b0: f22d 9dbd 978d 223d 3fe4 5cbd 1a7e 213d
000003c0: f9a3 50bd 27ae b63c 8f3b 113d 6679 62bd
000003d0: 810a 503d 9b46 b8bd 4998 5ebd 2294 a83d
000003e0: b6e1 03bd cd02 413d d90e 9e3d 226f 873c
000003f0: 7e95 4ebc 2c49 78bd c462 853c b433 73bd

fc_layers.0.bias f4 [128]
-0.022052161 0.04937803 -0.055554397 0.033582617 -0.0051037665 -0.07461218 0.05808432 -0.08176873
-0.063258484 0.08888228 0.07123064 0.07365225 0.03198143 -0.06892679 0.04950603 0.07851261
0.04062553 -0.026160808 -0.066913806 -0.07428963 -0.058957946 0.0061442424 -0.065271065 -0.009759542
0.04633634 -0.044811953 -0.039159063 0.07360843 -0.0773079 -0.068968125 -0.0056805895 -0.040481105
0.006275505 -0.04775981 0.09161165 0.07100993 0.0010133917 0.05518362 0.07371708 0.056967027
0.0049529346 -0.0053506535 -0.05750952 0.02418009 0.06953104 -0.011303224 0.06812069 -0.06375908
0.045253966 0.055494934 0.06648972 0.06263762 -0.09290049 0.004152275 0.025630692 0.07619844
-0.016713887 0.03750964 -0.04083628 -0.048453666 -0.030512298 0.08448154 -0.018904066 -0.10091959
0.02044666 -0.062815316 0.037258137 0.094456166 0.017001627 -0.004743874 -0.0973114 0.0029517694
-0.01925857 0.07276725 -0.101813786 0.040528663 0.018081017 -0.013811887 -0.037222113 0.08899847
0.025816277 -0.031961046 -0.049969364 0.060262777 0.004689907 0.058912005 -0.085569814 0.030283647
-0.008694394 0.011412153 0.026064005 -0.024949726 -0.07735296 -0.06328728 0.087527536 0.056429263
0.0057750735 0.004342519 0.07861156 0.019388735 0.091075726 0.007328033 0.077068575 0.007881922
0.023449665 -0.04931061 0.064449005 -0.08412759 0.0012364462 0.010094702 -0.0896378 -0.040535904
0.010888901 0.035160456 -0.04277268 -0.0064453264 0.08459955 -0.048600692 -0.074420035 2.0852953e-05
-0.073468 -0.07758662 0.029004628 0.07667064 -0.05025303 0.022406971 0.06930755 0.039452914
00000000: bca6 b4bc 9e40 4a3d 028d 63bd ed8d 093d
00000010: 7f3d a7bb 45ce 98bd d3e9 6d3d 5d76 a7bd
00000020: aa8d 81bd ea07 b63d 5fe1 913d fed6 963d
00000030: f6fe 023d 7d29 8dbd d6c6 4a3d 38cb a03d
00000040: f566 263d 314f d6bc 1b0a 89bd 2925 98bd
00000050: e37d 71bd a455 c93b d6ac 85bd 7ce6 1fbc
00000060: 2dcb 3d3d bd8c 37bd 4165 20bd 04c0 963d
00000070: 9b53 9ebd 293f 8dbd 3d24 babb 84cf 25bd
00000080: c0a2 cd3b ca9f 43bd e49e bb3d a76d 913d
00000090: c8d3 843a 3808 623d fbf8 963d 4256 693d
000000a0: 3a4c a23b 8954 afbb 1a8f 6bbd 5315 c63c
000000b0: 4a66 8e3d 2831 39bc dc82 8b3d 1f94 82bd
000000c0: 395c 393d a84e 633d c32b 883d 2748 803d
000000d0: 9d42 bebd cf0f 883b 75f7 d13c ed0d 9c3d
000000e0: 90eb 88bc b5a3 193d f143 27bd 5a77 46bd
000000f0: edf4 f9bc a804 ad3d b3dc 9abc eeae cebd
00000100: c17f a73c 51a5 80bd fd9b 183d 3c72 c13d
00000110: ff46 8b3c 8072 9bbb 334b c7bd 7972 413b
00000120: 26c4 9dbc ff06 953d bf83 d0bd 6201 263d
00000130: a41e 943c 414b 62bc 3776 18bd d444 b63d
00000140: a87c d33c 96e9 02bd adac 4cbd 1ad6 763d
00000150: cbad 993b b74d 713d 3a3f afbd 6915 f83c
00000160: ee72 0ebc 0afa 3a3c 2e84 d53c 5e63 ccbc
00000170: 3b6b 9ebd c39c 81bd a341 b33d 5f22 673d
00000180: d43c bd3b b14b 8e3b 19ff a03d 20d5 9e3c
00000190: e985 ba3d ff1f f03b 21d6 9d3d 2d23 013c
000001a0: 8319 c03c ecf9 49bd d7fd 833d 164b acbd
000001b0: 4010 a23a 4064 253c 0694 b7bd fa08 26bd
000001c0: 5c67 323c 6904 103d 6832 2fbd 5133 d3bb
000001d0: 8742 ad3d 8511 47bd 8869 98bd 60ed ae37
000001e0: 6476 96bd bce5 9ebd 1d9b ed3c 7f05 9d3d
000001f0: 1fd6 4dbd d38e b73c 1ef1 8d3d 6199 213d

fc_layers.2.weight f4 [1, 128]
-0.06785375 -0.0014288975 0.019246873 -0.06417963 0.07979789 0.07324853 0.03806497 0.054272525
0.01664465 -0.0333114 0.08906005 -0.06146597 0.0010779282 0.063856736 0.06907576 -0.03622993
-0.019243598 0.05880541 0.0008390692 0.041701697 -0.056322005 0.073532835 -0.073258154 -0.05819761
-0.06512362 -0.063695684 0.07983119 -0.044243716 -0.04276539 0.04247022 -0.02808545 -0.0012164521
-0.027183514 -0.044490702 0.04194687 -0.019711543 0.085017726 0.015006291 0.010922906 0.07145553
0.044468664 -0.0011711048 0.052512016 -0.035774227 0.03356771 0.056980804 -0.027373014 -0.0622453
-0.032584004 0.0091840625 0.07040197 -0.03005632 -0.0064107426 -0.022300024 0.02986311 0.016690321
0.013113581 -0.08184507 0.02854288 -0.032986242 -0.04789356 0.022033913 -0.043320104 -0.012738315
0.009763343 -0.014600778 0.014859786 0.041178674 -0.029285992 0.04290782 -0.04247818 0.07179518
0.01845515 -0.049773935 0.0022273515 -0.026003351 0.018642694 0.006925604 0.050320823 -0.06745505
0.066018924 0.002587701 -0.011483102 -0.016763085 -0.032614447 -0.068354055 -0.02296223 -0.025515813
0.087266184 -0.0058945175 -0.060716137 -0.07116236 -0.00415778 0.012440567 -0.046538472 -0.028866343
0.060522404 0.039499607 0.005287825 0.054955546 0.09389981 -0.025167739 -0.0005561794 9.901086e-05
0.03559703 0.06687503 0.039813153 0.08702528 0.088931836 0.086076066 0.005986441 -0.027972123
0.080829285 0.03832635 -0.0051974505 -0.046082776 0.00047613622 0.07444537 -0.009940285 0.014563289
-0.0752979 0.012221775 0.086958714 0.015728092 0.072937906 0.018914511 0.008529629 0.08829271
00000000: e8f6 8abd d849 bbba 9eab 9d3c 9c70 83bd
00000010: 136d a33d 5303 963d 04ea 1b3d de4c 5e3d
00000020: 5c5a 883c 8971 08bd 1e65 b63d bec3 7bbd
00000030: 4549 8d3a 52c7 823d 9877 8d3d d665 14bd
00000040: c0a4 9dbc f1dd 703d fbf4 5b3a 66cf 2a3d
00000050: e7b1 66bd 6298 963d 5f08 96bd 9e60 6ebd
00000060: 885f 85bd e272 82bd 897e a33d e638 35bd
00000070: c32a 2fbd 41f5 2d3d 7513 e6bc 5c71 9fba
00000080: f6af debc e23b 36bd 7bd0 2b3d 1a7a a1bc
00000090: c61d ae3d f2dc 753c fdf5 323c 4757 923d
000000a0: c624 363d c27f 99ba d716 573d ff87 12bd
000000b0: 4c7e 093d b464 693d 5f3d e0bc edf4 7ebd
000000c0: ce76 05bd c078 163c e82e 903d ac38 f6bc
000000d0: 3511 d2bb 8aae b6bc 7ba3 f43c 24ba 883c
000000e0: 58da 563c 639e a7bd c2d2 e93c 951c 07bd
000000f0: 0a2c 44bd 7780 b43c 6c70 31bd 5eb4 50bc
00000100: 6ef6 1f3c 1a38 6fbc 7676 733c f8aa 283d
00000110: 2de9 efbc 1cc0 2f3d 9afd 2dbd 5a09 933d
00000120: 412f 973c c1df 4bbd c2f8 113b fb04 d5bc
00000130: 90b8 983c 2df0 e23b 351d 4e3d e025 8abd
00000140: ee34 873d 6b96 293b 9f23 3cbc bd52 89bc
00000150: ba96 05bd 36fd 8bbd 491b bcbc 8a06 d1bc
00000160: 9db8 b23d cc26 c1bb 7cb1 78bd 92bd 91bd
00000170: fd3d 88bb 85d3 4b3c 209f 3ebd 1c79 ecbc
00000180: 57e6 773d 57ca 213d 7e45 ad3b 1119 613d
00000190: 8b4e c03d 932c cebc 91cc 11ba 0da4 cf38
000001a0: 31ce 113d c7f5 883d 1e13 233d 4f3a b23d
000001b0: e521 b63d a648 b03d e829 c43b cb25 e5bc
000001c0: d389 a53d 17fc 1c3d 604f aabb 4bc1 3cbd
000001d0: eca1 f939 d076 983d 94dc 22bc dc9a 6e3c
000001e0: c935 9abd d73d 483c 6917 b23d 33d8 803c
000001f0: 7860 953d 9bf2 9a3c dbbf 0b3c cfd2 b43d
