ncf_model.pth (torch, 68700 bytes, 5 tensors)

user_embedding.weight f4 [55, 50]
0.81680185 1.9093522 -0.74744684 1.9534681 0.42295128 1.5013868 -1.6134627 0.17472458
-1.3642586 -1.0576853 -0.35943502 -0.27385312 -1.2947205 -0.27027607 -0.5813705 -0.51060766
-0.2131032 0.8946333 -1.3067894 -0.63368624 -0.224848 0.59711474 0.3651453 1.8732796
0.044404928 0.18386298 -0.8602584 0.65476424 -0.7465232 0.8272456 -0.6279264 -0.35241112
0.025095016 0.051177353 -0.262247 -1.1782845 0.8081502 1.4699721 -0.72565466 0.6299986
0.24134341 1.4424213 -0.7006551 -0.48863325 -0.031954903 0.5316448 -1.0114439 -0.17072055
-1.8145505 -2.8788977 0.044498526 -0.88302815 -0.270976 0.3091915 -1.5757984 -0.097612426
-0.26348168 0.87333244 0.93495077 0.5562896 0.6269967 -1.0470536 -0.31362438 0.9882535
-0.15835689 0.132131 1.0145267 0.056082707 0.7523842 -0.28557807 -3.2719162 0.23314913
0.6708631 0.062265247 -1.7319676 -0.53145695 -1.2661142 -0.19691142 -1.5769022 -1.215225
-0.6252092 0.73189765 0.98884183 0.8033909 -1.5191443 -0.123423226 0.17712797 -0.48253864
-0.6746254 -0.26047876 -0.67724305 0.63821286 -1.9069694 0.9096093 0.9645008 -0.5435502
1.1716695 -1.7647961 -0.22283268 0.59463125 -0.5653556 0.53921103 0.58725107 -1.8777186
-1.0434291 0.5108026 -0.6275294 -0.40441996 -0.49300888 0.44439954 0.2571318 -1.2181584
0.66391724 0.5944704 -0.938494 1.5064216 -1.1312973 0.82284397 0.9898174 0.6017818
-0.6552269 0.8173228 0.065131776 0.21467969 -1.0189573 -0.47925106 -1.4388821 -0.3944904
-0.12766096 1.2500237 1.1847204 -1.8142124 1.0670663 0.121503435 -2.020916 0.39724383
-0.66089 0.8458978 1.2861469 0.1579271 -2.3122973 0.64074284 -0.7749244 1.103387
1.3930111 0.69652444 -0.80766636 -0.3880386 2.4019947 1.3679488 1.4785906 -0.72916716
0.08386739 -0.7317594 0.48641846 1.5187825 -1.6861256 1.4924233 -0.9896021 -0.45792854
0.6738687 -1.7244074 -0.3831346 0.8589937 -0.10666647 0.18658003 2.4626944 -0.17446376
-1.456846 0.66787505 0.52276355 -0.60218996 -1.0945961 1.9797152 -1.129356 -0.19130893
-0.509269 1.1309376 -0.37064937 -0.22013827 -1.5922837 -0.03784172 -0.46904263 -1.2378081
-0.35015282 0.9633952 0.34321105 -0.07624326 -0.16935165 1.2072325 1.2423826 -1.279386
1.0162139 0.54547906 -0.32502797 0.26515505 0.7350339 -0.2576136 1.8367598 -0.6402314
0.47918588 -0.76846427 0.20292702 0.46172562 -1.98238 1.4497378 1.0902193 -0.3402972
0.106256075 -0.33502457 0.6459637 -1.456043 -0.10200194 -0.16019006 0.08277493 0.3261525
1.6779522 -0.75286216 1.9075052 -1.3996851 -1.1551327 -0.6284192 -0.6332538 0.88469213
-1.067721 0.41801313 0.2763728 0.86867124 -0.3188535 0.5542341 0.91944754 1.1333184
0.40352923 -1.396476 0.8064171 -0.71437323 1.5534575 -0.8113274 0.66604817 0.946783
-0.2972811 0.50930184 0.45532528 1.8033619 -0.6189497 -0.74229604 1.340285 0.18364985
1.6291494 0.06456106 -1.025574 -1.0459888 0.088371344 0.18442968 0.7432124 -0.29234412
00000000: ed19 513f a765 f43f ad58 3fbf 3e0b fa3f
00000010: 128d d83e 712d c03f f285 cebf 00eb 323e
00000020: 07a0 aebf 3b62 87bf de07 b8be 7a36 8cbe
00000030: 67b9 a5bf a061 8abe b2d4 14bf 2fb7 02bf
00000040: ba37 5abe b006 653f e044 a7bf 4339 22bf
00000050: 8e3e 66be 83dc 183f 53f4 ba3e a0c7 ef3f
00000060: f1e1 353d 9446 3c3e e539 5cbf a19e 273f
00000070: 251c 3fbf 5ec6 533f c9bf 20bf 3b6f b4be
00000080: 1094 cd3c 589f 513d 3d45 86be 07d2 96bf
00000090: eee2 4e3f 0c28 bc3f 81c4 39bf 9747 213f
000000a0: ba22 773e 43a1 b83f 225e 33bf 232e fabe
000000b0: 25e3 02bd e019 083f fe76 81bf 5ed1 2ebe
000000c0: 3143 e8bf dc3f 38c0 1644 363d 220e 62bf
000000d0: 5ebd 8abe 594e 9e3e c3b3 c9bf 06e9 c7bd
000000e0: 12e7 86be b792 5f3f ef58 6f3f ff68 0e3f
000000f0: db82 203f da05 86bf 6093 a0be 2efe 7c3f
00000100: 4f28 22be 594d 073e 03dc 813f fbb6 653d
00000110: 409c 403f 4a37 92be 1367 51c0 a5be 6e3e
00000120: afbd 2b3f d809 7f3d 1db1 ddbf 900d 08bf
00000130: 0810 a2bf 26a3 49be eed7 c9bf 7e8c 9bbf
00000140: b60d 20bf a55d 3b3f bd24 7d3f 07ab 4d3f
00000150: 5273 c2bf 51c5 fcbd 0961 353e 4e0f f7be
00000160: 40b4 2cbf 795d 85be cd5f 2dbf eb61 233f
00000170: 9317 f4bf 28dc 683f 86e9 763f 1b26 0bbf
00000180: 44f9 953f d7e4 e1bf 402e 64be c139 183f
00000190: 25bb 10bf bc09 0a3f 1656 163f 1559 f0bf
000001a0: 168f 85bf f6c3 023f c4a5 20bf 2210 cfbe
000001b0: a96b fcbe 5688 e33e c7a6 833e 9dec 9bbf
000001c0: 7bf6 293f 362f 183f 2541 70bf 6cd2 c03f
000001d0: 5ace 90bf e7a5 523f ac64 7d3f 5f0e 1a3f
000001e0: f3bc 27bf 113c 513f cf63 853d fed4 5b3e
000001f0: 316d 82bf 6560 f5be 4a2d b8bf a5fa c9be
00000200: 8eb9 02be c700 a03f eba4 973f 1d38 e8bf
00000210: a195 883f cbd6 f83d b056 01c0 8b63 cb3e
00000220: 1630 29bf c28c 583f 76a0 a43f a4b7 213e
00000230: aefc 13c0 b907 243f 7261 46bf c93b 8d3f
00000240: 304e b23f 6d4f 323f 39c3 4ebf ffac c6be
00000250: 48ba 1940 f218 af3f 7542 bd3f b3aa 3abf
00000260: abc2 ab3d 9654 3bbf d70b f93e 7767 c23f
00000270: f7d2 d7bf ba07 bf3f 9056 7dbf 9c75 eabe
00000280: a982 2c3f 62b9 dcbf 382a c4be 03e7 5b3f
00000290: f373 dabd d60e 3f3e c99c 1d40 a1a6 32be
000002a0: ee79 babf dcf9 2a3f d5d3 053f 1f29 1abf
000002b0: ba1b 8cbf 4f67 fd3f bd8e 90bf 7de6 43be
000002c0: 745f 02bf 90c2 903f c1c5 bdbe ed6b 61be
000002d0: f4cf cbbf ebff 1abd 5b26 f0be 7f70 9ebf
000002e0: 3b47 b3be 11a1 763f 5cb9 af3e 6d25 9cbd
000002f0: 856a 2dbe 9886 9a3f 6506 9f3f ecc2 a3bf
00000300: 4c13 823f 84a4 0b3f 116a a6be 67c2 873e
00000310: 2f2b 3c3f eee5 83be f21a eb3f 34e6 23bf
00000320: da57 f53e 13ba 44bf 1acc 4f3e 4d67 ec3e
00000330: a1be fdbf 0291 b93f 4e8c 8b3f 6f3b aebe
00000340: c99c d93d 5788 abbe e15d 253f 9e5f babf
00000350: 65e6 d0bd dd08 24be e785 a93d 76fd a63e
00000360: 23c7 d63f 93bb 40bf 2129 f43f e228 b3bf
00000370: 63db 93bf 15e0 20bf ec1c 22bf 2f7b 623f
00000380: 15ab 88bf d105 d63e bc80 8d3e 3d61 5e3f
00000390: c440 a3be 49e2 0d3f ea60 6b3f 9410 913f
000003a0: 629b ce3e babf b2bf 5a71 4e3f 2ae1 36bf
000003b0: b2d7 c63f 27b3 4fbf 2282 2a3f 5f60 723f
000003c0: 3a35 98be 9b61 023f 6520 e93e 90d4 e63f
000003d0: 7d73 1ebf 1d07 3ebf 758e ab3f b50e 3c3e
000003e0: f887 d03f 9738 843d 0246 83bf f6e2 85bf
000003f0: 09fc b43d 22db 3c3e 2b43 3e3f 21ae 95be

item_embedding.weight f4 [14, 50]
0.55882317 -0.39799568 -1.0802869 1.3627408 0.95219725 1.030327 0.31874162 -0.19161658
0.7480662 0.19860747 -0.78871 -0.60286075 -0.5587485 -0.5053469 0.5587115 1.213272
-0.62654 -0.32994384 -1.338218 0.31861576 2.3800704 0.16203508 -0.754837 0.5224871
-0.9032057 -0.16586939 -0.9089123 -0.77941847 0.23649335 -0.57883686 0.20507614 1.2076489
-0.0174226 1.8949724 -0.8824498 -0.045240976 -0.14410459 -0.5363969 0.6735255 0.26368603
-0.47373122 0.013319147 1.4393014 1.2223885 1.7383409 2.6698153 0.26580143 -0.90783143
0.5856425 -0.25669074 1.4928145 -0.115276776 0.23887809 1.489869 1.643054 -0.6129425
-0.33448523 -1.8037809 -1.1712643 -1.3401017 -0.58786756 0.6689839 0.4760834 0.2148055
-0.32047227 -1.376627 -0.03069713 0.14973553 0.14874318 -0.2842043 -0.22818854 -2.101139
-0.92576826 0.30525604 0.7362808 -2.1550179 -1.3318632 -1.235341 -0.90844136 2.5430832
3.9762235 -3.0035374 0.52747464 -0.53727525 0.20162492 0.87256896 -0.7991869 -0.24161854
0.022644134 -1.268388 0.26265198 0.1961001 0.51012945 0.5187405 -0.27223516 -0.8226689
-0.41563794 1.2452601 0.80954707 1.3135517 -0.352218 -1.3172596 -0.95619714 -0.3774037
-0.5537114 0.63075507 1.2691882 1.272173 0.99959207 1.3028228 2.3378203 0.31152853
1.2318817 -1.2210834 1.4056118 -2.0183547 -0.24408524 -0.45315498 -0.27967966 0.32112595
-1.1004645 0.20966111 1.5650601 1.0744663 -0.08026157 2.0118906 1.0259501 -2.0490012
-0.5443343 -0.65256053 -0.22115687 0.981444 1.569719 -0.37980977 -0.02278741 -0.6039711
-0.91199905 -0.099256985 0.11452314 2.2426586 -0.18574741 -1.637219 1.4468535 -0.27410302
-0.49402848 -0.04511875 -0.8399602 -0.28638777 0.46992838 0.18482804 1.1413208 -2.180823
-0.5674459 1.6799843 1.9340425 1.0817646 0.24330786 0.15086822 0.3145323 0.8679705
0.17351997 -1.2397736 0.30420512 -0.70988405 -0.66158515 -0.3828398 -0.3700849 1.0409101
-0.9706932 0.51976764 -0.34522605 0.47484717 -2.0198388 -0.020716622 -0.079811625 -0.70988405
-1.4276873 -1.4149016 -0.44955662 0.5549399 0.51922494 0.2474338 0.20586962 -0.42935973
2.0020616 0.99373317 -0.6338415 0.28247464 -0.7031476 1.5445756 -1.667373 1.9347216
0.49912417 -0.13158073 -0.17428659 -0.30538404 -0.13915333 0.2822647 -1.0720065 0.75862575
1.6276745 -1.0208322 0.11744954 -0.16830243 -2.0293987 -0.8671094 -0.27608728 0.8898323
-1.0242964 -1.3249476 0.6463525 -0.13968913 0.12872986 0.25343913 -0.8167869 -1.526685
-1.6508653 0.82525724 0.08229585 -1.5575799 0.18716896 0.5901928 -0.4558391 0.56283325
-0.9629278 -0.42351234 -2.4140232 0.55685955 1.3270496 -0.7380261 0.119169414 -2.4567125
0.88786566 0.17846146 -0.64568233 0.31255245 0.4389031 0.49494898 0.087205276 -0.9222424
-0.35741717 2.002395 -0.092637576 1.2081541 0.22005586 -2.387163 1.2787101 -0.81045413
-1.4328583 -1.1784489 -1.195944 -2.164109 -0.39698327 0.40985182 0.7073872 0.07614485
00000000: 090f 0f3f 17c6 cbbe d746 8abf 4a6e ae3f
00000010: 33c3 733f c1e1 833f 1a32 a33e 2337 44be
00000020: 4481 3f3f c25f 4b3e e6e8 49bf 1555 1abf
00000030: 240a 0fbf 6a5e 01bf b807 0f3f 7f4c 9b3f
00000040: ed64 20bf 66ee a8be ba4a abbf 9b21 a33e
00000050: 1353 1840 86ec 253e ff3c 41bf b7c1 053f
00000060: 7d38 67bf aad9 29be 7aae 68bf f887 47bf
00000070: 502b 723e a72e 14bf 7bff 513e 3d94 9a3f
00000080: d7b9 8ebc 758e f23f 3be8 61bf 9a4e 39bd
00000090: 2790 13be 4f51 09bf 2b6c 2c3f db01 873e
000000a0: e68c f2be 8d38 5a3c 073b b83f 3a77 9c3f
000000b0: f481 de3f 41de 2a40 2017 883e a467 68bf
000000c0: abec 153f f86c 83be 8c14 bf3f 3b16 ecbd
000000d0: 759c 743e 07b4 be3f 984f d23f cde9 1cbf
000000e0: a641 abbe 4be2 e6bf fdeb 95bf 7488 abbf
000000f0: 7d7e 16bf 8742 2b3f 34c1 f33e f9f5 5b3e
00000100: f114 a4be 5035 b0bf 8c78 fbbc 4554 193e
00000110: 2250 183e 3a83 91be 42aa 69be 1079 06c0
00000120: 26ff 6cbf 854a 9c3e e67c 3c3f d0eb 09c0
00000130: 7e7a aabf a71f 9ebf 9d8f 68bf e0c1 2240
00000140: 727a 7e40 f539 40c0 9408 073f df8a 09bf
00000150: c376 4e3e ae60 5f3f 8397 4cbf da6a 77be
00000160: 3180 b93c 8a5a a2bf 527a 863e 77ce 483e
00000170: d897 023f 2dcc 043f 6862 8bbe 6e9a 52bf
00000180: 7fce d4be af64 9f3f 7a3e 4f3f 7622 a83f
00000190: eb55 b4be f69b a8bf 56c9 74bf 0f3b c1be
000001a0: 08c0 0dbf 2a79 213f c274 a23f 91d6 a23f
000001b0: 44e5 7f3f e6c2 a63f d99e 1540 ab80 9f3e
000001c0: 4dae 9d3f 764c 9cbf 16eb b33f b92c 01c0
000001d0: 7bf1 79be ee03 e8be 2c32 8fbe 9f6a a43e
000001e0: 05dc 8cbf 67b1 563e e453 c83f 1d88 893f
000001f0: 2e60 a4bd d1c2 0040 5552 833f d622 03c0
00000200: 7e59 0bbf 350e 27bf f276 62be ea3f 7b3f
00000210: 8dec c83f 6d76 c2be aaac babc da9d 1abf
00000220: c578 69bf 3f47 cbbd 1c8b ea3d b887 0f40
00000230: 9234 3ebe 6490 d1bf 7f32 b93f 3b57 8cbe
00000240: 4df1 fcbe 70ce 38bd a207 57bf 6ba1 92be
00000250: 749a f03e 9043 3d3e cd16 923f 9b92 0bc0
00000260: 2244 11bf ba09 d73f b48e f73f 4377 8a3f
00000270: b225 793e 337d 1a3e 610a a13e 5133 5e3f
00000280: 38af 313e e7b0 9ebf c6c0 9b3e f6ba 35bf
00000290: a55d 29bf 9403 c4be c57b bdbe 8b3c 853f
000002a0: 597f 78bf 7e0f 053f 78c1 b0be 2b1f f33e
000002b0: 0a45 01c0 e8b5 a9bc 4774 a3bd f6ba 35bf
000002c0: 75be b6bf 7f1b b5bf 492c e6be 8b10 0e3f
000002d0: edeb 043f 495f 7d3e 7ccf 523e 0ad5 dbbe
000002e0: c721 0040 4c65 7e3f 7043 22bf 84a0 903e
000002f0: 7b01 34bf a7b4 c53f 7a6c d5bf f5a4 f73f
00000300: 348d ff3e 19bd 06be 2f78 32be 4c5b 9cbe
00000310: 367e 0ebe 0085 903e 8237 89bf 4c35 423f
00000320: a357 d03f a1aa 82bf 6289 f03d 7957 2cbe
00000330: abe1 01c0 e2fa 5dbf 505b 8dbe 0dcc 633f
00000340: 251c 83bf e297 a9bf 5c77 253f ab0a 0fbe
00000350: c3d1 033e c6c2 813e f218 51bf 6a6a c3bf
00000360: 8e4f d3bf 0f44 533f ba8a a83d c75e c7bf
00000370: 38a9 3f3e e016 173f be63 e9be d715 103f
00000380: 7082 76bf 9cd6 d8be 5b7f 1ac0 598e 0e3f
00000390: c3dc a93f 47ef 3cbf 180f f43d c73a 1dc0
000003a0: 2a4b 633f 9abe 363e 704b 25bf e006 a03e
000003b0: e8b7 e03e f469 fd3e ae98 b23d 1418 6cbf
000003c0: 62ff b6be 3d27 0040 c5b8 bdbd cba4 9a3f
000003d0: 5356 613e 47c7 18c0 c6ac a33f ec79 4fbf
000003e0: e767 b7bf 6ad7 96bf b114 99bf c380 0ac0
000003f0: 6441 cbbe 19d8 d13e 5417 353f d5f1 9b3d

fc_layers.0.weight f4 [128, 100]
0.022485845 -0.06314586 0.02644334 -0.050887614 -0.025229534 0.06382226 0.0024134195 0.061576013
0.0814911 -0.06860768 0.069366865 0.048456535 -0.0934618 -0.027112298 -0.046416376 0.06749098
-0.009289531 0.058633193 0.07372448 -0.053813435 0.027009992 -0.016570337 0.0457136 0.027303386
-0.097910345 0.11060632 0.074243605 0.08052279 -0.0733236 0.035320178 0.054323647 -0.05071663
-0.10393371 0.07649596 -0.050374303 0.08341089 0.013297563 0.048855774 0.09459394 0.017320836
0.10992426 -0.09637271 0.10504308 0.09175691 0.00606265 -0.053302582 0.09072444 -0.062354848
0.08049801 0.0015806957 -0.038374573 -0.056023706 -0.081538714 -0.07182793 0.063830584 -0.05237995
0.04710623 -0.0801134 -0.03148641 -0.016122183 0.006031962 0.03445095 -0.045624126 -0.006658627
0.02664116 0.09999582 0.023078226 0.022758026 -0.04418243 0.048680503 -0.06759699 -0.08468861
-0.035020094 -0.03201697 -0.008626443 0.05648724 0.024608526 -0.01636012 -0.035220165 0.10182197
-0.07716254 -0.078154445 -0.0026412925 0.014806407 -0.08270584 0.035035133 -0.070285566 0.06898557
0.0692259 0.0030865131 0.016410768 -0.0741616 0.041054375 -0.04197402 0.02342443 -0.041633066
0.048060894 -0.033109266 -0.042959586 -0.041570004 0.056358147 0.059621423 -0.035293452 0.09421819
-0.05130783 -0.09553167 -0.087942004 -0.016537318 0.09059058 -0.06498551 0.02003888 -0.09651593
-0.0050907796 0.067807086 0.013067943 0.044791207 0.050067384 0.055397924 -0.04612683 -0.012169163
-0.015044596 -0.07727849 0.0843496 0.048823886 -0.012423228 0.041538134 -0.07192215 0.0092250295
-0.0068378164 0.04780882 0.09337029 -0.07114354 -0.10428843 -0.04526543 0.027642747 0.06535312
-0.018561658 0.036851864 -0.057470992 0.009504524 0.070719935 0.06085799 -0.004525116 0.060027096
0.08066088 -0.058407206 -0.10730202 0.015608051 -0.008582158 0.052243933 0.047529854 0.0055363006
0.018301463 0.07283737 -0.032682285 -0.03893788 0.09877295 -0.01819933 -0.005752634 0.012360244
-0.04432525 -0.01179193 0.01829618 0.07922071 0.054887235 -0.04568061 -0.07683638 0.095288314
0.017099123 0.026832417 0.031879347 -0.04934639 -0.027335532 0.03432724 -0.03145149 0.060277022
0.06201624 0.03162953 -0.029309604 -0.030130846 -0.0024912432 -0.071252726 -0.060555197 0.05673047
0.024205288 0.0734052 0.08265427 0.051024575 0.026858604 0.095401704 -0.008846578 -0.049298547
0.011985484 -0.01902792 -0.08244451 0.054953635 -0.059656113 -0.069275595 0.0514213 0.0835775
0.07278054 0.0035491143 0.041413214 -0.039823376 0.039260343 -0.07510564 -0.06301544 0.062856354
-0.087536566 0.07337381 0.058212604 0.055689435 -0.06253987 0.02744085 0.041211523 0.068450555
-0.005064471 -0.0006629678 -0.08905663 -0.08336946 -0.11021675 -0.110320516 -0.021597022 -0.10163733
0.015268268 0.0051885243 -0.10703915 0.05739028 -0.03123658 0.027266089 0.0022725323 0.0414596
-0.010567311 0.089311995 -0.02990509 0.021904867 -0.07212454 -0.025351373 0.013597777 0.095395826
-0.06481752 0.024320139 0.0638952 0.045115262 -0.07582386 -0.053359844 -0.019793313 0.048923835
-0.10607356 0.07642399 -0.023048334 -0.037652787 0.023291022 0.050394252 0.05894675 0.033964448
00000000: 3c34 b83c 9e52 81bd b49f d83c 886f 50bd
00000010: 2bae cebc 3fb5 823d 762a 1e3b 2137 7c3d
00000020: cee4 a63d 2f82 8cbd 3710 8e3d 5c7a 463d
00000030: e668 bfbd 9c1a debc 191f 3ebd b638 8a3d
00000040: 1e33 18bc 5c29 703d dcfc 963d 7a6b 5cbd
00000050: 0f44 dd3c 84be 87bc 2f3e 3b3d 5aab df3c
00000060: 3885 c8bd 9185 e23d 080d 983d 22e9 a43d
00000070: af2a 96bd e4ab 103d 7982 5e3d 3ebc 4fbd
00000080: 32db d4bd eaa9 9c3d 4955 4ebd 54d3 aa3d
00000090: 06de 593c fe1c 483d 78ba c13d 6de4 8d3c
000000a0: f81f e13d 0e5f c5bd d420 d73d 0ceb bb3d
000000b0: 32a9 c63b cf53 5abd bccd b93d cc67 7fbd
000000c0: 24dc a43d 592f cf3a a82e 1dbd 1d79 65bd
000000d0: c5fd a6bd 861a 93bd 9cb9 823d 5c8c 56bd
000000e0: 76f2 403d 7f12 a4bd e5f7 00bd ab12 84bc
000000f0: c4a7 c53b 701c 0d3d 5de0 3abd 9d30 dabb
00000100: 903e da3c 9cca cc3d 8c0e bd3c 0a6f ba3c
00000110: a3f8 34bd 3565 473d 4a70 8abd 3971 adbd
00000120: 3b71 0fbd 3a24 03bd ed55 0dbc 2a5f 673d
00000130: d297 c93c a905 86bc 0543 10bd 0988 d03d
00000140: 6507 9ebd 700f a0bd 8919 2dbb 9296 723c
00000150: ae61 a9bd 0081 0f3d e1f1 8fbd 4e48 8d3d
00000160: 4fc6 8d3d 1947 4a3b e06f 863c 09e2 97bd
00000170: a228 283d f3ec 2bbd 97e4 bf3c 6f87 2abd
00000180: 80db 443d 959d 07bd 64f6 2fbd 4f45 2abd
00000190: cdd7 663d 9835 743d de8f 10bd 77f5 c03d
000001a0: 2928 52bd 1ca6 c3bd f01a b4bd 4579 87bc
000001b0: 8e87 b93d 2017 85bd 9428 a43c 25aa c5bd
000001c0: 8ed0 a6bb 71de 8a3d ed1a 563c fc76 373d
000001d0: 7513 4d3d efe8 623d 7def 3cbd 2b61 47bc
000001e0: 9c7d 76bc 2f44 9ebd 7cbf ac3d 8efb 473d
000001f0: cb8a 4bbc e423 2a3d ec4b 93bd 9424 173c
00000200: c30f e0bb 2ed3 433d ec38 bf3d b4b3 91bd
00000210: 2c95 d5bd 3e68 39bd 0b73 e23c dbd7 853d
00000220: 9e0e 98bc fbf1 163d b466 6bbd ddb8 1b3c
00000230: 9dd5 903d 3a46 793d 6d47 94bb f9de 753d
00000240: 8831 a53d 653c 6fbd 29c1 dbbd e9b8 7f3c
00000250: 2e9c 0cbc bcfd 553d aaae 423d db69 b53b
00000260: f3ec 953c c22b 953d dcdd 05bd 547d 1fbd
00000270: 7949 ca3d c316 95bc 9780 bcbb 9f82 4a3c
00000280: 658e 35bd f032 41bc dfe1 953c 783e a23d
00000290: 70d1 603d 971b 3bbd 645c 9dbd 8526 c33d
000002a0: 7613 8c3c a8cf db3c eb93 023d 711f 4abd
000002b0: c4ee dfbc b89a 0c3d 47d3 00bd 0ae5 763d
000002c0: be04 7e3d f78d 013d b21a f0bc f7d4 f6bc
000002d0: 2044 23bb f3ec 91bd ba08 78bd 365e 683d
000002e0: 2b4a c63c 7755 963d a446 a93d 25ff 503d
000002f0: 9306 dc3c f861 c33d 3df1 10bc 46ed 49bd
00000300: c35e 443c 71e0 9bbc abd8 a8bd 1017 613d
00000310: f859 74bd 5de0 8dbd 249f 523d ae2a ab3d
00000320: f70d 953d 4298 683b e7a0 293d d61d 23bd
00000330: 74cf 203d fcd0 99bd 3d0e 81bd d5ba 803d
00000340: 5f46 b3bd 0245 963d 5770 6e3d 9b1a 643d
00000350: e714 80bd a2cb e03c 6acd 283d ce2f 8c3d
00000360: ddf3 a5bb 04cb 2dba 5363 b6bd 9cbd aabd
00000370: 52b9 e1bd b9ef e1bd 3dec b0bc 3c27 d0bd
00000380: c227 7a3c 7f04 aa3b 5837 dbbd 1212 6b3d
00000390: dbe3 ffbc 225d df3c c4ee 143b 8bd1 293d
000003a0: 8422 2dbc 35e9 b63d 85fb f4bc d671 b33c
000003b0: 08b6 93bd afad cfbc 36c9 5e3c e35e c33d
000003c0: 0cbf 84bd 073b c73c 7ddb 823d c8ca 383d
000003d0: 8a49 9bbd da8f 5abd 9625 a2bc 5c64 483d
000003e0: 183d d9bd 2e84 9c3d dccf bcbc cf39 1abd
000003f0: d0cc be3c 346a 4e3d 2672 713d 4e1e 0b3d

fc_layers.0.bias f4 [128]
-0.03196211 -0.048837304 0.01514171 -0.09088853 0.059401218 0.054720186 -0.048674457 -0.06558676
0.090209775 0.035734583 0.0037161303 -0.008150886 -0.057546113 -0.10526173 0.080500506 0.03478146
-0.08794974 0.043048892 -0.057859812 0.050910156 -0.010305964 0.038147908 -0.05741933 0.029789148
-0.06319735 0.01157484 -0.02259065 0.035431657 0.076624155 0.086085886 -0.065270804 0.087871455
-0.09420068 0.02247245 0.063648574 -0.06490882 0.001011042 0.07475169 -0.014067485 -0.070428625
0.06970569 0.052329294 -0.085257724 -0.036643893 -0.09042838 0.012105705 -0.047080446 0.085413985
0.08997896 -0.05318799 0.0016419656 0.008560009 -0.0592004 0.06952119 -0.039212946 0.0027056742
-0.06948085 0.04890697 -0.06471319 -0.028916419 0.01529165 -0.03211035 -0.09075174 0.03189421
0.080070645 -0.050613962 -0.028864173 0.073871434 -0.071927145 0.06984679 -0.106158204 0.069270365
-0.004207187 -0.07058859 0.06722653 0.0148261245 0.021491043 0.014112528 -0.08400779 -0.07680427
-0.064134136 -0.042258803 0.05243118 0.09245186 0.04490797 -0.036952276 -0.019279344 -0.024189284
0.044320837 0.0070343274 0.011778092 0.048898403 0.09398852 0.027990606 0.00024525833 -0.05476286
0.07433481 0.07761367 0.08441601 0.04896413 -0.066933304 -0.08380633 0.096555166 -0.04336204
-0.08101406 0.008266151 0.009049417 0.0114802215 0.10089619 -0.013133429 0.0011819096 -0.012490642
-0.08137566 0.016688226 0.032722533 0.03878895 -0.00863806 0.0073452815 -0.10301479 -0.056376882
-0.05010656 -0.087336846 0.027362086 0.038541395 0.07739516 0.07880332 0.084326185 -0.090733044
00000000: b4ea 02bd a009 48bd ef14 783c c423 babd
00000010: b14e 733d 4622 603d de5e 47bd 5a52 86bd
00000020: e7bf b83d 6d5e 123d 528a 733b 4b8b 05bc
00000030: 79b5 6bbd 7693 d7bd 73dd a43d 0177 0e3d
00000040: fe1e b4bd 0954 303d 69fe 6cbd 2b87 503d
00000050: 59da 28bc fb40 1c3d 8830 6bbd 5f08 f43c
00000060: 9d6d 81bd 66a4 3d3c 0710 b9bc c920 113d
00000070: 20ed 9c3d cc4d b03d b3ac 85bd f3f5 b33d
00000080: 49ec c0bd 2518 b83c 2f5a 823d eaee 84bd
00000090: f184 843a 6a17 993d 4f7b 66bc e23c 90bd
000000a0: dbc1 8e3d 3e57 563d 9a9b aebd e817 16bd
000000b0: 8432 b9bd 0257 463c 6dd7 40bd 87ed ae3d
000000c0: e446 b83d a6db 59bd 3937 d73a 483f 0c3c
000000d0: 1e7c 72bd 2061 8e3d c19d 20bd ae51 313b
000000e0: fa4b 8ebd ad52 483d 5988 84bd 20e2 ecbc
000000f0: d489 7a3c 2486 03bd 0cdc b9bd 81a3 023d
00000100: 14fc a33d 9650 4fbd 8f74 ecbc e849 973d
00000110: 8a4e 93bd d50b 8f3d 7969 d9bd 9fdd 8d3d
00000120: 71dc 89bb c090 90bd 10ae 893d 46e9 723c
00000130: fc0d b03c 3c38 673c 470c acbd 8f4b 9dbd
00000140: c258 83bd 9117 2dbd 14c2 563d 6757 bd3d
00000150: 6bf1 373d 455b 17bd b7ef 9dbc 9b28 c6bc
00000160: c489 353d 3780 e63b e6f8 403c b149 483d
00000170: 0e7d c03d 8e4c e53c 0496 8039 054f 60bd
00000180: d93c 983d eaf3 9e3d 4de2 ac3d 9d8e 483d
00000190: 5414 89bd a7a2 abbd b7be c53d 659c 31bd
000001a0: b3ea a5bd c06e 073c 0244 143c 8a17 3c3c
000001b0: a9a2 ce3d 982d 57bc 4eea 9a3a 8da5 4cbc
000001c0: 48a8 a6bd bfb5 883c 1008 063d 29e1 1e3d
000001d0: a686 0dbc b0b0 f03b 6bf9 d2bd 72eb 66bd
000001e0: 893c 4dbd a9dd b2bd 7426 e03c 95dd 1d3d
000001f0: 5b81 9e3d a363 a13d 35b3 ac3d 3fd2 b9bd

fc_layers.2.weight f4 [1, 128]
0.014906569 0.008611599 0.08822163 0.05571139 0.08254706 0.03706811 0.016591208 -0.03962934
0.068602845 0.0031129038 -0.039249443 -0.021401247 0.07650595 -0.039333988 0.0065688714 0.0035416249
-0.04836274 0.0043012816 0.0024345436 0.027844155 0.020061167 0.046998285 0.07556697 0.001807001
0.067250386 0.068732776 0.041155558 -0.034568906 0.08070551 -0.055553325 0.007961084 0.082383245
0.0006836511 0.02858279 -0.035686996 0.06144272 -0.045537744 0.071382605 0.06776697 -0.017657135
-0.008338055 -0.055062007 -0.047272727 -0.052882172 0.0614637 -0.03267099 -0.016945597 -0.029701103
-0.05793211 -0.047919426 -0.0051425146 0.07876341 -0.08097387 -0.03383199 -0.02078934 0.011438022
0.06535593 0.035207927 0.00020876803 -0.0123639675 -0.034327127 0.07258218 0.08396412 0.034152575
-0.008334391 -0.061000317 0.0773898 0.045966692 0.028917652 -0.055514265 -0.075563446 0.0542068
0.07565008 0.005270253 -0.046675812 -0.0006811034 -0.057317495 -0.04436073 0.044914365 0.050492816
-0.07413307 -0.0032085374 -0.051289644 0.02589641 0.039796796 0.088507526 -0.038960114 -0.07061198
0.031624716 0.042676 0.048950594 0.019667037 0.0453932 -0.078228176 0.020323152 0.038420513
0.061189745 -0.07833839 0.03996951 -0.07295328 0.06544907 0.04821431 0.06981256 0.010174577
0.08270149 0.08553289 -0.07056171 0.07521141 0.075976215 -0.021528827 0.020683205 -0.049534313
0.008631598 -0.044756003 0.05838863 0.06475353 0.00894429 0.014737435 -0.026743088 0.083869606
-0.0018609602 0.066083536 -0.07212823 -0.038174424 -0.04248378 0.051884476 -0.06762044 -0.08077525
00000000: af3a 743c aa17 0d3c 8bad b43d a031 643d
00000010: 6f0e a93d bbd4 173d 49ea 873c 6052 22bd
00000020: a67f 8c3d dc01 4c3b 06c4 20bd ab51 afbc
00000030: 27af 9c3d ad1c 21bd b03f d73b 9b1a 683b
00000040: 0218 46bd c4f1 8c3b dd8c 1f3b 6d19 e43c
00000050: 5157 a43c 4681 403d dbc2 9a3d e4d8 ec3a
00000060: 92ba 893d c5c3 8c3d bb92 283d 2098 0dbd
00000070: ee48 a53d e28b 63bd 356f 023c 8cb8 a83d
00000080: 0c37 333a 7526 ea3c 872c 12bd 5dab 7b3d
00000090: c985 3abd 0b31 923d 69c9 8a3d b2a5 90bc
000000a0: 569c 08bc b388 61bd 0ca1 41bd fa9a 58bd
000000b0: 5cc1 7b3d 04d2 05bd 7ed1 8abc ba4f f3bc
000000c0: 384a 6dbd 2947 44bd 8a82 a8bb b64e a13d
000000d0: a1d5 a5bd 6a93 0abd 684e aabc 8b66 3b3c
000000e0: 54d9 853d 3036 103d bee8 5a39 3d92 4abc
000000f0: 9a9a 0cbd f7a5 943d 61f5 ab3d 92e3 0b3d
00000100: f88c 08bc 78db 79bd 8b7e 9e3d 9247 3c3d
00000110: b6e4 ec3c ed62 63bd 02c1 9abd f307 5e3d
00000120: 6eee 9a3d 16b2 ac3b 232f 3fbd 138c 32ba
00000130: c0c5 6abd 99b3 35bd 20f8 373d 8ed1 4e3d
00000140: 14d3 97bd 5346 52bb 1715 52bd b524 d43c
00000150: f701 233d 6f43 b53d a494 1fbd 049d 90bd
00000160: eb88 013d 08cd 2e3d 6b80 483d c41c a13c
00000170: 38ee 393d 1836 a0bd bd7c a63c d45e 1d3d
00000180: 19a2 7a3d e16f a0bd 12b7 233d 8768 95bd
00000190: 290a 863d 5e7c 453d e3f9 8e3d 45b3 263c
000001a0: 665f a93d de2b af3d a882 90bd 7108 9a3d
000001b0: 6b99 9b3d 395d b0bc d36f a93c 7ee4 4abd
000001c0: 8c6b 0d3c 1252 37bd eb28 6f3d 809d 843d
000001d0: 128b 123c 4875 713c 5214 dbbc d4c3 ab3d
000001e0: 76eb f3ba ce56 873d f7b7 93bd c95c 1cbd
000001f0: 7903 2ebd d184 543d 967c 8abd 7f6d a5bd
