ncf_model.pth (torch, 68700 bytes, 5 tensors)

user_embedding.weight f4 [55, 50]
0	0x3e21d5c6	0.15804204
1	0xbf48a284	-0.7837298
2	0xbed67c43	-0.4189168
3	0x3faf665a	1.370311
4	0x3f0d68c6	0.55237997
5	0xbf7548b5	-0.9581407
6	0xbd74312b	-0.059617203
7	0x3f2dcab5	0.6788743
8	0xbe2bf751	-0.16793562
9	0xbfad051f	-1.3517188
10	0x3f4cdc46	0.8002361
11	0x3f466862	0.77503026
12	0x3faf2dd3	1.368586
13	0x3f85a8c6	1.044213
14	0xbed66a80	-0.41878128
15	0x3d15d526	0.036580227
16	0x3db57479	0.08860106
17	0xbefcd6f5	-0.4938275
18	0xbe849244	-0.25892842
19	0xbebd2e18	-0.3694923
20	0xbe4a2f0a	-0.19744506
21	0xbf783411	-0.9695445
22	0x3e52539e	0.2053971
23	0x3def353d	0.11680076
24	0x3b7c638e	0.0038511488
25	0x3f1e9347	0.6194348
26	0x3b83856c	0.004013708
27	0x3f3f9ddd	0.74850255
28	0xbdc990e9	-0.098420925
29	0xbf18a14b	-0.59621114
30	0xbeeefd14	-0.46677458
31	0x3dac0438	0.08399242
32	0x3f5ec6b9	0.87021977
33	0xbe52a7d7	-0.20571838
34	0xbf7e3a0a	-0.9930731
35	0xbe4b18dd	-0.19833703
36	0xbf333d66	-0.7001556
37	0xbe86a0fa	-0.2629469
38	0xbf093e48	-0.5361066
39	0x3efb3946	0.49067134
40	0x3f7446bc	0.9542043
41	0x3f63ff13	0.8906109
42	0xbf1874b3	-0.5955307
43	0xbda18bfd	-0.07888029
44	0xbf4f50aa	-0.8098246
45	0x3cb544f9	0.022127615
46	0x3eeb9481	0.46011737
47	0x3f0e3bfc	0.5556028
48	0x3f869b59	1.0516158
49	0xbfeb57f7	-1.838622
50	0xbf0f0ded	-0.55880624
51	0xbf7c70a3	-0.9860937
52	0xbf2135bb	-0.6297261
53	0x3e5d4e92	0.21612003
54	0x3fbb3dd1	1.462824
55	0xbf40542b	-0.7512843
56	0xbece0248	-0.40236115
57	0x3f944b6d	1.1585518
58	0x3e17c10d	0.14819737
59	0x3f959a5a	1.1687729
60	0x3fbd63d2	1.4796088
61	0x3f88a0ca	1.0674069
62	0x3eaa6905	0.3328325
63	0xbf167905	-0.5877841
64	0x3e6d70e1	0.23187591
65	0xc0030d27	-2.0476778
66	0x3f2aa578	0.66658735
67	0xbf164ba9	-0.587092
68	0x3ebbd656	0.36686963
69	0xbdad9191	-0.0847503
70	0xbf982c48	-1.1888514
71	0xbec1b9a1	-0.37836936
72	0xbfd051ad	-1.6274925
73	0x3ec2809c	0.37988746
74	0x3f453c8e	0.77045524
75	0x3fd72671	1.6808606
76	0xbf8038b4	-1.0017304
77	0x3f3e07b2	0.7423049
78	0x3e7d38ee	0.24728748
79	0xbf2d1863	-0.67615336
80	0x3df73a54	0.12071672
81	0xbe942e3c	-0.28941524
82	0xbf00e9a9	-0.5035654
83	0x3ea6bac3	0.32564363
84	0xbf1dbeba	-0.6161915
85	0x3e9ea302	0.3098374
86	0xbf152696	-0.58262
87	0x3fad2a41	1.352852
88	0x3ec6f728	0.3886044
89	0x4002f60a	2.046267
90	0xbeececdf	-0.46274468
91	0x3e8441c4	0.25831425
92	0x3f3d7124	0.74000764
93	0x3e11687b	0.14200012
94	0x3ef4638a	0.47732192
95	0x3f1c6e55	0.61105853
96	0xbfc22899	-1.516864
97	0x3f37f854	0.71863294
98	0xbfe00760	-1.7502251
99	0x3fa1e795	1.2648798
100	0xbee54545	-0.4477941
101	0xbe7ed959	-0.24887599
102	0xbea1306d	-0.31482258
103	0xbf0c2c7a	-0.54755366
104	0x3fd463ac	1.6592917
105	0x3efa8d15	0.48935762
106	0x40634f4d	3.5517151
107	0xbea7d4e3	-0.32779607
108	0x3fc79734	1.5593019
109	0x3fb43357	1.4078168
110	0x3edd38ba	0.4320734
111	0xbe1c252d	-0.15248556
112	0x3eb21380	0.34780502
113	0xbf406c76	-0.751655
114	0xbfa613dd	-1.2974812
115	0x3f127e38	0.57223845
116	0xbdce24ee	-0.100656375
117	0x3f3011bf	0.6877708
118	0xbea2ba61	-0.3178282
119	0xbf9bb016	-1.2163112
120	0x3e98c627	0.29838678
121	0x3f8aed4f	1.0853671
122	0x3e91e518	0.28495097
123	0x3fd7750f	1.6832598
124	0xbe6e514e	-0.23273203
125	0xbd9db457	-0.07700413
126	0xbf88c88f	-1.0686206
127	0x3e2d2273	0.16907673
128	0xbe087d1e	-0.13328978
129	0xbe9c7b58	-0.30562854
130	0x3eb7cfc2	0.35900694
131	0x3faba424	1.3409467
132	0x3f9a7c88	1.2069254
133	0x3e4c33e1	0.19941665
134	0x3eccd9a3	0.40009794
135	0xbf25a8e1	-0.64710814
136	0x3f38fdd1	0.72262293
137	0x3fe6f3f6	1.8043201
138	0xbe67dfa4	-0.22643906
139	0xbd85c6f7	-0.0653209
140	0x3f21bb35	0.6317628
141	0xbf1314a9	-0.574534
142	0x3f5ce62b	0.8628871
143	0xbfb7cc78	-1.4359274
144	0x3f66a77f	0.9009933
145	0xbe0fe6d6	-0.140529
146	0x3fffa29f	1.9971503
147	0x3f52f447	0.8240399
148	0xbf3c3afd	-0.7352751
149	0x3fc4b12a	1.5366566
150	0x3dd65b35	0.10466615
151	0x3d828264	0.06372526
152	0x3f1caf23	0.6120474
153	0x3f3fd157	0.749288
154	0xbf9c3592	-1.2203848
155	0x3f08db27	0.534594
156	0xbf6abf6e	-0.9169835
157	0x3f443075	0.7663644
158	0xbf8bcb54	-1.0921426
159	0xbed47b62	-0.41500384
160	0x3ef4cc09	0.47811916
161	0xbe9e539c	-0.30923164
162	0xbfb53a0c	-1.415834
163	0x3fa04cc3	1.2523426
164	0xc00781af	-2.1172903
165	0xbfdb2b21	-1.7122537
166	0xbf9ad23d	-1.209541
167	0xbfa30a33	-1.2737488
168	0x3ebfd3c5	0.37466255
169	0x3fb81b96	1.4383419
170	0xbfe6aceb	-1.802152
171	0xbea4f96e	-0.3222155
172	0xbe85f997	-0.26166984
173	0x3fe3bfaf	1.7792872
174	0xbf7049eb	-0.9386279
175	0x3f991a46	1.1961143
176	0xbe878b6a	-0.26473552
177	0xbe80cc7a	-0.25156003
178	0xbf304cd7	-0.6886725
179	0xbe8a659c	-0.27030647
180	0x3fa39710	1.2780476
181	0xbf1d35a3	-0.6140997
182	0xbb7e9453	-0.0038845732
183	0x3dd54972	0.10414399
184	0x3f003111	0.5007487
185	0x3ec7edac	0.39048517
186	0x3e82af10	0.25524187
187	0xbf685e80	-0.90769196
188	0x3ea4c6e6	0.32182997
189	0x3e465056	0.19366583
190	0xbf08ee61	-0.5348874
191	0x3fc468fd	1.534454
192	0x40080456	2.1252646
193	0x3e8e6a79	0.27815607
194	0x3e93eebc	0.28893077
195	0xbebcb59b	-0.36857304
196	0xbf0b040d	-0.54303056
197	0xbf995b15	-1.1980921
198	0xbffaa121	-1.9580423
199	0xbfe38e0e	-1.7777727
200	0x3f7e1968	0.99257517
201	0xbf4ce11d	-0.80030996
202	0x3f2a5779	0.6653972
203	0xbf646e24	-0.8923056
204	0x3ee43035	0.4456803
205	0xbf14bdac	-0.58101916
206	0xbe1f88c3	-0.15579514
207	0x3dc4fcd0	0.09618533
208	0x3fd749c1	1.6819383
209	0xbf28e580	-0.6597519
210	0x3e80ec0d	0.25180092
211	0xbedd60b7	-0.4323785
212	0xbeb5e112	-0.35523278
213	0x3e24fb3c	0.16111463
214	0xbfd52736	-1.6652591
215	0x3ea18770	0.31548643
216	0xbf9ba929	-1.2160999
217	0x3f8884f8	1.0665579
218	0xbe82b9f3	-0.25532493
219	0xbee78142	-0.45215803
220	0xbe439e92	-0.19103459
221	0x3f845e97	1.0341367
222	0x3f32a610	0.6978464
223	0xbe601b1f	-0.21885346
224	0x3f9109b9	1.1331092
225	0x3f9683c8	1.1758966
226	0xbf3c6096	-0.7358488
227	0xbf4d4f0b	-0.80198735
228	0xbebe0ee9	-0.3712075
229	0xbdb76bff	-0.089561455
230	0x3f4bfc91	0.7968226
231	0x3ee47e48	0.44627595
232	0x3fbc0686	1.4689491
233	0x3fc10daa	1.5082295
234	0x3e164a04	0.14676672
235	0xbf19746f	-0.5994329
236	0xbf5da3ec	-0.8657825
237	0x3f9cefad	1.2260643
238	0x3f19c114	0.6006024
239	0xbeed555f	-0.46354195
240	0xbe94730d	-0.28994027
241	0xbf845864	-1.0339475
242	0xbe86f58f	-0.2635922
243	0x3f709c43	0.93988436
244	0xbe4d3846	-0.20040998
245	0x3f1d659b	0.6148316
246	0x3f36e288	0.7143941
247	0x3efdfbef	0.49606273
248	0xbf0a26aa	-0.53965247
249	0xbfeee0fb	-1.8662409
250	0x3e1d8806	0.1538392
251	0x3f9933c9	1.1968929
252	0x3e9b8138	0.30372024
253	0x3ed20b1f	0.4102411
254	0x3e82f4e7	0.2557747
255	0xbe244d2a	-0.16045061

item_embedding.weight f4 [14, 50]
0	0xbd79badc	-0.06096922
1	0xbdadbf80	-0.08483791
2	0xbf944f06	-1.1586616
3	0xbe2b247d	-0.16713138
4	0xbed4f35a	-0.41591913
5	0x3ee4710e	0.44617504
6	0xbfb5e2a5	-1.4209791
7	0x3b14df00	0.0022715926
8	0x3fd7d502	1.686188
9	0x3fd3b38d	1.653917
10	0xbca98d4e	-0.020697262
11	0x3f5cfa47	0.8631939
12	0xbef33f25	-0.47509113
13	0x3ed67c1b	0.4189156
14	0xbd1312f0	-0.035906732
15	0x3f4befef	0.79662985
16	0x3e9693f5	0.29409757
17	0x3f16848c	0.58796
18	0xbf03b937	-0.5145449
19	0x3f7fdeee	0.9994954
20	0xbe7a9adb	-0.24473135
21	0x3f4a3ac4	0.7899592
22	0xbe68bec8	-0.22729027
23	0x3f52ad57	0.82295746
24	0x3fcefe45	1.6171347
25	0x3ebc64a5	0.36795536
26	0xbf614f9b	-0.88012093
27	0x3f8a031d	1.07822
28	0xbedf9607	-0.4366915
29	0xbf10e347	-0.565968
30	0x3f81e469	1.014783
31	0x3f1a8aa4	0.603678
32	0xbf5fa5b2	-0.87362206
33	0xbf013cf3	-0.50483626
34	0xc01567df	-2.3344648
35	0xbfa972a9	-1.3238117
36	0x3ee4e8e3	0.44708928
37	0xbf8731cd	-1.0562073
38	0x3e187269	0.14887394
39	0x3f818c6f	1.0120982
40	0xbdf9f033	-0.122040175
41	0x3f6b036c	0.91802096
42	0xbfa5e3c3	-1.2960132
43	0x3f316975	0.6930154
44	0x3f493c75	0.78607875
45	0xbf4fb95f	-0.8114223
46	0xbfb99812	-1.4499533
47	0x3ec6be1a	0.3881691
48	0x40183544	2.378251
49	0xbe817ec8	-0.2529204
50	0xbf462b32	-0.7740966
51	0xbfade6d6	-1.358607
52	0x3e8bb1fa	0.27284223
53	0xbe135843	-0.14389138
54	0xbfed230b	-1.8526319
55	0x3f122620	0.57089424
56	0xbf0c2cdc	-0.5475595
57	0x3e0572fe	0.13032147
58	0x3fcda16e	1.606489
59	0xbfb08c5b	-1.3792833
60	0xbf055b7f	-0.52092737
61	0xbf03f349	-0.515431
62	0xbf918625	-1.1369063
63	0xbf84061e	-1.0314367
64	0xc054e335	-3.3263676
65	0xbf039328	-0.5139642
66	0xbeabab9f	-0.33529374
67	0xbeca792a	-0.39545566
68	0xbe9df4dd	-0.30850878
69	0x3e057cb1	0.13035847
70	0xbf3e88c5	-0.74427444
71	0x400ccbac	2.1999311
72	0x3fffd100	1.9985657
73	0xbea89f29	-0.3293393
74	0xbe5fd283	-0.21857648
75	0x3f713339	0.94218785
76	0x3d26f766	0.04076328
77	0x3f6dcb18	0.9288802
78	0x3f9ad4ee	1.2096231
79	0xbf6f5318	-0.93486166
80	0xbf21e5e9	-0.6324144
81	0xbf676bd4	-0.9039891
82	0xbf0cdb1d	-0.5502184
83	0xbe83f1fa	-0.2577055
84	0x3fbc22e0	1.4698143
85	0xc00a302b	-2.15919
86	0x3e7735c9	0.24141611
87	0x3e026569	0.12733997
88	0x3e401863	0.18759303
89	0x3e485b8f	0.19566177
90	0xbfa9f24e	-1.327707
91	0x3e4b1ea8	0.19835913
92	0x3ca21c40	0.019788861
93	0xbe92e4b7	-0.2869012
94	0x3fdd4e53	1.7289528
95	0xbfa020f5	-1.2510058
96	0xbeb3b9d6	-0.3510272
97	0x3e614ef6	0.22002777
98	0x3eb5f089	0.35535076
99	0xbf29d74a	-0.6634413
100	0xbf6c2b5d	-0.9225367
101	0xbf38c63a	-0.7217747
102	0x3f27dd1b	0.65571755
103	0xbe3de1eb	-0.18543212
104	0x3f5f1ea9	0.8715616
105	0x3fdaf3a3	1.7105602
106	0x3e9e29db	0.30891308
107	0x3d3d605d	0.046234477
108	0x3f64e3fd	0.8941038
109	0x3fd7b23e	1.685127
110	0x3ea792a0	0.32729053
111	0x3f6b0a4e	0.918126
112	0x3fd09124	1.6294293
113	0xbed68247	-0.4189627
114	0xbf24027d	-0.64066297
115	0x3e8034e2	0.25040346
116	0xbe69b5bd	-0.22823234
117	0xbf36076b	-0.7110507
118	0xbf871091	-1.0551931
119	0x3f95b14d	1.1694733
120	0x3dc2e54e	0.09516393
121	0xbe856593	-0.26054057
122	0x3fbbfef6	1.4687183
123	0x3fab5c55	1.3387552
124	0x3f031a17	0.51211685
125	0xbf82b014	-1.0209985
126	0x3f95f87e	1.1716459
127	0xbe5d0c8b	-0.21586816
128	0x3e78c306	0.24293146
129	0xbec260dc	-0.37964523
130	0xbfde276e	-1.7355783
131	0x3f036eb2	0.5134078
132	0xbe9e9d34	-0.3097931
133	0x3d0ba817	0.03409585
134	0xbff28ffa	-1.8950188
135	0x3e6f36fb	0.23360817
136	0xbe9ea1f1	-0.30982926
137	0x3f3776a3	0.716654
138	0x3f9a8eba	1.2074807
139	0xbf8899c5	-1.0671927
140	0x3f5c16e7	0.85972446
141	0xbf1c8540	-0.61140823
142	0x3fbcf35f	1.4761771
143	0xbf53d344	-0.8274424
144	0xbf52bc2e	-0.8231839
145	0x400f05ea	2.234736
146	0x3f35ddba	0.7104145
147	0xbd49ae3d	-0.049238432
148	0xbe698196	-0.2280334
149	0xbfdbce63	-1.7172359
150	0xbf0cbe5b	-0.5497796
151	0x3dad6a59	0.0846755
152	0xbec75f89	-0.38940075
153	0x3d6c71b2	0.057725616
154	0x3f887faa	1.066396
155	0x3e832ade	0.25618643
156	0x3e7a5014	0.2444461
157	0x3f568243	0.83792514
158	0xbefd7441	-0.49502757
159	0x3ea548e0	0.32282162
160	0x3f336b1b	0.70085305
161	0xbfbb611b	-1.4639009
162	0x3f74e49e	0.9566134
163	0xbea08fc8	-0.31359696
164	0x3effae5c	0.49937713
165	0xbf018793	-0.50597495
166	0xbd01d8dc	-0.031700954
167	0x3f85229d	1.0401188
168	0x3f0ec9fa	0.5577694
169	0xbfa84abf	-1.3147811
170	0x3fe94316	1.8223598
171	0x3e865883	0.26239404
172	0xbe805005	-0.2506105
173	0xbe2309a6	-0.1592165
174	0x3d556676	0.052099667
175	0x4001f0f1	2.030331
176	0xbe2e49a6	-0.17020282
177	0x3d172eb0	0.03690976
178	0xbfc829c6	-1.5637748
179	0x3f3d3083	0.7390215
180	0xbd8a5cdb	-0.06755992
181	0x3fa362f7	1.2764577
182	0xbf3eac34	-0.7448151
183	0xbc14be69	-0.0090786
184	0xbf65c1dd	-0.89748937
185	0xbe26198d	-0.16220684
186	0x3f936f0b	1.1518263
187	0x3f82d328	1.022069
188	0xbeac98da	-0.33710366
189	0xbe8b7ef3	-0.27245292
190	0xbe1dbe6e	-0.15404674
191	0xbeeaaf0f	-0.45836684
192	0xc011f9e4	-2.280877
193	0x3f828775	1.0197588
194	0x3efebf88	0.49755502
195	0x3e1495a7	0.14510213
196	0x3e9b22cd	0.30299988
197	0xbf70f0bb	-0.94117326
198	0xbe3b1761	-0.18270637
199	0xbf644166	-0.8916229
200	0x3fc36c9f	1.5267524
201	0xbfba41f4	-1.4551377
202	0x3e0289ca	0.12747875
203	0x3fbd5964	1.4792905
204	0xbe8046ca	-0.25054008
205	0x3f2eeb23	0.6832754
206	0x3ea0c254	0.3139826
207	0x3fc4c0e1	1.5371362
208	0xbfea4cf6	-1.8304737
209	0x403045d3	2.7542617
210	0xbd434142	-0.047669657
211	0xbd90b4e2	-0.07065751
212	0xbf85e335	-1.0459963
213	0xbf3d5699	-0.7396026
214	0x3ffd7110	1.9800129
215	0xbf864f8e	-1.0493028
216	0x3f9d3813	1.2282737
217	0x3f369ef4	0.71336293
218	0x3fba0b04	1.4534612
219	0xbf6a5aa1	-0.9154454
220	0x3fa443d8	1.2833204
221	0x3f8c20ee	1.0947549
222	0x3e72fac6	0.23728475
223	0xbf6bc58a	-0.92098296
224	0xbeeb718e	-0.45985073
225	0xbf27186c	-0.6527164
226	0x3f84e339	1.0381843
227	0xbeab1de3	-0.3342124
228	0xbd9d4cab	-0.07680639
229	0xbedf7caa	-0.436498
230	0x3eacdc43	0.33761796
231	0x3ee7d724	0.45281327
232	0xbe9e9c3e	-0.30978578
233	0x400a4b21	2.1608355
234	0x3fd424de	1.6573751
235	0xc0173bd6	-2.363027
236	0x3f510d9f	0.8166141
237	0xbf928423	-1.1446575
238	0xbfa61eea	-1.2978184
239	0xbe30c2fc	-0.1726188
240	0x3fa061f0	1.2529888
241	0xbf259daa	-0.646937
242	0xbfc57a98	-1.5428038
243	0xbef78790	-0.48345613
244	0x400d7136	2.2100348
245	0xbf12c4a9	-0.5733133
246	0x3fdb8a80	1.7151642
247	0xbfb214b0	-1.3912563
248	0x3fae1960	1.3601494
249	0x3f05765f	0.52133745
250	0xbfe5ec78	-1.796279
251	0xbfbfc75e	-1.4982717
252	0xbe8ce243	-0.27516374
253	0xbf9880e9	-1.191434
254	0x3eda880d	0.42681924
255	0x3ef21cea	0.47287685

fc_layers.0.weight f4 [128, 100]
0	0xbdc87339	-0.09787602
1	0x3ddd8268	0.10815889
2	0xbdb5e66b	-0.08881839
3	0x3cbc520e	0.022988345
4	0x3d86eb47	0.06587844
5	0x3d1694bd	0.03676294
6	0x3d5107cb	0.051032823
7	0x3d35044f	0.044193562
8	0xbd72e184	-0.0592971
9	0x3be069b3	0.006848538
10	0xbd8735a3	-0.06602027
11	0x3d317282	0.043322094
12	0x3d3878cc	0.045037076
13	0x3da11759	0.07865781
14	0xbdb2c373	-0.08728685
15	0xbcee0cb5	-0.029058794
16	0x3d27535a	0.040850975
17	0xbdab3748	-0.083601534
18	0xbde27c66	-0.11058883
19	0x3d9b8caa	0.07595189
20	0x3b0ee701	0.002180517
21	0x3dc3a62a	0.09553178
22	0xbd74ccd6	-0.05976566
23	0xbda7edbf	-0.08199643
24	0x3c49b772	0.012311803
25	0x3c28eb97	0.010310075
26	0xbda6d2d8	-0.08145684
27	0xba5d7507	-0.00084479194
28	0x3c069c78	0.008216016
29	0x3d2f5136	0.04280206
30	0x3d7c7ae4	0.061640635
31	0x3d108ee9	0.03529254
32	0xbd8bf351	-0.06833518
33	0xb96631b3	-0.00021953024
34	0xbcd24454	-0.025667347
35	0xbd8fb4cb	-0.070169054
36	0x3d18f217	0.03734025
37	0x3afc169e	0.0019232815
38	0x3d6eb6d1	0.058279816
39	0xbd1a19e4	-0.037622347
40	0x3ba641ee	0.0050737774
41	0x3dac8a1d	0.084247805
42	0xbc2dda02	-0.010611059
43	0xbd57962a	-0.052633442
44	0x3dc10a51	0.09425796
45	0x3d5994cf	0.05312043
46	0x3d1b7dba	0.0379617
47	0x3d5ec6db	0.054388862
48	0x3cf6b3cf	0.030115036
49	0x3dad4f53	0.084623955
50	0x3d779f7a	0.060454823
51	0xbd86dbc7	-0.06584888
52	0xbdb8081e	-0.08985923
53	0xbdaae9f6	-0.08345406
54	0xbd5a3287	-0.053270843
55	0x3d6f5c2f	0.058437523
56	0x3dbe0494	0.09278217
57	0x3d8f8f42	0.07009746
58	0x3b2177ac	0.002463798
59	0x3d1e4134	0.0386364
60	0x3cec23ee	0.028825726
61	0xbd9fabca	-0.07796438
62	0xbd838d3c	-0.06423423
63	0x3da26664	0.07929686
64	0xbc8dd9bb	-0.017315736
65	0x3d86a359	0.06574125
66	0x3d24a0d8	0.040192455
67	0x3da3559f	0.07975315
68	0x3d8ec75e	0.0697162
69	0x3db112e5	0.08646182
70	0xbd8c669c	-0.06855509
71	0xbd12b1fa	-0.035814263
72	0x3ceee3dd	0.029161388
73	0xbcb8f867	-0.022579385
74	0x3ccd2a8e	0.025044706
75	0x3c2c8568	0.010529853
76	0xbdbe41e5	-0.09289912
77	0xbd108170	-0.03527969
78	0xbc00dda8	-0.007865347
79	0xbcef4783	-0.029208904
80	0x3d637e00	0.055540085
81	0xbd69596c	-0.056970045
82	0xbbdaae44	-0.006673606
83	0xbccf8db4	-0.025336124
84	0xbc7cd28d	-0.015431059
85	0x3d6b832e	0.05749815
86	0x3dbff0d5	0.09372107
87	0xbd99c736	-0.075086996
88	0x3d41ecd2	0.04734499
89	0x3da3546f	0.07975089
90	0x3d61e3ca	0.055148877
91	0xbb19dda0	-0.0023478046
92	0x3daa1deb	0.08306488
93	0x3d8640ee	0.06555353
94	0x3bea29e5	0.0071461075
95	0x3dc47e4f	0.09594404
96	0xbd727f37	-0.059203353
97	0x3c8b38bb	0.016994825
98	0xbc07c80a	-0.008287439
99	0x3c02bc10	0.007979408
100	0x3d49f085	0.049301643
101	0x3da6809c	0.08129999
102	0xbd32a45c	-0.043613777
103	0xbcb09624	-0.021555968
104	0xbcee94c3	-0.02912367
105	0x3d68ad64	0.056805983
106	0xbd6bedba	-0.05759976
107	0xbc73e19b	-0.0148853315
108	0x3d1cdd20	0.03829682
109	0x3d2fd9cc	0.042932317
110	0x3d0e2299	0.034700964
111	0x3d367227	0.044542458
112	0xbd4ed999	-0.050500486
113	0x3d5f397f	0.054498192
114	0xbcb701d6	-0.022339743
115	0x3d661fa1	0.056182507
116	0xbd57c3fe	-0.052677147
117	0x3dacb8ba	0.08433671
118	0x3c8ed937	0.01743756
119	0xbc35e2bc	-0.011101421
120	0x3d8a7cec	0.06762108
121	0xbd028605	-0.031866092
122	0xbd047f21	-0.032347802
123	0x3daed2a3	0.085362695
124	0x3dc64d02	0.09682657
125	0x3dd7809f	0.105225794
126	0x3daf8cb2	0.085717574
127	0xbd56a08f	-0.052399214
128	0x3dca6105	0.09881786
129	0xbd37798b	-0.044793647
130	0x3d831308	0.06400114
131	0xbdd2ef64	-0.102995664
132	0xbd8f410f	-0.06994831
133	0x3b9f35d2	0.004858711
134	0x3d098fe8	0.033584505
135	0x3c430ba4	0.011904631
136	0xbcaf2411	-0.021379502
137	0xbd0e0f60	-0.03468263
138	0xbd539ec3	-0.05166508
139	0x3c98518f	0.018593578
140	0xbdaf18dd	-0.08549664
141	0x3da01d40	0.07818079
142	0xbd83d009	-0.06436164
143	0xbc938e97	-0.018012328
144	0xbc53f97f	-0.0129379025
145	0x3d99578b	0.074874006
146	0xbdc302de	-0.09522031
147	0x3d8b2492	0.067940846
148	0x3d705479	0.05867431
149	0xbbb4c380	-0.0055164695
150	0xbd1b7c5d	-0.0379604
151	0xbdcf9816	-0.1013643
152	0xbd3c0780	-0.04590559
153	0x3db74b43	0.08949902
154	0xbd434cbe	-0.04768061
155	0xbc8a783c	-0.016903035
156	0x3d230b41	0.039805654
157	0xbd9334a2	-0.07187773
158	0xbc157e07	-0.009124286
159	0x3d3080b6	0.0430915
160	0xbdb2ed8e	-0.08736716
161	0x3d29a70c	0.041419074
162	0x3dc26d18	0.09493464
163	0xbc668857	-0.014070592
164	0xbd6f172b	-0.058371704
165	0xbd93b05e	-0.07211374
166	0xbd45e1bf	-0.04831099
167	0xbdc2ad0b	-0.095056616
168	0x3da585bd	0.08082149
169	0xbdcf6db4	-0.10128346
170	0xbd54e014	-0.05197151
171	0x3dd8c4d7	0.10584419
172	0x3be43249	0.0069640023
173	0xbd74f9ee	-0.059808664
174	0xbb2f0810	-0.0026707686
175	0x3b59209a	0.0033131004
176	0x3ddc6ada	0.10762568
177	0xbde0e629	-0.109813996
178	0xbce28834	-0.027652837
179	0xbd9d8049	-0.07690484
180	0xbd900074	-0.070313364
181	0x3cff4c84	0.031164415
182	0xbcc97190	-0.024590284
183	0xbd00afc1	-0.031417612
184	0x3c6e962f	0.014562174
185	0x3d2ce3a3	0.04220928
186	0x3a4582a8	0.0007534423
187	0x3cb5c927	0.022190643
188	0xbc2f606e	-0.010704143
189	0x3a0d74e3	0.00053961406
190	0x3d825f88	0.063658774
191	0x3c29b51d	0.010358122
192	0xbcb2ccfa	-0.021826256
193	0xbdbbb7ce	-0.09165917
194	0x3d907666	0.07053833
195	0x3d862433	0.06549873
196	0x3a29bb99	0.00064747926
197	0xbd89f2c5	-0.06735758
198	0xbdd13b58	-0.10216397
199	0xbce52eb8	-0.027976379
200	0xbd3fc7aa	-0.046821274
201	0xbd32cad9	-0.04365048
202	0x3daf84f2	0.08570279
203	0xbd563932	-0.05230064
204	0x3d47608e	0.048676066
205	0xbccd5f20	-0.025069773
206	0x3caec7d1	0.021335514
207	0xbd69a8fa	-0.057045914
208	0xbcc5bda0	-0.024138272
209	0x3cdec371	0.027192803
210	0x3d3154fb	0.043293934
211	0x3d6fc840	0.058540583
212	0xbd2915e0	-0.041280627
213	0xbbea5208	-0.007150892
214	0xbc3c1244	-0.011478964
215	0xbc8b0197	-0.016968532
216	0xbd919bf4	-0.07109824
217	0x3c832f4c	0.016013764
218	0xbdba9ed5	-0.09112326
219	0xbda21783	-0.07914641
220	0x3db712ff	0.0893917
221	0x3d89b60b	0.06724175
222	0x3cddbae2	0.027066652
223	0x3dbe7605	0.09299854
224	0xbd580fb4	-0.05274935
225	0xbdc3dd6b	-0.095637165
226	0x3a32c466	0.0006819427
227	0x3d1a2f8c	0.037643
228	0x3b0e9c29	0.002176056
229	0x3d893a9f	0.06700634
230	0x3d1ab8fd	0.037774075
231	0x3d02c57d	0.03192662
232	0xbda9cf2d	-0.08291469
233	0xbd6ce0c8	-0.057831556
234	0xbda0505a	-0.07827826
235	0xbd20a2ab	-0.039217632
236	0xbb3bc3ba	-0.0028650598
237	0xbc685d22	-0.014182361
238	0xbd36775f	-0.044547435
239	0xbdc78ef8	-0.09744066
240	0x3c9ca7df	0.019123016
241	0xbd938f14	-0.07205024
242	0x3db1b747	0.086775355
243	0xbdad25a4	-0.08454445
244	0x3d29f623	0.0414945
245	0x3d0b1af4	0.03396125
246	0xbda366d3	-0.079785965
247	0x3cc96871	0.024585934
248	0xbd9dc502	-0.07703592
249	0x3d84da98	0.06487006
250	0x3d0f5b4a	0.03499917
251	0x3d0c1c15	0.03420647
252	0x3c53627c	0.0129018985
253	0x3db6cb7a	0.08925529
254	0xbdaaa42c	-0.083320946
255	0x3d6261af	0.05526894

fc_layers.0.bias f4 [128]
0	0xbc60ca3b	-0.0137200905
1	0x3a1ff0ea	0.00061012676
2	0x3d61ff8b	0.055175345
3	0x3ddbfd20	0.10741639
4	0x3db83938	0.089952886
5	0x3d694fe3	0.05696095
6	0x3d8762a4	0.06610611
7	0x3d89745f	0.06711649
8	0xbdc871da	-0.097873405
9	0xbdde8e2d	-0.10866962
10	0x3dade5dd	0.084911086
11	0xbd5ee3b3	-0.05441637
12	0xbce69436	-0.028146844
13	0xbdb5cbd0	-0.08876765
14	0x3c3e44b7	0.011613063
15	0x3d0a9218	0.033830732
16	0xbdaa6b4d	-0.08321247
17	0x3db47bda	0.08812685
18	0xbd880930	-0.066423774
19	0x3db98140	0.090578556
20	0x3d93bfa5	0.07214288
21	0x3cfd991b	0.030956795
22	0xb9df5497	-0.000425969
23	0xbdb8edaa	-0.09029706
24	0xbd9c6843	-0.07637074
25	0xbd06093b	-0.032723647
26	0xbcc533c9	-0.024072545
27	0x3d453d87	0.04815438
28	0xbda4c778	-0.08045858
29	0x3d4a2ee0	0.04936111
30	0xbd68ec84	-0.056866184
31	0xbdb30fa8	-0.087432206
32	0xbcda597d	-0.026654
33	0x3d0dd7ff	0.034629818
34	0x3d1027c6	0.03519418
35	0x3caf4abd	0.021397943
36	0x3d83a6a8	0.064282715
37	0x3b97f716	0.0046376092
38	0xbda142b1	-0.078740485
39	0x3d0b09b8	0.033944815
40	0xbad9abcc	-0.0016606986
41	0x3dccfa8e	0.10008727
42	0x3d0d5bbb	0.03451131
43	0x3c913267	0.017724229
44	0xba31c4c6	-0.00067813357
45	0x3ce83ccd	0.028349305
46	0xbdc7e00f	-0.09759533
47	0x3ceb5a9f	0.028729735
48	0x3d5fc4b9	0.05463097
49	0x3cdd3bb3	0.027006006
50	0xbda8503f	-0.08218431
51	0x3da4a208	0.080387175
52	0xbddf779f	-0.10911488
53	0x3dae435f	0.08508944
54	0x3d8c521d	0.06851599
55	0xbdae06d9	-0.084974
56	0x3d77bbce	0.06048184
57	0x3bec9c7e	0.0072208038
58	0xbd360df1	-0.04444689
59	0xbd832ff2	-0.06405629
60	0xbc0dd143	-0.008655849
61	0x3b98dcf4	0.0046650115
62	0xbd953cbb	-0.07286974
63	0x3ca09b0e	0.019605186
64	0x3d75b420	0.059986234
65	0x3da8fc32	0.082512274
66	0xbd1126d5	-0.035437424
67	0x3c757760	0.0149820745
68	0xbcd68ff6	-0.026191693
69	0x3d77d8ef	0.06050962
70	0x3d8edbe4	0.069755346
71	0x3ce2cec3	0.027686482
72	0x3d937767	0.072005086
73	0x3cbe56c5	0.023234734
74	0xbd94ffbd	-0.07275341
75	0x3d5a945a	0.053364135
76	0xbd96f856	-0.07371585
77	0x3a4717cc	0.00075947936
78	0xbc615d70	-0.013755187
79	0xbb9c0f22	-0.004762546
80	0x3ced0205	0.028931627
81	0x3ba2352f	0.0049501876
82	0xbd78fc7d	-0.060787667
83	0xbba9bb13	-0.0051797717
84	0xbcc6beea	-0.024260957
85	0xbc2ad2b5	-0.010426213
86	0xbd73789f	-0.059441205
87	0x3d066a12	0.032816
88	0xbcbb6421	-0.022874894
89	0xbc824989	-0.015904205
90	0xbcbf7d38	-0.023375139
91	0x3da2eb42	0.07955028
92	0xbcb37682	-0.021907095
93	0x3d44bdbd	0.04803251
94	0xbd66b955	-0.05632909
95	0xbdd3fbf2	-0.10350789
96	0xbd9062a9	-0.07050068
97	0x3bdbd6fc	0.0067089777
98	0xbdacfc5f	-0.084465735
99	0x3d45decd	0.048308183
100	0x3d8dd3f9	0.06925196
101	0x3dcc3016	0.09970109
102	0x3d48ca5e	0.049021117
103	0x3d98b6ae	0.074567184
104	0xbd9476ff	-0.07249259
105	0xbd7ab954	-0.0612119
106	0x3d928824	0.07154873
107	0xbd2d43ec	-0.042301103
108	0xbd91b3f1	-0.07114399
109	0x3d270a2e	0.040781192
110	0x3d66a03e	0.056305163
111	0x3bfb4bfd	0.0076689706
112	0xbdab44e2	-0.08362748
113	0xbd43bdc9	-0.047788415
114	0x3d79b471	0.060963098
115	0x3dc15e85	0.09441856
116	0x3d7909a9	0.06080023
117	0x3caf30f2	0.021385644
118	0x3d5797ec	0.05263512
119	0x3daa0c52	0.08303131
120	0x3d680fa4	0.05665554
121	0x3dbca8e1	0.092118986
122	0x3d29cd60	0.041455626
123	0x3dccce0e	0.10000239
124	0xbc142751	-0.009042577
125	0x3bdf2ee7	0.006811011
126	0xbdd42531	-0.10358656
127	0x3dcd7df1	0.10033787

fc_layers.2.weight f4 [1, 128]
0	0xbd8f2225	-0.069889344
1	0x3d38c138	0.045106143
2	0xbcca8a28	-0.024724081
3	0x3d58250a	0.0527697
4	0xbcb2d200	-0.021828651
5	0xbd34e027	-0.04415908
6	0x3d28f2b1	0.041247074
7	0xbd3171df	-0.043321487
8	0xbd6ccf0c	-0.057814643
9	0xbce85d4e	-0.028364804
10	0x3cb197d9	0.021678852
11	0xbd94ff33	-0.07275238
12	0x3d8aaf44	0.067717105
13	0xbd5bc28a	-0.053652324
14	0x3ca49bab	0.02009376
15	0x3db756ee	0.089521274
16	0x3d8af685	0.06785301
17	0xbc04a25d	-0.008095351
18	0x3d11ffc7	0.03564432
19	0x3cbe1f09	0.023208158
20	0x3c0bd839	0.008535438
21	0xb9c62240	-0.0003779102
22	0xbd77cf29	-0.060500298
23	0xbc247ac3	-0.010039034
24	0xbc192f79	-0.009349697
25	0xbb3e1c84	-0.0029008696
26	0x3d867b61	0.065665014
27	0x3da02b1d	0.07820723
28	0xbd9c3870	-0.07627952
29	0xbd8ad311	-0.06778539
30	0x3d86d2d4	0.06583181
31	0x3d92f2a2	0.07175185
32	0x3dc031e1	0.09384514
33	0xbd559e4e	-0.052152924
34	0x3d9068ab	0.07051214
35	0x3d7d3227	0.061815407
36	0x3d67981c	0.056541547
37	0xbd3029c2	-0.043008573
38	0x3d7f9350	0.062396348
39	0xbd4f5143	-0.050614607
40	0xbcf20284	-0.029542215
41	0x3d583223	0.05278219
42	0xbc511b22	-0.012762817
43	0x3afab2ea	0.0019126807
44	0x3da71e84	0.08160117
45	0xbd5ee76c	-0.05441992
46	0xbc33b587	-0.010968572
47	0xbc72b611	-0.014813916
48	0xbd88f518	-0.06687373
49	0x3d1dcff0	0.038528383
50	0x3d02bd21	0.03191865
51	0x3c6997b4	0.01425736
52	0x3c01c342	0.007920088
53	0x3d936968	0.07197839
54	0x3d01c2c2	0.031679876
55	0x3cc8fffa	0.024536122
56	0x3dad2fd0	0.08456385
57	0xbb3d7c7f	-0.0028913317
58	0x3ce050c7	0.027382268
59	0xbd36e973	-0.04465623
60	0xbcf1cfc6	-0.02951802
61	0xbd716a03	-0.05893899
62	0x3cf551d2	0.029946242
63	0x3d3207a8	0.043464333
64	0xbca8d00c	-0.020607017
65	0x3da7325f	0.081639044
66	0x3cbf4b9a	0.02335148
67	0xbb9e7d92	-0.0048367465
68	0xbcb89cff	-0.0225358
69	0x3d5e51a8	0.054277092
70	0xbb0bffda	-0.0021362216
71	0xbd8f3a46	-0.06993537
72	0xbaa234cb	-0.0012375353
73	0x3d4704dd	0.048588622
74	0xbd93a051	-0.07208312
75	0x3cfae05d	0.030624563
76	0xbc8184c4	-0.015810378
77	0x3dbb2957	0.09138744
78	0xbcdfab71	-0.02730343
79	0x3d01a5f1	0.031652395
80	0xbd632cf3	-0.05546279
81	0xbd8355bf	-0.06412839
82	0x3d46f9bc	0.04857801
83	0xbd926206	-0.07147603
84	0x3d7b70e6	0.061386965
85	0x3d5b1500	0.053486824
86	0x3c930ee9	0.017951446
87	0x3c5d2977	0.0134986555
88	0xbd865f97	-0.06561201
89	0xbd86b2cb	-0.06577071
90	0xbd616235	-0.0550253
91	0x3d8931d5	0.06698958
92	0xbcbb67ce	-0.022876646
93	0x3c8e550f	0.017374543
94	0xbc9a47d6	-0.018833082
95	0xbd105266	-0.03523483
96	0x3d0e8cef	0.034802373
97	0xbd36a9f2	-0.044595666
98	0x3b8cc3aa	0.004295786
99	0xbd57c9b8	-0.05268261
100	0xbcc75afe	-0.02433538
101	0x3d0b62cf	0.034029778
102	0x3d12e72a	0.035864986
103	0x3c2786b7	0.01022499
104	0xbd0af168	-0.03392163
105	0xbc14fae5	-0.009093021
106	0x3db9fb6c	0.09081158
107	0x3da9e878	0.08296293
108	0x3d3bf434	0.045887187
109	0x3c5aec50	0.013362005
110	0x3d240c2b	0.040050667
111	0xbd95d78e	-0.073165044
112	0xbda0c20e	-0.07849513
113	0xbd1be9a4	-0.038064614
114	0xbc9cc8eb	-0.019138774
115	0x3db8cf60	0.09023929
116	0x3bd3c8a6	0.006463128
117	0x3cd0350f	0.025415925
118	0xbb9c6a42	-0.004773409
119	0x3d2ad239	0.04170439
120	0x3d4cf423	0.050037514
121	0x3db37ce2	0.08764054
122	0xbd84a1b4	-0.06476155
123	0x3d829935	0.06376878
124	0x3d3cfd47	0.04613998
125	0xbd82d218	-0.063877285
126	0xbd0527a1	-0.032508496
127	0x3d4763cf	0.04867917
