ncf_model.pth (torch, 16979 bytes, 9 tensors)

user_embedding.weight f4 [1, 20]
00000000: 9707 96bf c1ba e5bd bf57 8f3e 9a8f 2d3f
00000010: e9b9 013f 4139 183f 2b3a 9cbe 170f c93f
00000020: 6b33 2bbf 9102 10be 9d0a 293e febf 94bf
00000030: c800 2fbe 6833 85bf ef5f c83e 75d8 593e
00000040: cc9b a53e 64c1 bcbe 356b 853e 948e 693f
-1.1721066 -0.11217261 0.27996632 0.67797244 0.506743 0.5946236 -0.3051313 1.570773
-0.6687533 -0.14063479 0.16507955 -1.1621091 -0.17090142 -1.0406313 0.39135692 0.21273978
0.32345426 -0.36866295 0.26058355 0.9123318

item_embedding.weight f4 [11, 20]
00000000: 9b2e 303f 845c 5dbf ea14 043d b8ab 303f
00000010: fff2 53bf acf6 b93d 7af1 acbd 8d0b 2dbf
00000020: 34f0 23bf 7683 8fbf 5714 68bf ee09 7a3f
00000030: 1818 5b3f a4fb b73f f023 833f 46c2 233e
00000040: 07df ddbe 3a90 53bf 0af2 76bf 0595 c43f
00000050: f9a4 943d 7843 c4bf 3f0a 0a3f bb49 953f
00000060: bdbe 653e db59 b53e 2917 ebbe 6ff1 53bf
00000070: f741 3c3f 2d68 f23d 667d 95be 4374 bfbe
00000080: eb02 9dbe 0896 f4bf 7894 d63e 2dc8 d6bf
00000090: 29bb d3be 4711 993f 16a0 69be 6b0f 07bf
000000a0: ba47 d7bf 47a5 0240 c6be 32bf 3dd0 723f
000000b0: b85a 33bf a1c5 abbf b211 473e 3a98 663f
000000c0: be64 dcbe d6f2 b3bf 4b0a 943f 2ba3 083f
000000d0: c031 c4be a5d5 4dbf 27ce f53e f2f2 96bc
000000e0: cab4 16bf 30a3 e03f cdee 5abf cac0 873f
000000f0: 29c3 7bbf faf7 923e 67d4 24bf 2c31 e13e
00000100: 89de 38bf f88c 79bf 2cae a53f 1257 6c3f
00000110: e810 aabf 3a46 243e 4c00 b93e 0239 2cbe
00000120: 1fa0 7d3f fff2 2f3f c307 81bf 4fe4 c7be
00000130: 0b16 0f3f 5d3e 493f 9ef1 b3bc 2a5a 04be
00000140: 4112 a33c acdc c5be 809e fe3e 28e9 663f
00000150: e121 10be 3f19 d7bf 40f2 a23f f216 fcbf
00000160: b24e 4d3f 0750 f0be 59cb 2abf 447a 0cbf
00000170: ec1f 133f 94ff ac3f f831 f03e c691 263f
00000180: 51f9 b73f 39d4 cdbf 8444 a5be 28ae 543f
00000190: d95e 6fbf d9e2 713f 8beb cdbe 5cb1 0b3f
000001a0: 6082 c93f 06ef 4f3e 4249 90be d48a e93e
000001b0: 2ca0 5cbf e857 6dbe 7efb e0be 1197 443f
000001c0: e429 adbe d893 ff3c 03bb 8b3f 0509 403f
000001d0: 6fa9 933f 0c5f d9bf 7e88 683f e60b 60bf
000001e0: 9e23 0b3d 20c1 6d3f 0171 30bf 2623 85bf
000001f0: 383a 3dbe ea49 833e 1cad 97bf 2b08 dd3e
00000200: 1866 563e 8762 ce3b fceb b83f 93dc b73f
00000210: 0e9e bdbf 60a3 88bf 17e9 50be dfa7 84bf
00000220: 0690 463e fb51 df3f 20cc 64bd 6441 653f
00000230: 2dc7 883f 60b3 a53f 71a6 cebe 0108 933f
00000240: e341 b93e 85d0 87bf 3f23 d1be 23a8 7abe
00000250: 60c5 73bd 14b5 cebf 5990 873f 681a a2bf
00000260: db6d f33a 9a27 8fbd e1a1 e83e 1d9e d33e
00000270: 4d84 6cbe 9bb9 f73d 4ced 2b40 c11e d7be
00000280: 09da a03f bb31 abbf 1bf2 333f 6672 2c3f
00000290: 46a2 0d3f d563 3b3f 8cbb ab3e fec9 263f
000002a0: 6d51 0e40 04a7 78be 4967 533f ec71 b83e
000002b0: f20c 03bf 85db 30bf 738e 1a3f 8ca5 6a3e
000002c0: fe06 0940 e2f6 9c3f 9578 edbe c7ba 03bf
000002d0: 3a55 bb3f 59fb 863f df5c 91bf 0e80 45bf
000002e0: 3eaa 023e 6bb3 ba3c 4740 9bbf 9e85 25be
000002f0: 7c29 08bf 92f1 5b3e 304e 96bf 7fd8 353f
00000300: bd0e 8c3f c328 28be 40fb a93e c989 febf
00000310: 7a29 593f 2066 253f c3b8 d83e 7ee8 91bf
00000320: a4a7 2cc0 2138 0c3e 1172 1bbf 1e5e a5bf
00000330: 9f26 29be 4a83 2cbf 6b0c 393f 6639 4a3e
00000340: 75ab 4bbf 05c0 413f a4eb f2bf fea5 7b3f
00000350: 18e8 283f 197c 8d3f 38dd 3a3f 2971 a03c
00000360: f20f f9be 4b0f a53f b4c5 d73f 01c9 ea3e
0.68821114 -0.8646929 0.032246508 0.6901202 -0.8279266 0.09080252 -0.084444955 -0.6759575
-0.64038396 -1.1211994 -0.90656036 0.976714 0.8558364 1.437367 1.0245342 0.15992078
-0.4333422 -0.8264195 -0.9646307 1.5357977 0.072580285 -1.533309 0.53921884 1.1663126
0.22436042 0.35420117 -0.45916107 -0.82790273 0.73538154 0.11836276 -0.29197234 -0.37393388
-0.3066629 -1.9108286 0.41910148 -1.6779839 -0.4135373 1.1958398 -0.22814974 -0.527579
-1.6818764 2.0413377 -0.6982235 0.94848996 -0.700603 -1.3419687 0.19440344 0.9007603
-0.4304561 -1.4058483 1.1565641 0.53373975 -0.38319206 -0.8040412 0.48008844 -0.018426392
-0.5886961 1.7549801 -0.8552063 1.060571 -0.98344666 0.28704816 -0.643866 0.43982828
-0.7221456 -0.97480726 1.2943778 0.9232036 -1.3286409 0.16042414 0.3613304 -0.16818622
0.9907245 0.6873016 -1.0080494 -0.39041373 0.5589301 0.78610784 -0.021965798 -0.1292502
0.019906165 -0.38644922 0.497303 0.9019952 -0.14075424 -1.680458 1.2730179 -1.9694502
0.80198205 -0.46936056 -0.66716534 -0.5487406 0.57470584 1.3515496 0.46913123 0.6506618
1.437296 -1.608039 -0.32278836 0.8307824 -0.935041 0.9448677 -0.40218768 0.54567504
1.5742912 0.20306024 -0.2818089 0.4561373 -0.861819 -0.23178065 -0.43941873 0.7679301
-0.33821023 0.031198427 1.0916446 0.7501376 1.1536082 -1.6982131 0.9083327 -0.87518156
0.033969514 0.9287281 -0.6892243 -1.0401351 -0.1847924 0.2564233 -1.1849704 0.43170294
0.20937383 0.0062983665 1.4447017 1.4364189 -1.481386 -1.0674858 -0.20401417 -1.036373
0.19390878 1.7446893 -0.05585873 0.89552903 1.0685784 1.2945366 -0.4036136 1.1486818
0.3618308 -1.061051 -0.40847203 -0.24478202 -0.059514403 -1.6149011 1.0590926 -1.2664309
0.0018572168 -0.06989975 0.45436004 0.41331568 -0.23097344 0.12095948 2.6863585 -0.4201565
1.2566539 -1.3374552 0.702913 0.6736206 0.55325735 0.73199207 0.33541524 0.65151966
2.2237198 -0.24282461 0.82579476 0.36024415 -0.5119163 -0.6908496 0.6037361 0.22914714
2.1410518 1.2262843 -0.4638106 -0.51456875 1.4635384 1.0545455 -1.1356467 -0.7714852
0.12760255 0.022790631 -1.2128991 -0.16164252 -0.531883 0.2147887 -1.1742611 0.7103347
1.0941998 -0.164218 0.331995 -1.9885799 0.84828913 0.64608955 0.42328462 -1.1399076
-2.697732 0.13693286 -0.60720927 -1.2919347 -0.16518639 -0.6738783 0.72284573 0.19748458
-0.795585 0.75683624 -1.8978162 0.9830016 0.65979147 1.1053497 0.72993803 0.019585209
-0.48644978 1.2895292 1.6857209 0.4585648

fc_layers.0.weight f4 [64, 40]
00000000: 3eee 2b3d 00bb e33d e20f d23d bf16 de3d
00000010: 2497 f73d 930b 833d 4df9 c43d 2507 5c3d
00000020: 27cf edbb ec7e f23c 51c0 793d 4bf8 afbd
00000030: e562 42bd ff67 b0bd 14bd 78bd c181 ef3d
00000040: bf5b 7b3d 9c79 ddbd f5c9 c63c 94ec 5fbd
00000050: 35fc 94bc e5a3 e83d 19ca aa3d 12df 11be
00000060: b6e9 8c3d 47ff 0bbe f44b 03bd 9e38 fbbd
00000070: 6174 e5bd c0f1 09bd 423c da3d 76a1 e2bd
00000080: 8e37 90bd 81f2 65bd 7be0 f73d 352a 9b3d
00000090: 5258 073e 7ee1 35bd 9d39 aebd 962c dfbd
000000a0: 515e a0bd 2887 723d f89a 893d d4da 6dbd
000000b0: 18b4 493d 3790 233d 21c2 febd 150e 963d
000000c0: 42b1 8e3c 2821 3fbd 5ae7 c43d 4c15 153e
000000d0: 8fa2 0fbe b533 df3b 9492 29bd e7cb e93d
000000e0: 669a be3c 5ee3 11be 2786 0b3d f971 06be
000000f0: 4728 f6bd b9cb f8bd f551 0cbe 4be0 b93d
00000100: f0bb b53d bbdc fcbd 31c2 95bd 72b5 0c3e
00000110: cf9a 973c 49d9 a1bc 2518 413d 41f9 bf3d
00000120: 5b43 f4bd fd45 f53b 9c2e 94bd 9228 d23d
00000130: ff97 fdbd 6677 4ebd 6f70 af3d bfe9 ee3c
00000140: b9bd 87bd 06a3 03bb 035a ff3d 242c 17be
00000150: ff37 ddbd d0f7 d93c c42d 0b3d e311 71bd
00000160: 6d3a 8dbd 7203 dc3d 5e50 12be 6591 e83d
00000170: 04e4 c2ba 761f 0dbe 8847 99bc a145 0e3e
00000180: 5604 a6bd 1c83 3c3d ec72 923d 5426 b93c
00000190: d278 94bd e038 1b3c 90ec 9e3b 772a 1ebe
000001a0: da73 bcbd 149c fa3c 9843 f33d 861d 9b3d
000001b0: 28ea e2bd 469d 32bd 9712 e23d 2829 923d
000001c0: 2ba7 be3d b9be ba3d 51eb 91bd 655d 56bd
000001d0: 7daa abbc b2de d93d 5b84 9c3c b440 17be
000001e0: 85a8 063e be7d f63d a369 87bc 341b 31bc
000001f0: ba4e 11be 5ce0 c0bd f266 1cbb b8e1 a23c
00000200: 4bf3 063e 8172 86bd c681 0c3e 8c99 f43d
00000210: 5296 c33d d506 ffbc 81fa b83d 6048 e1bd
00000220: 33da 50bd e4a1 74ba 368b fabd e717 a93d
00000230: 55ba 1a3e 2394 6b3d 3da9 92bd 33bf e8bd
00000240: 74dd 973d fe73 9d3c 2433 df3d 357f 06be
00000250: 5de2 a3ba c30e f4bd 4687 08bd 2534 8bbd
00000260: 654f 463c fa0c ccbd 1054 303d 4b58 f23d
00000270: e1fa b33c 1466 12be dadb 80bd 0bdd fe3d
00000280: b76f 083e 6f57 32bd dfcd b2bd 3fe5 00be
00000290: db12 013e 6dbf 24bd 05fa 8f3d f310 b03c
000002a0: 8089 ef3a 8938 f13a 7a7e 59bd 3222 0b3e
000002b0: e55d bc3d e340 abbc c983 363d 0bff 643d
000002c0: e326 5fba a4e3 a0bd 9497 5abd 28ab 02be
000002d0: e4be 863c ad6e 04be 0a27 cebd 4e30 03be
000002e0: 5ea3 c63b f3a3 85bd 128a d5bd ca29 0fbd
000002f0: f27e acbd 816f f83d 5b5a 0fbe 09fd b13c
00000300: 7930 25bd b5d0 163d b4b4 283d d414 f03d
00000310: cac5 b4bd 268b d73c 0b23 44ba 19dd 10be
00000320: 1b17 9f3c b76b c6bd 93d3 883d 217c 3c3d
00000330: cca3 0a3e 05b5 103e 5f3b fd3d 68d0 f13d
00000340: c817 d73c b604 113d 9420 043d a0bf 113e
00000350: bbc1 fcbd 3ca0 04be 4165 0f3e fd4b 023e
00000360: c986 40bd 64e7 6939 c079 53bd bbf7 b3bd
00000370: 1d13 e13c 75ac 0c3e 2a2e f4bd 95cb 043e
00000380: 5ff8 05be e863 c6bb 6714 c8bd eff5 cd3d
00000390: 9190 02be 654e 0abe 0c36 a4bc ae9f 8ebd
000003a0: 81eb de3d 480a c3bd 28de 0f3e d1c7 b0bc
000003b0: a902 f73c 049b 4b3d 52c5 8c3d a46e fdbd
000003c0: f1e7 953d cc0e 033e 8314 01be 524c e33d
000003d0: f21d 83bd 2b3b 19bc 41d3 95bd fb0d 033c
000003e0: 7cc1 4f3c 8c82 9a3d 1307 a8bd 8638 a039
000003f0: 91f1 f7bd 9461 c8bb 39fb 36bd dbeb a7bd
0.041975252 0.11119652 0.10256936 0.10844182 0.12089375 0.06398692 0.09617863 0.05371775
-0.0072573605 0.029601537 0.060974423 -0.0859228 -0.047457594 -0.08613586 -0.060727194 0.116946705
0.061366793 -0.10814211 0.024266222 -0.054668978 -0.018186668 0.113593854 0.08339328 -0.14245251
0.06880514 -0.136716 -0.032054856 -0.12266658 -0.11203838 -0.033677816 0.106560245 -0.110659525
-0.07041846 -0.056139473 0.12103363 0.0757641 0.13217285 -0.0444045 -0.085070826 -0.10897176
-0.078304894 0.059210926 0.06719011 -0.05807002 0.049244016 0.039932456 -0.12439371 0.07326905
0.017418507 -0.04666248 0.09614439 0.14558905 -0.14026855 0.006811584 -0.041399553 0.114158444
0.023266982 -0.1424689 0.034063485 -0.13129415 -0.12019401 -0.12148232 -0.13703139 0.090759836
0.08873737 -0.123467885 -0.0731243 0.13741091 0.018506436 -0.01975693 0.047142167 0.09373713
-0.119269095 0.00748515 -0.072354525 0.102616444 -0.123825066 -0.050406836 0.08566367 0.029164193
-0.066279836 -0.0020086183 0.1246834 -0.14762932 -0.10801696 0.026607424 0.033979192 -0.05885495
-0.068959095 0.10742845 -0.1428847 0.11355857 -0.0014868979 -0.13781533 -0.018710867 0.13893749
-0.08106296 0.046023473 0.07150826 0.022601284 -0.07249607 0.009474009 0.004849978 -0.15445887
-0.092017844 0.030592002 0.11878127 0.075739905 -0.11079818 -0.04360702 0.11038702 0.07136756
0.093092285 0.09118409 -0.07124961 -0.05233516 -0.020955319 0.10638179 0.01910608 -0.14770776
0.13150223 0.12035702 -0.016529864 -0.010809708 -0.14190188 -0.09417793 -0.002386507 0.019883022
0.13178746 -0.06564809 0.1372138 0.11943349 0.09550156 -0.031131187 0.09032155 -0.110001326
-0.05098934 -0.0009331985 -0.12233584 0.08256512 0.15110143 0.05751432 -0.07161186 -0.11364593
0.07415286 0.019220348 0.10898426 -0.13134463 -0.0012503375 -0.11916878 -0.03333213 -0.06797055
0.01210389 -0.099634126 0.04304892 0.11833247 0.021970214 -0.14296752 -0.06291933 0.12444504
0.13323866 -0.043540414 -0.08730673 -0.1258745 0.12604849 -0.04022162 0.07030109 0.021492457
0.0018275231 0.001840369 -0.053099133 0.13587263 0.091975965 -0.020904964 0.044559274 0.05590729
-0.00085125695 -0.07855919 -0.053367212 -0.12760603 0.016448446 -0.12932844 -0.1006604 -0.12811396
0.0060619554 -0.065254115 -0.104267254 -0.034951963 -0.084226504 0.12130643 -0.13999312 0.021727102
-0.04032943 0.036820132 0.041187957 0.11722723 -0.08826788 0.026311468 -0.00074820284 -0.14146842
0.019420197 -0.09688514 0.066809796 0.046016816 0.13539046 0.14131553 0.1236484 0.118073285
0.026256457 0.035404883 0.03225763 0.14233255 -0.12341639 -0.1295175 0.14003469 0.127243
-0.04700354 0.00022306811 -0.05162978 -0.08787485 0.027474934 0.13737662 -0.119228676 0.12968285
-0.13083027 -0.00605439 -0.097695164 0.10056674 -0.1275046 -0.13506468 -0.020045303 -0.0696405
0.108847626 -0.09523445 0.1404959 -0.021579655 0.030152636 0.04970838 0.06873573 -0.12374619
0.0731963 0.12798613 -0.12605481 0.11098541 -0.06402196 -0.009352486 -0.07315684 0.007998939
0.012680408 0.07544431 -0.08204474 0.0003055969 -0.12106622 -0.006115148 -0.04467318 -0.08199283

fc_layers.0.bias f4 [64]
00000000: 50bc 0a3e 3671 043b e7c1 cf3d 7c1d 88bc
00000010: 5c52 8838 b872 a43c b498 1a3c fce9 ffbd
00000020: e1b9 f1ba 59e7 533d 9fa8 573c 9a02 e2bd
00000030: cecd a9bd 2bfe 31bd e3e8 63bd 2c56 15be
00000040: 338c 133a 5ca1 ffbd e713 0ebd 458a 87bd
00000050: 708a c8bd c054 ed3d eecc 013e f1c8 dfbd
00000060: 1406 d2bc 3dcb 033d 499c 173e adc4 883d
00000070: 09cf 00be 9404 0e3d 4184 97bd 679a bd3a
00000080: 4f52 73bd 6995 273d f1cd fcbd 7253 3fbd
00000090: 7f08 3a3d e251 a0bc 2f31 4ebb 7557 8c3d
000000a0: eb36 d73d 8c79 7c3d 57e0 48bd 2783 c43d
000000b0: 2b62 073e 37bd f5bd d5f3 e13d 7278 e6bd
000000c0: 9be9 15be 5857 0ebe d8e7 03be 6114 0a3d
000000d0: 0363 bbbd 2a3d d4bd dbc4 883d 693e bebd
000000e0: 5d15 e63d e25d a0bb bc15 0cbe 9962 fc3d
000000f0: c9d0 b2bc a721 08be 56b0 cf3d 8c5a f13d
0.13548398 0.002020908 0.10144406 -0.016615622 6.500326e-05 0.020074233 0.009435821 -0.12495801
-0.0018442237 0.051734302 0.013162761 -0.110356525 -0.08291207 -0.043455284 -0.05564202 -0.14583653
0.00056284963 -0.12481949 -0.03468695 -0.0661817 -0.0979203 0.115884304 0.1267583 -0.109269984
-0.025637664 0.032176245 0.14805712 0.06678138 -0.12578978 0.034672335 -0.07398272 0.0014465571
-0.059404667 0.040913973 -0.12343968 -0.04671044 0.04541826 -0.019570295 -0.0031462421 0.068526186
0.10508522 0.061639354 -0.049042072 0.09595328 0.13221042 -0.119989805 0.110328354 -0.11253442
-0.14639895 -0.13900506 -0.1288141 0.03371084 -0.09149744 -0.103632286 0.06678172 -0.092892475
0.112345435 -0.004894004 -0.13680166 0.123234935 -0.021828072 -0.13294087 0.10141055 0.117848486

fc_layers.1.weight f4 [64]
00000000: f5b4 7d3f bd3a 813f f492 7d3f c585 7d3f
00000010: 108c 7d3f 9039 813f d59e 7d3f b88b 7d3f
00000020: d890 7d3f 0442 813f 4c35 813f 937e 7d3f
00000030: 5480 7d3f 953d 813f 552f 813f 0b87 7d3f
00000040: a48d 7d3f 0537 813f 4032 813f 7521 813f
00000050: 3c37 813f 8246 813f 0c3d 813f 222b 813f
00000060: 4d79 7d3f 4133 813f a784 7d3f 95a3 7d3f
00000070: 5894 7d3f e132 813f 9b85 7d3f 8d8a 7d3f
00000080: df72 7d3f bf74 7d3f c287 7d3f e592 7d3f
00000090: b788 7d3f 3682 7d3f 29d8 7d3f 4926 813f
000000a0: 2297 7d3f e780 7d3f 7334 813f 7a27 813f
000000b0: 3c7d 7d3f b73f 813f 5b3b 813f 8625 813f
000000c0: f47a 7d3f eba2 7d3f 7691 7d3f 2534 813f
000000d0: 0b35 813f 6c83 7d3f 5f79 7d3f 2f78 7d3f
000000e0: e936 813f b987 7d3f 7c80 7d3f 687d 7d3f
000000f0: 338f 7d3f cb3a 813f f216 813f bba7 7d3f
0.99104244 1.009605 0.9905236 0.9903224 0.99041843 1.0095692 0.99070483 0.9904132
0.9904914 1.0098271 1.009439 0.9902126 0.9902394 1.0096918 1.009257 0.99034184
0.9904425 1.0094916 1.009346 1.0088335 1.0094981 1.0099642 1.0096755 1.0091288
0.99013215 1.0093766 0.99030536 0.9907773 0.9905448 1.0093652 0.9903199 0.99039537
0.99003404 0.99006265 0.99035275 0.9905227 0.99036735 0.9902681 0.9915796 1.0089809
0.99058735 0.99024814 1.0094131 1.0090172 0.9901922 1.0097569 1.0096239 1.0089576
0.99015737 0.9907672 0.9905008 1.0094038 1.0094312 0.9902866 0.9901332 0.9901151
1.0094882 0.9903522 0.99024177 0.9901948 0.9904663 1.0096067 1.0085127 0.9908406

fc_layers.1.bias f4 [64]
00000000: 9945 16bc 5b5f 1e3c e9d1 1dbc d467 eebb
00000010: 443f 1fbc a08a 1f3c 99ce 1dbc 38af 1bbc
00000020: 2e83 1abc 6da3 213c dea8 213c 4623 20bc
00000030: 593d 1dbc b7bc 203c 6e36 213c c21a 1bbc
00000040: 5957 0ebc 03a0 1c3c 691f 233c 98fd 193c
00000050: 9085 1e3c f221 203c 3c60 203c f621 1e3c
00000060: 2856 1cbc b1bb 1e3c 745e 21bc 5871 1cbc
00000070: f59b 19bc 02ee 223c 3384 19bc 4b84 1dbc
00000080: eac7 21bc 4680 20bc e4b7 ab3b e07d 1dbc
00000090: d682 9bbb a9f6 1bbc f629 12bc 52b1 1b3c
000000a0: 8c64 1bbc 6a84 1fbc a4d4 1d3c 3b23 1f3c
000000b0: 5c8e 1fbc aef0 1e3c a5ff 1a3c 600b 1c3c
000000c0: ae8f 20bc 22e2 18bc 2668 19bc cbe1 193c
000000d0: fd80 1d3c 62c6 1ebc 41fd 1fbc 8028 1bbc
000000e0: 3f17 223c 328b 22bc 1545 1bbc 5a74 20bc
000000f0: 5101 1ebc 9d96 1e3c 4d83 173c 9d62 16bc
-0.009171867 0.009666289 -0.009632566 -0.007275561 -0.009719674 0.009737641 -0.009631776 -0.009502225
-0.00943069 0.009865624 0.009866921 -0.009774035 -0.009597146 0.009810618 0.009839637 -0.009466829
-0.0086878175 0.009559634 0.009956219 0.00939884 0.0096753985 0.009773718 0.009788569 0.009651652
-0.009542026 0.009688304 -0.00984918 -0.009548508 -0.009375562 0.009944441 -0.009369898 -0.009614061
-0.009874323 -0.009796208 0.0052404273 -0.0096125305 -0.0047458215 -0.009519258 -0.008921137 0.009502726
-0.009484421 -0.00973616 0.009633217 0.009712989 -0.009738531 0.009700937 0.0094603645 0.009524196
-0.009799881 -0.009331258 -0.00936321 0.009392212 0.009613273 -0.009690853 -0.00976497 -0.009470105
0.009893238 -0.009920882 -0.00947692 -0.009793365 -0.009643869 0.009679464 0.009247613 -0.009178785

fc_layers.1.running_mean f4 [64]
00000000: aad4 ca3e 12bb 883d 7d12 833c 1723 adbe
00000010: 56fe b9be 7339 ba3e e730 debc 38c4 a2be
00000020: bc01 79bc 687a f0bd 87be 3e3c 60ef 8e3d
00000030: bfcc a3bd 8a81 7dbe ffef 8fbe a36f 45be
00000040: 713a 1a3d e470 e93d 2a7a 823c e09e 85bc
00000050: 1b98 9f3c acef 9f3e 2267 1a3d a743 7cbd
00000060: 2a2e 1f3e f52e 5a3e 743b 9f3e 29fd f13d
00000070: ed76 73be 2975 bdbe e13c 8bbc 394d 95bd
00000080: aa3a 81be ccb1 89bd a4d2 5bbe d6d9 4a3e
00000090: 39f6 f0bd 829a 633e 6e63 c33d 74df 0a3d
000000a0: d608 e4bd f774 44bc 8008 d93d 7e9d c83c
000000b0: c80e 12bb 811d 17bf 2468 463c 198d 183e
000000c0: 74fe 7fbe e056 8a3d 1bcc b3bd 10b9 96bd
000000d0: 1081 4dbe f5ef 80be bd2f 963d 2465 23bf
000000e0: 6810 223d 91e1 0e3e 2491 9abe 3700 a23e
000000f0: bd06 413e 1bbc 18be 7db1 963d 8033 973c
0.39615375 0.06676306 0.016000027 -0.33815834 -0.36326855 0.36371955 -0.027122928 -0.31790328
-0.015198167 -0.11742097 0.011642105 0.06979251 -0.079980366 -0.24756446 -0.2811279 -0.19280867
0.03765339 0.11398485 0.015927393 -0.016311109 0.01948171 0.31237543 0.03769601 -0.061587956
0.15544954 0.21306975 0.31100047 0.118158646 -0.23775835 -0.3700345 -0.016996803 -0.0729012
-0.2524007 -0.06723365 -0.21467072 0.1980966 -0.11765713 0.22226909 0.09540449 0.033904508
-0.11134498 -0.011990777 0.10597324 0.02448916 -0.0022286642 -0.59029394 0.01210979 0.14897574
-0.2499941 0.06754851 -0.087791644 -0.073595166 -0.20068765 -0.25183073 0.07333324 -0.63826203
0.039566427 0.13953234 -0.30188859 0.3164079 0.18850227 -0.14915507 0.07358072 0.018457174

fc_layers.1.running_var f4 [64]
00000000: e005 d13e 4134 d63e 6c60 f23e 6d80 e53e
00000010: 883b dd3e 1a4f f73e ba0f fd3e 89b2 063f
00000020: c65f f43e d702 d23e 0dcf ef3e d782 ea3e
00000030: f6cd e93e 1f44 e13e e12d d53e 3381 de3e
00000040: a227 d23e d1a7 e13e 81b1 0f3f b831 c63e
00000050: ef33 153f 2471 d33e e178 e43e 2355 de3e
00000060: ffde bc3e a15f d53e 53ae c93e 07c3 ef3e
00000070: 5c0b df3e 9a30 ed3e 2858 d13e dd43 d93e
00000080: f360 eb3e bc71 db3e 0085 de3e 6743 e33e
00000090: 7e7c f23e 6b8a cc3e 2df7 c83e e63d f93e
000000a0: 1135 c23e 4c77 d73e 27b6 e33e afaf f63e
000000b0: 9dc3 e03e b84b c43e af9c ca3e 35a2 ed3e
000000c0: 5540 d03e 9031 e83e c2a0 e43e b7f6 f93e
000000d0: 9832 fa3e 2a6e 103f fbbb e73e 165e db3e
000000e0: 6b82 e83e 0428 df3e a758 db3e 29cc 033f
000000f0: d121 f43e e709 e93e 99c5 da3e 1693 d53e
0.40824795 0.41836742 0.4733919 0.44824544 0.4320948 0.48302537 0.4942606 0.52616173
0.4772932 0.41017792 0.46837655 0.45802948 0.45664948 0.43997285 0.41636565 0.43457946
0.41045862 0.44073346 0.56130224 0.38709807 0.5828237 0.41297257 0.44623473 0.4342433
0.36888883 0.41674522 0.3939081 0.46828482 0.43563354 0.46326143 0.4088757 0.42434588
0.45972404 0.4286021 0.43460846 0.4438736 0.47360605 0.39949355 0.3925108 0.48680037
0.3793111 0.42083204 0.4447491 0.4818091 0.4389924 0.3833902 0.39572665 0.46412817
0.4067408 0.45350313 0.44653898 0.4882104 0.48866725 0.56418097 0.45260605 0.4284522
0.45412 0.43585217 0.42841074 0.514834 0.4768205 0.45515367 0.4272888 0.4171378

fc_layers.4.weight f4 [1, 64]
00000000: 6133 a7bd ea10 b03d 0c65 e8bd 910f 5f3b
00000010: c7bc a9bd 162a bd3d 5cd8 7cbd 9340 c0bd
00000020: 96a0 dfbd 24e3 a63d cc79 073e a322 13bd
00000030: 6fb5 92bd 9ab3 f03d d67b db3d fffc bcbb
00000040: fa6f fbb9 9057 673d 3025 533d a60f 983d
00000050: 0273 e33d 9ed2 c13d fe57 d73d fff2 9a3d
00000060: 4785 29bd 2376 753d 0e9b 6dbd 7492 9bbd
00000070: a394 d8bd b859 e83c 35fa bfbd 5943 06bd
00000080: 4417 89bd f898 98bc ec10 0e3c 25db a0bd
00000090: b957 b33b dddb 4abc 012c 82bd 0859 d03d
000000a0: 5cfc d6bd d53b 95bc cd61 063e 88aa ec3d
000000b0: 5e98 0cbd fb5d f23d 7494 033e 71d8 b33d
000000c0: 9e4f 88bc dce7 a3bd 4030 6abd dda4 fd3d
000000d0: 6782 283d 1559 d7bc c43d 7fbd 1fdc c6bb
000000e0: 55c1 593d e10d e3bd 6a63 2bbc 7492 c5bd
000000f0: 10f6 8abc 74cc fc3d 5313 4b3d c3fe a7bd
-0.081640966 0.08596976 -0.11347398 0.0034036378 -0.082879595 0.09236543 -0.061729774 -0.093873166
-0.10919301 0.081487924 0.13230056 -0.035921704 -0.07163512 0.11753006 0.10716979 -0.005767464
-0.0004795788 0.05647999 0.051549137 0.0742486 0.111059204 0.09464 0.1051483 0.07565879
-0.04138687 0.059927117 -0.0580092 -0.07596293 -0.10575225 0.028363094 -0.09373895 -0.03277907
-0.06693891 -0.018627629 0.008671027 -0.078542985 0.005473104 -0.012381521 -0.06356049 0.10173231
-0.104973525 -0.018217007 0.13123246 0.11555964 -0.034324996 0.118343316 0.12849599 0.08781517
-0.016639527 -0.08003208 -0.05717492 0.12384961 0.041139986 -0.026287595 -0.062314764 -0.006068721
0.05316289 -0.110866316 -0.010460714 -0.09647074 -0.016963035 0.12343684 0.049578976 -0.08202889
